space_exploration_with_DQN/runs/2025-07-18_19-56-33.pt (torch, 43945 bytes, 13 tensors)

fc1.weight f4 [64, 8]
00000000: 62c8 a4be d488 09bf 3865 33be 34bc e0bd
00000010: b957 973d e4c5 993e 28ed 2dbd f197 803e
00000020: 5cc3 89bd f0ab b3bd 09e0 30be e664 c2bd
00000030: 4724 c03d c0b7 a93e d111 a9be 02dd 133d
00000040: 0c93 87bc 4ee8 2c3d 2dbe 62bd 45ed 923e
00000050: 501d 563f c2e4 453f 035c 1e3e afb8 cfbe
00000060: cc22 67be 8aa0 5f3e 16e1 143e ddc4 1bbd
00000070: 4a92 403f c916 2c3f 305d 1b3e df65 06bf
00000080: c676 0d3e f14d 17bf c509 cebe 4fb9 c03d
00000090: 06bd 42be ca19 97be 4f9c 553d 6825 b0be
000000a0: 2d8e 063f 9352 cc3c 804f d5bd 7565 8a3e
000000b0: 4f09 803f 7161 3a3e db4c aa3c 10bd ff3d
000000c0: 20d2 243e a8ed 29be f812 943d 336f 21be
000000d0: 8e6c a43e 0b64 1a3e 562f 0dbf d069 eebe
000000e0: a8bd ea3e ee75 0c3e 4e91 38be 2b21 1b3c
000000f0: 4382 41be 85ac 9bbd 01d2 673e 1f11 97be
00000100: deeb 853e d109 48be 9bd8 c93d 0733 66be
00000110: 3342 063f fc08 9f3d 0d49 dabe 7df7 86be
00000120: cfa2 463e 6e89 c3be bfba 513e 7304 963d
00000130: 4d77 4f3e 893d 11bf abf5 d8be 1121 c8bd
00000140: 5c23 90be e2b6 87bd 5903 2a3e 1306 d7bd
00000150: d993 55bd 4eab ad3e 6613 f5be e4f3 d73b
00000160: c54c 253e 7166 25bf a09c e33d e5d7 e5be
00000170: 5a43 6c3e a02e 953e eda5 533c f8aa cfbe
00000180: e3c5 cbbd e8d9 7f3e e84f 48be f118 203f
00000190: 0699 bf3e 9697 8cbc 317e 4ebe c803 91be
000001a0: 8431 0f3d a443 18bf 903f 723d dbc2 e4bd
000001b0: c244 7dbe 8187 c83e 29c8 23be 0e3c af3e
000001c0: a39d 5ebe b552 423d b147 523d 3c61 1f3e
000001d0: 37c6 eb3d f05d 42be da6e d53d 51d2 2abe
000001e0: 60c4 4cbe 909e 0b3d 83a9 5ebe 0a6f f43e
000001f0: 987c 503e 3247 e9be 84db febe b459 f33e
00000200: ab97 bcbe 4c7b 28bd 7c8c a13d 8429 213e
00000210: 65cb d43d 4378 31be a54f 093e d1d5 5b3e
00000220: 571f 843e ac88 383e 5f59 0bbe 07ea 2fbe
00000230: 68da d1bd 167a dcbb 8f0d 57be 58cb ecbc
00000240: d514 4e3e 2367 edbd 434e 363e 33ed 9d3f
00000250: ed28 ea3e 1d47 1d3f aca4 93bd 6cf4 12be
00000260: 61d4 e43e 4418 003e dc4d 20be cdfb 67be
00000270: 66bf 713b 9a0b 743d 5ea0 c4be 94dc 2fbe
00000280: b1f2 e53d 7633 383e 7065 35be 860e 39be
00000290: 4f55 583f 55e5 db3e 0efc bbbe de0f d7bc
000002a0: 2a5d 093e 63c8 683b ccb5 babe 1904 65be
000002b0: 1d1d 763e fa5f 1d3f 9072 c7bd 5d19 0a3e
000002c0: c2d9 e6be 2c4a dfbd 6f36 84bd 5ad8 10bd
000002d0: f99b 31bd d1ea 47be 074d 25bf b8d9 0bbf
000002e0: 2062 80be 9ac9 dbbd 1ac9 61bf 25e1 013e
000002f0: 35d9 b83f 4ee1 203f f850 113a 868e 1bbf
00000300: a6f9 1bbe b1e7 da3d b85d c33e d3d9 b83e
00000310: 1f72 5e3e ddaf 093f d51a b1be df64 fd3e
00000320: 4f36 47bd f6b7 2ebd b20b af3e 9db9 65ba
00000330: 6920 c33e 1352 b83e c309 e5be 60b9 52be
00000340: bcc6 a7be d99a 923d e63d 653e bbad ffbd
00000350: e674 883e 0434 7d3e 0e63 fabd 1912 50be
00000360: a8f7 b93c 678e 0cbf f129 9b3e c1ce a9be
00000370: 7a09 6bbd f8ba b2be 1a68 743e d19b 063e
00000380: ea59 6b3f 04c6 f33d ae97 093f f1b0 143d
00000390: d3f7 da3e a6d4 9d3e 2f0e f6be a9c6 2cbe
000003a0: 83d8 b93e 703e 083e 11f1 9b3d 5dd8 b3bd
000003b0: 22ae b63e 6d9c 0a3e 216d a839 e18e f8be
000003c0: 0771 04bd 3a93 05bd 2208 84be 2394 613e
000003d0: fbb3 4e3f 3174 413f 9952 c4bd fe9b 99be
000003e0: 037b 033e 02d8 283d 08b2 27be fc58 ccbe
000003f0: b84c 9dbd 6df8 083e 084b 1bbf ca33 2dbe
-0.3218413 -0.5372441 -0.1751908 -0.10973397 0.07389779 0.3003379 -0.042462498 0.25115922
-0.06726715 -0.08773029 -0.17272963 -0.09491901 0.09381919 0.33148003 -0.33021405 0.03609944
-0.01654961 0.04221373 -0.055357147 0.28696647 0.8363848 0.7730218 0.15464787 -0.4057059
-0.22571868 0.21838585 0.14538988 -0.03802954 0.7522322 0.6722227 0.15172267 -0.5249919
0.1381484 -0.59103304 -0.4024183 0.09410345 -0.19017419 -0.29511863 0.05215102 -0.3440354
0.52560693 0.024941718 -0.10415554 0.2703053 1.0002841 0.18201233 0.0207886 0.12487233
0.16095781 -0.16594565 0.072301805 -0.15765075 0.3211407 0.15077226 -0.55150354 -0.46565104
0.4584782 0.13716862 -0.1802418 0.009468357 -0.18897347 -0.07601265 0.22638704 -0.2950525
0.26156515 -0.19534995 0.09855767 -0.22480403 0.5244476 0.077653855 -0.42633858 -0.26360694
0.19398044 -0.38190788 0.20481394 0.07325067 0.20260353 -0.5673452 -0.4237493 -0.09771932
-0.28151977 -0.06626679 0.1660284 -0.104992054 -0.05214295 0.33919758 -0.47866362 0.0065903533
0.16142567 -0.6460944 0.11113858 -0.44891277 0.23072568 0.29137135 0.012917978 -0.40560126
-0.09949853 0.24985468 -0.19561732 0.6253806 0.37421435 -0.017162126 -0.20165326 -0.28323197
0.03495933 -0.5947821 0.05914265 -0.11169978 -0.2473326 0.3916588 -0.15994324 0.34225506
-0.21739821 0.047442157 0.0513379 0.15564436 0.11512416 -0.18981147 0.10421534 -0.16681792
-0.19996786 0.034086764 -0.21744351 0.47740966 0.20360029 -0.4556213 -0.49776852 0.47529376
-0.36834463 -0.04113321 0.078881234 0.15738493 0.10390357 -0.17331032 0.13409288 0.21468283
0.2580516 0.18020886 -0.13608311 -0.17179118 -0.10246736 -0.006728421 -0.21001266 -0.028905556
0.20125134 -0.115919374 0.17803292 1.2338012 0.4573435 0.61436635 -0.07209143 -0.14351052
0.44693282 0.12509257 -0.15654701 -0.22654648 0.0036887764 0.059581377 -0.384036 -0.17173988
0.1122793 0.17988381 -0.17714477 -0.18071947 0.8450517 0.42948404 -0.3671574 -0.026252683
0.13414446 0.003551983 -0.36466825 -0.22364844 0.24034543 0.61474574 -0.09738648 0.13486238
-0.4508801 -0.10902819 -0.06455695 -0.03536258 -0.043361638 -0.19523169 -0.6457066 -0.5462909
-0.25074863 -0.10731812 -0.8819748 0.12683542 1.4441286 0.6284379 0.00055433763 -0.6076435
-0.15231952 0.10688723 0.3815744 0.36103687 0.21723221 0.5378397 -0.34590784 0.4949102
-0.048635777 -0.042655908 0.3418861 -0.0008763315 0.38110664 0.36000118 -0.4473401 -0.20578527
-0.3276881 0.07158441 0.22386894 -0.12484308 0.26651686 0.24726874 -0.122259244 -0.20319404
0.0227011 -0.5490479 0.30305436 -0.33165553 -0.057382084 -0.3490827 0.23867837 0.13145377
0.9193407 0.11903003 0.5374707 0.036301557 0.427672 0.308263 -0.48057696 -0.16872658
0.36297998 0.13305068 0.07614339 -0.087815024 0.35679728 0.13536234 0.00032124764 -0.48546508
-0.032334354 -0.03261111 -0.25787455 0.22029166 0.8074338 0.7556792 -0.09586067 -0.30001825
0.12839894 0.041221626 -0.16376507 -0.3991164 -0.076806486 0.13376017 -0.60661364 -0.16914287

fc1.bias f4 [64]
00000000: 3643 703e 0371 6a3e 0df9 8a3e 6211 b1be
00000010: b5f4 e8be 77e8 3bbe 7999 403e 77b3 cbbd
00000020: de0b 5a3e d6f7 b63e d598 513e e50f 8e3d
00000030: a768 2bbe df1d a5be eb36 9c3e 8426 0f3c
00000040: 45b3 9f3e d3fa 1fbe 73eb da3d 8dac acbd
00000050: d4cd 51be b227 8ebd 3cfc 663e d3cd 5abe
00000060: e7db d83d 3a6d a03e 53cd afbe 6fb5 713d
00000070: f4a2 babd 4699 433d 2fc7 d73d fd1e 84bd
00000080: 25ea e0bd 2472 993e f83f 3a3e db40 313d
00000090: 94ed 803e fd06 1a3d bfb4 39be a374 d33e
000000a0: d1b6 86be c364 c63d b682 4cbe 0b1c a1be
000000b0: 8853 2fbe bc11 793d c676 80be a916 a23c
000000c0: 5ebb 153d 7e2b 803e 31c0 193e ef32 ae3e
000000d0: 45ff b8be 79bb c7bd 571c 693e 896a 2c3e
000000e0: 2641 90be cfd3 70be c39a f0bd f33e 86bd
000000f0: 474f 0e3e 3b34 eebd b189 a33d 4332 023e
0.23463139 0.22894673 0.27143136 -0.34583575 -0.45499197 -0.18350397 0.18808545 -0.099463396
0.2129359 0.3573596 0.20468457 0.069366254 -0.1673914 -0.32249352 0.3051065 0.00873721
0.3119146 -0.15623026 0.106894396 -0.08431349 -0.20488673 -0.06941165 0.22557157 -0.21367578
0.10588818 0.31333333 -0.34336337 0.05901092 -0.09113112 0.047753595 0.10536038 -0.06451223
-0.109821595 0.29969895 0.18188465 0.04327474 0.25181258 0.03760432 -0.18135355 0.41299924
-0.26311353 0.096871875 -0.19971737 -0.31466708 -0.17121708 0.06080793 -0.25090617 0.019786196
0.03655564 0.25033182 0.15014721 0.34023234 -0.36132255 -0.097525544 0.22764717 0.16837515
-0.28174704 -0.23518299 -0.117482685 -0.06554975 0.1389743 -0.11631056 0.07985247 0.12714486

ln1.weight f4 [64]
00000000: f5a1 b23f d6f7 b83f 47df e53f 6030 c63f
00000010: e03b a43f ff0a b13f 064c a43f 1fb4 ba3f
00000020: fa13 be3f 68e5 ba3f d462 ca3f d6d4 bf3f
00000030: 63ca b83f 5aee 9e3f e48b af3f 8703 c33f
00000040: 5dc1 983f 88e2 b93f 8fdd d83f 5577 c63f
00000050: 3e4e af3f f45c c73f bc6c c03f 6cd8 dc3f
00000060: 8dc4 c63f 5461 d23f 849c 993f 9d79 c13f
00000070: 953b 9f3f 7c79 b53f 7d7e dc3f d3e8 b83f
00000080: e02d a13f 8b39 a93f a2a9 a03f 0423 a93f
00000090: c6ab a23f 2bed 973f 906d c83f 0904 c73f
000000a0: fc33 9f3f 9ab9 b83f 9246 ba3f f71c af3f
000000b0: f5f6 b53f 3b24 b23f 6098 d23f ea78 b93f
000000c0: be8f a33f 1046 d83f baee 973f ca24 a53f
000000d0: 040c 933f fdbb b23f b334 b73f 3387 8b3f
000000e0: f309 f73f 2533 b33f 0616 863f 068a 9c3f
000000f0: 7c0c b73f 66a5 873f 2ce7 aa3f b3b7 dd3f
1.3955675 1.4450634 1.7958764 1.5483513 1.2830772 1.3831481 1.28357 1.4586219
1.4849846 1.4601259 1.581141 1.4986827 1.4436764 1.2416489 1.3714566 1.5235451
1.193401 1.4522257 1.6942614 1.5505167 1.3695753 1.5575242 1.5033183 1.7253547
1.5528733 1.6435952 1.200089 1.5115238 1.2440058 1.4177699 1.7226101 1.4446052
1.2592125 1.3220686 1.2551768 1.3213811 1.2708671 1.1869253 1.5658436 1.5548106
1.2437739 1.4431641 1.4552786 1.3680714 1.421599 1.3917307 1.6452751 1.4490025
1.2778242 1.6896381 1.1869729 1.2901852 1.1488042 1.396362 1.4312958 1.0900635
1.9299911 1.3999983 1.0475471 1.2229621 1.4300685 1.0597351 1.3351798 1.7321686

ln1.bias f4 [64]
00000000: 003d 54bd 2e7e ea3d a2f9 99bd 5f98 51be
00000010: 8bcb d7bd 0380 6fbe 4dc0 d63d 6be6 8abd
00000020: 428f 2c3e fa26 743d 2771 d03d 80b2 28bd
00000030: 732b 08be 99b7 32be 670f 39be 50b5 21be
00000040: b149 58be 7496 a73c 25a9 453c 568b 6e3d
00000050: dd01 74bd 6a2f 083e 758c 463e edb6 51be
00000060: ded3 90be e664 843d 441b 25be 84a7 2d3c
00000070: db83 7d3c dcaf ac3c f761 6dbe b7af 9e3d
00000080: 9f36 2ebe f6a2 e3bb 6b80 813d edb9 92bd
00000090: 6316 ed3d b4e9 00be 9520 8fbe 27a3 53be
000000a0: f38e f4bd c255 c6bd 94ec a73c c1cc f5bd
000000b0: 02d8 7cbe 5292 773d 7808 033c b5b8 4cbe
000000c0: e8d4 e7bc 15dc 293e cdfd 743d 8828 b6bd
000000d0: 6a4c f3bd 9d3f dbbc 4459 5f3e e2ad 46bb
000000e0: 24f7 b93d d593 8b3d d19c 36bd 2d33 c8bb
000000f0: 88b3 033e 2ce4 83bd 8592 44bd d6ab 4ebd
-0.051815987 0.11449848 -0.07518317 -0.20468281 -0.105368696 -0.23388676 0.10485897 -0.0678223
0.16851524 0.059607483 0.10177832 -0.041185856 -0.13297825 -0.1745285 -0.18072282 -0.15791821
-0.21121861 0.020457484 0.012064253 0.05823835 -0.05957209 0.13299337 0.19389518 -0.20479937
-0.28286642 0.06464557 -0.16123682 0.010599021 0.015473331 0.02107995 -0.23181902 0.07748359
-0.17013024 -0.0069469167 0.06323322 -0.07164369 0.115765356 -0.1258915 -0.27954546 -0.20667706
-0.11941328 -0.09684326 0.020498551 -0.12001944 -0.24691775 0.060442276 0.007997625 -0.19992335
-0.028299764 0.16587861 0.059812356 -0.088944495 -0.11879809 -0.026763732 0.21811396 -0.0030316045
0.090803415 0.06815306 -0.044583146 -0.0061096163 0.12861454 -0.06440005 -0.047991294 -0.050456844

fc_value.weight f4 [64, 64]
00000000: d6eb 9dbe 3d8c 833e c0b9 cebe e6b8 85be
00000010: 482e 2cbd d3ed e3bc b68b 8b3e e48c 82be
00000020: e51f 943e 59c1 20bd dada c03e 0637 72be
00000030: 37de 9fbe d2df 5fbe 67b9 7dbd cf61 24be
00000040: 639a 7fbd be21 693e 4eb6 b1bd 4822 0c3f
00000050: 7c34 4b3e 3860 ee3e d121 0e3e bcab 2dbe
00000060: 6437 ecbe b9f2 1f3e 9e71 5bbe 3257 94be
00000070: 2586 38be fea5 9f3e 4385 eebc dac2 183f
00000080: 8279 9fbe 380a e2bd 8b10 523b 89bc c3be
00000090: 0a64 703e 3669 33be 342b aabe b049 fbbd
000000a0: 8b79 85be 35af 333e a2b1 70be ddde 70be
000000b0: 28fc 20bc 211a 303e 917f 313e 8ba4 1dbe
000000c0: b72e a5be 3838 ce3e f114 013d 2209 ff3d
000000d0: 10ab 6dbd 47fa 81be 5339 643e d916 5b3d
000000e0: e453 243e 01f5 0f3e 7a65 8f3d b4f7 2dbe
000000f0: 3a17 d63e 2769 e03b e35f c3be a250 c63d
00000100: ad66 233f 7953 473e 9a28 efbb 7171 97bd
00000110: 078d c33e cc02 4bbe db58 843c 2c24 343e
00000120: 9329 8f3e c0f9 0d3f 875f 833d 769c e63e
00000130: 0350 08bd d97f 53be eecb 85bf 1e85 1dbe
00000140: 175d d9be 2746 adba 2979 f3bd 2de9 e83c
00000150: 367e 10be 5283 883e d809 ebba a8dd 93bd
00000160: 15ba 54be 33ef c3bd adb2 03be 7321 4b3f
00000170: 61c5 a33e bdcc 36be 5860 dabd 5664 963c
00000180: edbd 763d 9faf 03bf 8926 17bf c796 a43e
00000190: 1875 8ebe 0773 3cbe e04e 41be cbd9 43be
000001a0: 14fe 9a3e f00e 0dbc 6e7a 553f 3a54 dc3e
000001b0: 24bd f8bd 4f24 a3be 4b5b b0be dc40 a6be
000001c0: 77cf 5c3e c8f3 673e f52e 1ebe 68e3 d4be
000001d0: aab6 0ebe 51f8 683e 46be 0a3e 3300 dbbd
000001e0: 7504 60be 3de8 8a3d 0bc7 823d eb1e 4d3e
000001f0: 0f7d 263e 25a5 4e3e 0b84 3a3e b8cb 21bd
00000200: 3820 7e3e 3a46 1d3e 04ad 193e 7397 1bbe
00000210: fa7e 9e3e d2a5 a7be 6dd5 cfbb 461c 4f3e
00000220: 48e9 923e 3b4b 243f 41de 113e bba0 b53e
00000230: 7997 4ebd 5653 40be 1788 45bf a746 80be
00000240: 4e09 60be edea d63c 6b43 84be ef1a 12be
00000250: 5843 c5bd a8d1 c03e de84 443d 3e44 9d3d
00000260: a7cd f3be 6369 883d d686 40be c8fb e73e
00000270: d72e d5bd 3f99 adbe c8ac 093e a120 babc
00000280: 7908 74be 5371 81be 0a83 c8be 8319 363e
00000290: 3804 ebbd 3c61 81be 213b 9bbe 1986 66be
000002a0: e704 683e 1971 f4bd ba01 493f 519d 693e
000002b0: 7cb2 90be e05f adbe 5442 cabe 9f3f 12be
000002c0: dd2e cc3d 842f 033d c75c 17be cb94 43be
000002d0: 8faf 34be 6d0e cb3e d9e5 a13e 58fc ebbd
000002e0: 859d ddbd b138 bbbd f90a 52bd 2585 07bd
000002f0: dc1b 073e 42e4 d7bc 9617 17bd aebb 20be
00000300: c216 093d cdf2 0bbc b573 98bd cdf0 2ebc
00000310: 56f8 743c ff93 d7bc 807a 2ebe f200 a53e
00000320: 8b52 2bbe d818 683c b208 0fbd 342f b6bd
00000330: a171 763d 2e4b 903b 42d7 833a 0d6b 96bd
00000340: 273e 6b3c 4ac2 873e d0d7 9bbe e326 183e
00000350: ebd8 433e d6be 52be 7316 93bc 8642 b4bd
00000360: b7cd ff3d d2b5 5dbe 6abf febd 6e78 083e
00000370: 14b3 51be 1f24 78bd a24a a4be 1a06 d1bd
00000380: a44e 783d 8389 2f3e 0532 94bd a763 c03c
00000390: ddaa aabc 655c d63d f27d 6fbe 1c73 04be
000003a0: c663 2b3d 5ae9 c5bd c8f8 b63e 6832 cbbd
000003b0: 8e78 e6bc 8e14 a73d 1ba5 9f3d bc16 1abe
000003c0: e7d9 2f39 0312 a4be af59 103e 9e77 bbbd
000003d0: 1b87 d6bd 20f4 063e 59f8 7f3d 7668 2ebe
000003e0: e9ba 4b3e 4029 cc3d 7c5f 583d 4fcd 423d
000003f0: ae12 c93d 47f0 13be 1f12 3dbb a06e 9abc
-0.3084399 0.2569293 -0.4037609 -0.2611763 -0.042036325 -0.027823364 0.27255028 -0.25498116
0.28930584 -0.03924689 0.3766697 -0.23653802 -0.31224224 -0.21862724 -0.06194439 -0.16052936
-0.062403094 0.22766778 -0.0867735 0.5473981 0.1984424 0.46557784 0.13880087 -0.16960043
-0.4613601 0.15619935 -0.2143006 -0.28972775 -0.18019922 0.3118133 -0.029116279 0.5967232
-0.3114739 -0.11037105 0.0032053317 -0.38229778 0.23475662 -0.17520604 -0.33236086 -0.12269914
-0.26069292 0.17547305 -0.23505262 -0.23522516 -0.009825744 0.17197467 0.17333819 -0.153948
-0.32262203 0.40277267 0.031514112 0.12452914 -0.058024466 -0.2538626 0.22287492 0.053488586
0.16047627 0.14058305 0.07001777 -0.16989022 0.41814595 0.0068484726 -0.38159093 0.09683348
0.63828546 0.19465436 -0.0072985413 -0.07394684 0.38193533 -0.19825286 0.01615565 0.17591923
0.27961406 0.55459213 0.06414705 0.45041245 -0.03327943 -0.20654239 -1.0452859 -0.15382811
-0.42453834 -0.001321976 -0.11888344 0.0284315 -0.14110646 0.2666269 -0.0017932011 -0.07220012
-0.2077411 -0.09567108 -0.12861128 0.79347914 0.31986526 -0.17851539 -0.10662907 0.01835839
0.06023972 -0.5143985 -0.59043175 0.32146284 -0.2782371 -0.18403254 -0.18877745 -0.1912605
0.3027197 -0.008609518 0.8338994 0.4303301 -0.12145451 -0.3186364 -0.3444465 -0.3247136
0.21563517 0.22651589 -0.154476 -0.41579747 -0.13936868 0.22750975 0.13549146 -0.106933974
-0.218767 0.06782577 0.06385621 0.20031326 0.16258644 0.20180185 0.18214433 -0.039500922
0.24816978 0.1535882 0.15007406 -0.15194492 0.3095625 -0.32743698 -0.006342581 0.20225629
0.28693604 0.6417729 0.1424494 0.3547419 -0.050437424 -0.1878179 -0.7716078 -0.25053903
-0.2187855 0.026235068 -0.25832686 -0.14268087 -0.096319854 0.37659955 0.047978275 0.07679032
-0.47617838 0.06660726 -0.18801436 0.4530928 -0.104093246 -0.3390598 0.13444817 -0.022720637
-0.23831357 -0.25281772 -0.39162475 0.1778317 -0.11475414 -0.25269496 -0.3031855 -0.22512092
0.2265812 -0.11935634 0.7851826 0.22813918 -0.28261173 -0.3386221 -0.3950373 -0.14282082
0.09969876 0.032027736 -0.14781485 -0.19099729 -0.17645095 0.39659443 0.31620672 -0.1152274
-0.1082106 -0.091416724 -0.051279996 -0.03308596 0.13194221 -0.026353959 -0.036887728 -0.15696594
0.03346897 -0.008541775 -0.07443944 -0.010677529 0.014951786 -0.026315687 -0.17038918 0.32227284
-0.16730706 0.014166079 -0.034920402 -0.08895722 0.06016696 0.0044034934 0.0010058659 -0.07344637
0.01435808 0.26515418 -0.3043809 0.14858584 0.19125716 -0.2058061 -0.01795504 -0.08801751
0.12490409 -0.2165139 -0.12438853 0.1332719 -0.20478469 -0.060581323 -0.3208819 -0.10206242
0.060621873 0.171423 -0.07236103 0.023485018 -0.020833427 0.104668416 -0.23387888 -0.12934536
0.0418432 -0.09663649 0.3573668 -0.099217236 -0.028133657 0.08158217 0.07795163 -0.15047735
0.00016770475 -0.32044992 0.14096712 -0.091536745 -0.10474988 0.13179064 0.062492702 -0.17032036
0.1989552 0.09968805 0.052825436 0.04755908 0.09818016 -0.14447127 -0.0028849912 -0.018851578

fc_value.bias f4 [64]
00000000: 765e 8a3d e9a0 553e 6988 8b3d 4ea4 053e
00000010: 2392 023e 4c0d 703d e59f b43d bed3 ed3d
00000020: 2600 293e 2db1 233e 732d 4b3d c2bf 9f3d
00000030: a373 133e 3efe 91bd 0055 723e 031a 8dbd
00000040: 178b 423d 57fe 49bd 256d 063e e9bb ac3d
00000050: 38b3 8abd e2c3 443e 4b0a 03be 7882 3b3e
00000060: b9bb e63d ecf4 9b3d 51f5 093e f8ab 603d
00000070: cc45 513e df5d f33c 522b 8b3d ea8c 05bd
00000080: 0953 603d 3520 913b 86aa 893e 3204 ccbc
00000090: 6d03 a43a 4494 aa3d 91b9 d83c bc5d bd3d
000000a0: 41fb f03d 5879 b83d adb3 e03d 5fc2 5b3d
000000b0: 9048 793e 12c0 dbbd b736 353d e8f5 6f3e
000000c0: 23d5 883e 26ca e13c 45f5 053e 637d d1bb
000000d0: 7183 fe3d 0d49 8e3d cf94 443e 323a ee3d
000000e0: be16 03be da70 6b3e ed1f d73d 309c 913d
000000f0: a7c1 32bd 8c04 2c3e b68a a4bc 11a7 053e
0.06756298 0.20862164 0.068131275 0.13050959 0.12751059 0.05860643 0.0881956 0.11612652
0.16503963 0.15985556 0.04960389 0.07800247 0.1439958 -0.07128571 0.23665237 -0.06889727
0.047495928 -0.049314823 0.13127573 0.084342785 -0.067724645 0.19215348 -0.12796895 0.18311489
0.11266274 0.076150745 0.13472487 0.054851502 0.20436782 0.029707847 0.06795372 -0.03260509
0.05476669 0.004428888 0.26887912 -0.024904344 0.0012513228 0.08329061 0.026455672 0.09246394
0.11766673 0.090075195 0.109717704 0.053652164 0.24344087 -0.10729994 0.044241633 0.2343365
0.2672511 0.027562212 0.13081844 -0.006393121 0.12427414 0.06947527 0.19197391 0.116321936
-0.12801644 0.22992268 0.10504136 0.071098685 -0.043641713 0.1679861 -0.020085674 0.13052012

value.weight f4 [1, 64]
00000000: f92e b53e 2bfc 63bf 22e0 2fbf 2324 3dbe
00000010: a5b4 ebbe 7292 57bf c0a6 1d3e ddaf b83e
00000020: 93db f8be 8483 9a3e 539e 263f 2a17 c3be
00000030: 2edd b23e ced7 01bf 08ea 52bf 905b 1e3f
00000040: b9e9 373f ca55 8fbe cb3e 5ebe 48e2 8abe
00000050: 7c85 033f 6559 b93e a0cd 92be 22dd 2fbe
00000060: 2241 8bbe f221 393f 8e27 c4be 8040 a5be
00000070: 2b7c eebe 9b46 21bf 993f 61be 775d ca3e
00000080: c73d 4dbf c1f8 81be 3d0c 1bbf 47cb 123f
00000090: 7afa 85bf 97b7 f1be 0dbf 5bbe cd21 d73e
000000a0: c2c6 e43e c36f f53e c41d 4bbf a728 9d3e
000000b0: 7f86 b53e ff82 c93e c4da 163f ce6c ccbe
000000c0: 8cf3 67bf 876a da3e cfbe 87be 9233 a9be
000000d0: 8e26 ac3e 78fe b03e c6fa 8abe 6b28 3dbe
000000e0: 7d35 e53d 26fe cb3e 7354 9dbe 4f69 60bf
000000f0: 6c4f dabe 95df dc3e 4c13 98be 4147 27bf
0.353874 -0.8905665 -0.68701375 -0.18470816 -0.46036258 -0.8420783 0.15395641 0.36071673
-0.48605022 0.30178463 0.65085334 -0.3810361 0.34934372 -0.50719917 -0.82388353 0.61858463
0.7184101 -0.2799514 -0.21703641 -0.27125764 0.51375556 0.36201015 -0.28672504 -0.17174199
-0.2719813 0.7231742 -0.38311428 -0.32275772 -0.46579108 -0.6299836 -0.21996917 0.39524433
-0.8017239 -0.25385097 -0.6056555 0.57341427 -1.0467064 -0.4721038 -0.21459599 0.42017975
0.4468289 0.4793683 -0.79342294 0.30695078 0.35454175 0.39357755 0.5892756 -0.3992676
-0.90606 0.426594 -0.26512763 -0.33047158 0.33623165 0.34569144 -0.2714445 -0.1847245
0.11191843 0.39842337 -0.30728492 -0.8766069 -0.4263872 0.4313933 -0.29702222 -0.653431

fc_advantage.weight f4 [64, 64]
00000000: cb4c 523e 1b4f f4bc 8eb2 2f3d 9d91 143e
00000010: aa57 73bc 9a67 a3bd bbb6 08be 736d 91bd
00000020: 5fa2 1fbe 3f18 52be 6471 8a3e 5588 873d
00000030: fe8e 5d3c 44d4 2d3f 0b5f 6cbe 6992 0a3c
00000040: 2531 86be 21a1 3f3d 3f24 b63d 9cb4 103c
00000050: de8d 92bd 90b6 03bd 250f 9ebe 79cd 4e3e
00000060: e92b 843e 3152 983d 7364 9bbb 164b 17be
00000070: 6165 173d 3650 9fbd 9d67 b53d 5b6b 2d3e
00000080: cb2f 28be ea4e e63b e1d9 a8bd d835 1fbe
00000090: fd04 36be 46a3 27be eb80 303e 6e01 e8bd
000000a0: 8198 ee3e 93c0 07be 7604 0fbe c526 943d
000000b0: f2e0 de3e 0db1 b3bd 4aee 3a3e ead2 2fbe
000000c0: 4438 b73d 1a32 8bbe 9004 fcbb 65da 9abd
000000d0: 4b83 b43e f1a1 7f3e 25ee 58be 761d a2bd
000000e0: 3f8c e83e 739a 5ebe 40f7 b13e 065e 313d
000000f0: 8c73 973d ee6f 4abd fddb 0bbd 2c28 72be
00000100: 2e4e 7d3e 476f febd 0fbe 89be 3bd4 00bd
00000110: 2733 82be 30b2 e2bd bf7d 06be bf7f b23d
00000120: 2bb1 5a3e 577f 413d f67f 8fbe 138c 803e
00000130: e14e 1ebe afa0 bf3d 2102 19be 8013 c9bd
00000140: 7fec a6bd ddf3 2a3e cbb8 19be 3734 aabc
00000150: e299 90bd cc0f 17be adbb 83bd 9d7c f83c
00000160: 264b 0fbd 662c 6cbc 6196 903c 257d ae3e
00000170: 9a2c 00be 715e 9c3c 2186 18be 0afb 31be
00000180: 69aa b43d 79c9 77be 2c48 cb3b d3d5 38bc
00000190: cc3f b73d abca 1c3d f439 63be f2ed 88be
000001a0: eb5a e63d f91b aebe bf33 e8bd f562 803e
000001b0: 0fc7 fcbd 7e32 083d d63c 513c feea a8bd
000001c0: 7f8e e33d 10bd 143e dc7f cbbc e5f2 71be
000001d0: 9ef9 11be 8764 913e 055f 053e b34d 8ebd
000001e0: b52a 073e 24d9 573e 62cb 7b3e fad3 253e
000001f0: 72a8 a63d a565 a13e 0050 203e 081c 92bd
00000200: e228 453d ecc8 3bbc f4e4 c2bd 6bb7 1dbe
00000210: 9c8d 36be 5363 723d e0c0 18be 4fcd 033e
00000220: f324 6cbd c356 5e3e 414a f1bc 6e0e 83be
00000230: 00d4 d13b 46d1 a8bd 468b 163e ecd0 aa3b
00000240: 92ec 33bd bab3 68bd 4db1 ef3d 78f8 dabd
00000250: 5844 2dbe 5241 0e3e 9eb8 8f3e 15c0 88be
00000260: 7461 613e a546 1ebe 1374 5e3d a4e9 94be
00000270: b426 7c3d 4c00 4ebe 4416 b13d 27b3 70be
00000280: 2372 95bd 13ae 61be 262b 6dbe 1de7 7f3e
00000290: ff77 fb3c a180 943c 1aea 25bd 4610 203e
000002a0: 4a2f 283c cd80 59be d60e 793e 2583 dbbd
000002b0: e2bf 7dbe fd21 03be b83e 06be 1856 fa3d
000002c0: c9b2 853e 42c6 7bbe 07d9 053e a92a 5a3d
000002d0: 17fb 0ebe e3a2 a43e 1829 993c cb74 533e
000002e0: 4a3f 34be 1282 febd f2b7 c0bb 6f4c 6abc
000002f0: 68bf 1a3d 64c8 85bd 0596 3e3d 0904 a1be
00000300: d323 22bd e50e 8abe ddaa 6abe 3096 193e
00000310: aca9 193f 9a3d 633e 7a02 d93d 19ba 223e
00000320: c21d 31be c903 153f 50eb 8e3d 40bd c53c
00000330: c60d 23bd 59fb eb3c f922 8bbd 7a3f 133d
00000340: 5f8f 483e 134a 7dbe 5c1d 4bbd 0b5f eebd
00000350: 531f 7a3c 05be 6bbe 5cff 45be 980f a83c
00000360: cb00 843d 13d9 d93c 8c13 e63d 7992 4f3e
00000370: 7aef 803d dfba 80bd a0f3 c6bb b82f 0fbe
00000380: 5aa8 fbbc 28fc 813d c074 323d f023 a43d
00000390: ec74 8bbe 8876 9d3e 796b debd aebb bebd
000003a0: d139 0c3e 6d25 ec3d 8b2e 823e 05a9 fe3c
000003b0: ce9a 403d 7264 c4be baf0 39be 9366 7c3e
000003c0: 15b6 78bd 0610 07bf cae0 bbbd 0aae b6bd
000003d0: e371 1a3e 6f50 393e b57d 9dbd 3e1c 95bd
000003e0: 8fef bbbe 6193 b03d b665 abbd 6a30 903e
000003f0: e465 b6be 9802 b4bd e29a da3b ff86 ae3b
0.20537107 -0.029822877 0.042894892 0.14508672 -0.014852444 -0.07978745 -0.13350956 -0.07100954
-0.15589283 -0.20517062 0.27039635 0.066178 0.0135228615 0.67902017 -0.23083131 0.008457758
-0.2620937 0.046784524 0.08893632 0.008832123 -0.07155965 -0.032156527 -0.3087093 0.20195569
0.2581475 0.07437552 -0.004742199 -0.14774737 0.036961917 -0.07778971 0.08857653 0.16935484
-0.16424482 0.0070284503 -0.08244682 -0.15547884 -0.1777534 -0.16370878 0.17236678 -0.11328398
0.46600726 -0.13257055 -0.13966545 0.07233957 0.43530995 -0.08774004 0.18254963 -0.17170301
0.08946279 -0.27186662 -0.0076909736 -0.07561187 0.3525642 0.2496412 -0.21184595 -0.079157755
0.454195 -0.21738605 0.3475895 0.04330256 0.07395086 -0.04942315 -0.034145344 -0.23648137
0.24736854 -0.12423568 -0.26902816 -0.0314524 -0.2542965 -0.11069143 -0.13133906 0.08715772
0.21356647 0.04724058 -0.28027314 0.25106868 -0.15459777 0.0935682 -0.14942218 -0.098181725
-0.08150577 0.16694589 -0.15011899 -0.020776851 -0.07060601 -0.1475212 -0.06432281 0.030332858
-0.034983777 -0.014414882 0.017649831 0.34079853 -0.12517014 0.019088002 -0.14894916 -0.1738092
0.08821566 -0.2419795 0.006203672 -0.011281448 0.08947715 0.038279217 -0.22190076 -0.26744038
0.1124781 -0.34005716 -0.11337995 0.25075498 -0.12342655 0.033251278 0.012770852 -0.08247946
0.11111163 0.14525247 -0.024841242 -0.23627813 -0.14255378 0.2839701 0.13024528 -0.06948414
0.13199885 0.21078926 0.24589303 0.16194144 0.08137597 0.3152286 0.15655518 -0.07134253
0.048134692 -0.011461478 -0.095163256 -0.15402 -0.17827457 0.059176754 -0.14917326 0.12871288
-0.057652425 0.21712784 -0.029454352 -0.25596946 0.006403446 -0.08243041 0.14701566 0.0052128937
-0.043926783 -0.056812026 0.11703739 -0.10691923 -0.16920602 0.13892105 0.2807054 -0.26709047
0.22009832 -0.15456636 0.054309916 -0.29084504 0.061560348 -0.20117301 0.08646825 -0.23505841
-0.072971605 -0.2203906 -0.23160991 0.24990506 0.030696867 0.018127741 -0.04050646 0.15631208
0.010265181 -0.2124054 0.24322066 -0.10718373 -0.24780229 -0.12805934 -0.13109863 0.12223452
0.26112965 -0.24587348 0.1307107 0.05326334 -0.1396297 0.32155523 0.018696353 0.20650022
-0.17602268 -0.12427153 -0.005881303 -0.01430045 0.037780195 -0.06532362 0.04652979 -0.3144839
-0.039584946 -0.2696449 -0.22916742 0.14998698 0.60024524 0.22191468 0.105961755 0.15891303
-0.17296508 0.582089 0.06978476 0.024138093 -0.039808057 0.028806375 -0.0679378 0.035949208
0.19585942 -0.24735288 -0.049588546 -0.11639222 0.015266257 -0.23021705 -0.19335693 0.020515248
0.06445464 0.026592767 0.11234197 0.20270719 0.062956765 -0.06285643 -0.006071523 -0.13983047
-0.030719925 0.06346923 0.043568373 0.08014667 -0.27237642 0.30754495 -0.108603425 -0.09313141
0.1369393 0.11530576 0.25426134 0.031086454 0.047022633 -0.38357884 -0.18158236 0.24648504
-0.060720522 -0.52758825 -0.091737345 -0.08919914 0.15082507 0.18097089 -0.07689992 -0.072807774
-0.36706206 0.0862186 -0.08369009 0.28161937 -0.3562461 -0.08789557 0.0066712955 0.0053261514

fc_advantage.bias f4 [64]
00000000: 892e cfbc d8bf 163c c53c 3d3d 949e 4f3d
00000010: 1e23 bf3d 3a10 9c3c c9a7 253e f12a fdbd
00000020: cc04 d4bd 105e 59bd 5dc2 1cbe 9bde 5fbd
00000030: 9730 e2bc 923d bebd ed9c 243d d63c b8bd
00000040: dd26 49be b42d 99be 2fba fd3d 3bbe 5b3d
00000050: f82f c4bd 7b25 ea3d 6919 d4bd c12a 203e
00000060: de3b 46be dc45 ea3d 173f e13c 6e4c 063e
00000070: eb51 0bbe 3fcd 08bd 6196 97bc 52f9 003e
00000080: e44d 96bc e82b cc3d d91d 29be 53e7 033d
00000090: 1a85 b8bc f114 41bd 8183 093d d92d a3bd
000000a0: c0b0 52be b71b 3ebd c26a 3dbd 7f36 d53d
000000b0: 6a17 6a3d 6348 abbd 840b b03d a637 67bd
000000c0: a57f f0bd 6a24 c23d ed45 e5bc 4cb2 32be
000000d0: aa05 57bd 9019 6bba 5f94 28bd 6266 dc3d
000000e0: 2b08 993d 0cd6 01be 7c4f 6d3d d24f c13d
000000f0: 5c65 87bd 01f1 923c 9738 47be 2b28 0b3d
-0.025290744 0.009201013 0.046200532 0.05068834 0.0933287 0.019050706 0.16177286 -0.12361706
-0.103524774 -0.05306822 -0.15308519 -0.054655652 -0.02761106 -0.09289087 0.04018872 -0.089959785
-0.19643731 -0.2991768 0.12389027 0.053648215 -0.09579462 0.1143293 -0.10356409 0.1564131
-0.19358775 0.11439106 0.027495904 0.13115093 -0.13605468 -0.033398863 -0.018504323 0.12595108
-0.018347688 0.09969312 -0.16515292 0.03220303 -0.022524405 -0.047139112 0.033572678 -0.07967729
-0.20575237 -0.04641315 -0.04624439 0.10410785 0.057151236 -0.08363416 0.085959464 -0.056449555
-0.11743096 0.09479602 -0.027987445 -0.17450827 -0.052495636 -0.00089683477 -0.041157123 0.107617155
0.07472261 -0.12679309 0.05793713 0.09439053 -0.0661113 0.017937185 -0.19455181 0.033973854

advantage.weight f4 [4, 64]
00000000: fa09 08bf ad22 243e ad73 5f3e 24ed 33be
00000010: f662 2d3e 4e8a 60be 4069 ffbc 1f43 10be
00000020: 1ff7 ddbc 662a 933d 1d7a fb3d eda4 28bd
00000030: 89d8 4abe ada3 8ebe cb44 31be a9a5 c33e
00000040: e993 25be 6ad0 debe 8a14 e93d 9010 0c3d
00000050: 0070 e8bc b768 66bb 23fc ecbd 8a33 f6bd
00000060: a37e 42be 066a 6a3e d043 80be 260c f7bd
00000070: d388 09bf 3fa6 083e 81ed 863c 3709 8b3d
00000080: 730b 553e 4c72 b83d bd77 c63d bdb8 bebc
00000090: 7e30 88bd 1581 adbd 2296 df3b f1ea 8e3e
000000a0: b088 173f 93b6 183e 76d0 0ebd 8069 9ebe
000000b0: 1695 debd 40d3 d1bc c0d9 81bb 8e1e 583d
000000c0: daec 1bbe 19ee 413d 9f44 20be 787d 703e
000000d0: 7a53 59bc 9bf3 443e 2a9b 91bd b229 0a3e
000000e0: 4b4f 673e 3f73 913e c440 04be 2209 82bd
000000f0: 4a5f 213e 179c 63bd 80fe 01be 4169 473e
00000100: 36b6 803e 55ac 053e 00b9 413e 242e 9bbe
00000110: c7a9 f2bd 8804 4a3e 90a0 81be 6722 8f3e
00000120: 4dbf 17be bdcd 8b3e df2a 083e 3eb5 2dbe
00000130: 9ae0 b5be ad2d cabd f606 5e3e 5487 25bf
00000140: b95a 40be fe02 e73e 99d3 553e 93c6 b3be
00000150: c0f4 8f3d cf6d 343e 27bb 263f 21d0 043d
00000160: c661 943e 748f 7a3e b663 a1be 5102 bf3d
00000170: 53ed 49be 974f 813e f04e 223e 41ed 39be
00000180: 0a4f 44be 4ea2 ccbd cbcc bf3e 5c65 09be
00000190: 6520 a7bd 63d0 9dbd 5247 173e 70b9 613e
000001a0: 3af1 2bbf fef0 2a3e 0b09 5b3e de5f 73bd
000001b0: 3fe9 13bd 03e5 ecbe bd5f 343e e19a 68be
000001c0: 278d d13e 1d1a 87bd 1d13 00be 1881 febd
000001d0: dd56 633e 43a5 16be b91e 8b3e bec5 6ebe
000001e0: 5b4e c5bd c48e 033e f9c3 843c dd3c 77bc
000001f0: a147 dabe a7d9 263e 3f06 d63e b4c6 3cbd
00000200: dc32 88be d908 b6be 89db c2be 0493 3c3f
00000210: be10 82be 87ee 343e 0694 763d bea7 d0be
00000220: 6307 83be aa8e 93be 2d80 acbe f84b 373e
00000230: 5dde e73e 1c09 e93d df94 8e3d 9d0a 093f
00000240: 72f6 133f 0e33 39be 9c84 743b b5ab e0bd
00000250: ae5d 92be a336 c7bc abb3 173d ff28 a33d
00000260: 8564 a13c 0195 51be 25c3 8a3e 3952 7c3a
00000270: bebe 623f 2f08 a4be f741 8e3d 84d0 573e
00000280: f31b 443d 061d cc3d 5035 abbe 312d 093e
00000290: 0a4d 5fba 214c e53e a97b 953c 5956 cbbe
000002a0: 656a 6e3e 4bef 92be aad0 183e 9f04 9d3e
000002b0: a542 1c3e fe37 723e 6072 ddbd 5032 ac3e
000002c0: 0311 bdbe 6a63 b1bd ede5 4e3e a236 b5be
000002d0: c4cf 81be 32b9 3b3c 62f8 b2be de5f d33d
000002e0: 56b5 b2be 8e2c 08be 575a 723c 23b1 513e
000002f0: 2617 fcbd 5dc2 a53d f65a 12be 488f 4bbe
00000300: 85cf fe3e faf2 443e 638b 993d 7f54 a83e
00000310: 1b01 df3e c734 a4bd cb89 203e 8e5d 9b3e
00000320: bce5 c03e 28d5 873d f0c9 c23d b84a 5fbd
00000330: a1ca 033d 414d b1bd 96e1 833d fd6d a83d
00000340: c247 ba3d 3e1a 8c3c ac20 ddbd b1ee 4b3e
00000350: 9686 5f3e d796 bfbe 590e 2cbf 0541 35be
00000360: 0d66 81be ae90 7ebd 0bf2 2f3e 4613 4dbe
00000370: 2063 273f 9127 b53d 0c33 d2be 628f 1fbd
00000380: 22fc e93d 76a8 61bd aa05 2e3e 379e a63c
00000390: 85ce 4dbe 801d c5be df7d 9cbe 7342 79be
000003a0: 7ffb d63e 1c09 dbbd 883d ddbe 3bb5 0b3d
000003b0: eb85 9f3c ab8b 8d3e d40c 1dbe 0b57 2abd
000003c0: 1bbe 21bc e57d b63e 81e5 e5bd 1f66 1c3f
000003d0: e1ca 803c 6f1c f4bd 70a6 ae3d 7c78 1bbb
000003e0: 22b1 4b3e 2c5f e8be 45b2 9abd 9318 e0bd
000003f0: 43e1 ca3e 43f2 06be 1672 f13c c162 5c3e
-0.53140223 0.16028853 0.2182147 -0.1757093 0.16932282 -0.21927759 -0.031178117 -0.14088105
-0.027095376 0.07185821 0.12279151 -0.04117291 -0.19809164 -0.2785925 -0.17311399 0.38212326
-0.16169704 -0.43518382 0.11380871 0.034195483 -0.028373718 -0.003515763 -0.11571529 -0.12021549
-0.1899362 0.22892007 -0.25051737 -0.12062864 -0.537244 0.13344668 0.016470673 0.06788867
0.20805149 0.090061754 0.09690807 -0.02328145 -0.06649874 -0.08471886 0.006823317 0.2791362
0.59192944 0.14913397 -0.034866773 -0.30939865 -0.1086828 -0.025613427 -0.0039627254 0.052763514
-0.1522707 0.04734621 -0.15651177 0.23485363 -0.013264531 0.19233553 -0.07109673 0.13492468
0.22588842 0.28408238 -0.12915331 -0.06349398 0.15759006 -0.05556878 -0.1269474 0.19473745
0.25139016 0.1305402 0.18918228 -0.3030864 -0.11848789 0.19728291 -0.25317812 0.27955934
-0.14819069 0.27305403 0.13297604 -0.1696367 -0.3552292 -0.09871993 0.21682343 -0.6465962
-0.18784608 0.4511947 0.208815 -0.35112438 0.07029104 0.17620014 0.6512932 0.03242505
0.28980845 0.24468786 -0.31521386 0.09326614 -0.19719438 0.25256035 0.15850425 -0.18156911
-0.19170776 -0.09991895 0.37460932 -0.13417572 -0.08160476 -0.07705762 0.147733 0.22043395
-0.6716496 0.16693494 0.21390168 -0.059417598 -0.036111113 -0.46268472 0.17614646 -0.22715332
0.40928003 -0.065967776 -0.12507291 -0.124269664 0.22201104 -0.1471148 0.27171877 -0.2331762
-0.09634086 0.1284743 0.016206728 -0.0150901945 -0.42632774 0.16293965 0.4180164 -0.046087936
-0.26601303 -0.35553625 -0.38058117 0.7366183 -0.25403398 0.17669116 0.06019976 -0.40752977
-0.25591573 -0.28819782 -0.3369154 0.17900074 0.45286837 0.113786906 0.06961989 0.5353182
0.5779792 -0.18085882 0.0037310487 -0.109702505 -0.28587097 -0.024318045 0.03703658 0.07966804
0.019701252 -0.20466997 0.27102008 0.0009625289 0.885723 -0.32037494 0.069461755 0.21075636
0.047878217 0.09966473 -0.33439112 0.13396145 -0.00085182546 0.44784644 0.018247442 -0.39714316
0.23282774 -0.2869819 0.14923349 0.30667588 0.15259798 0.23654172 -0.10812831 0.33632135
-0.3692704 -0.0866154 0.20204897 -0.35393244 -0.25353825 0.011457728 -0.34955126 0.103210196
-0.34903973 -0.13298246 0.0147920465 0.20477729 -0.12309103 0.080937125 -0.14292511 -0.19878876
0.497677 0.19233313 0.07497289 0.32876965 0.4355553 -0.08017879 0.15677564 0.30344814
0.37675273 0.06632453 0.09511173 -0.054514617 0.032175664 -0.08657313 0.064395115 0.082241036
0.09095718 0.017102357 -0.10797247 0.19915272 0.21828684 -0.3741977 -0.6720939 -0.17700584
-0.2527317 -0.062149696 0.17182176 -0.20026883 0.6538563 0.08845437 -0.4105457 -0.0389551
0.11425044 -0.055092297 0.16994348 0.020339115 -0.20098312 -0.3849907 -0.30564782 -0.24341755
0.4198875 -0.10695097 -0.43211007 0.03410838 0.019473037 0.2764562 -0.15336925 -0.041586917
-0.009871985 0.35642925 -0.11225415 0.61093324 0.01572174 -0.11919486 0.08527839 -0.0023722937
0.1989179 -0.4538511 -0.075535335 -0.10942187 0.39624986 -0.13178353 0.029473346 0.21522047

advantage.bias f4 [4]
00000000: d455 a1bd 21a3 ff3d 5f40 95bd 18db 9abd
-0.078776985 0.12482286 -0.072876684 -0.0756132

outs.weight f4 [4, 64]
00000000: 4cf5 f0bd 38e3 c8bd 042f 86bd accc 4bbd
00000010: c0dd 9a3c 9007 0dbc 50ba b2bd 20ac 3f3d
00000020: f071 e2bc e012 45bd e877 7dbd d0cd cd3d
00000030: 980b a0bd 5813 c83c 70b6 f23d 74d3 cb3d
00000040: 1037 0f3d 30c9 423d 7830 583d 3436 793d
00000050: 4016 a8bc 28df e33c 7cac 003d e4f3 babd
00000060: 4eaa 9ebd 6e81 fdbd b001 39bd 507f d7bc
00000070: 00c9 ed3c 50e1 d43d 009e 1c3d b0bf 1ebc
00000080: b243 cabd b6d2 c03d ac3e 4dbd d8db babc
00000090: 64f2 3c3d 00ee 40bb 00c2 58ba 9084 3c3d
000000a0: ea3f bc3d acf4 6c3d f8bb 34bd 76a2 a13d
000000b0: ce44 a33d a4fe 423d 66ff b13d d05d dc3c
000000c0: 92b0 a1bd 3093 8bbd 8624 e63d 02c1 fe3d
000000d0: e0d7 84bc a08c 943c 8cd9 d0bd 622f e83d
000000e0: 64a4 b5bd c0dd b7bd b439 0c3d 3459 453d
000000f0: ee5b bd3d d06c a2bd e217 cb3d 4819 913c
00000100: f4d4 c4bd 005f 2dbd 00f0 da39 4a42 f8bd
00000110: fe1b dfbd 20ba 833d d09d f1bc 70d8 b9bc
00000120: 5eb0 f53d 9896 d6bc faa4 f1bd 9e77 913d
00000130: 7484 2b3d d047 2a3c 88a4 c2bc d46d c43d
00000140: e8d3 ac3c 8498 963d e0f0 22bc 9612 f83d
00000150: b02e 053c e044 da3b f014 37bd 60f4 2cbd
00000160: 84ae febd b005 66bc dcfe 50bd 3011 503c
00000170: 5635 9dbd 60db 2a3d c077 f23b ee1f c9bd
00000180: 80f9 0abd 245c 393d 1003 33bc 9e0e 89bd
00000190: 70bb e5bd 6811 38bd bc71 a03d 805a 643b
000001a0: 24f1 51bd e40e 47bd 50cc 5d3c d8d4 e53d
000001b0: 5ea5 ef3d ce1a a03d 0cae 9dbd 4245 e5bd
000001c0: 58a9 1bbd d02e f4bd e812 6ebd d026 17bc
000001d0: 6ace d23d 00ad 68bd e2a3 c03d 74b7 db3d
000001e0: 3056 b13c 402e 0bbd 86ff d3bd 543a 9b3d
000001f0: 6066 5a3d b010 c8bd 8077 583d 80e1 28bd
00000200: 00c0 dcb9 aef1 eabd ece5 d63d 00a2 203d
00000210: 508f 2e3d c4a8 a33d 0c7a 29bd a05b e1bd
00000220: b69c fabd 286e 733d bc7a 163d 90e5 fa3c
00000230: dc47 6f3d 806d 423b 8ed9 943d b630 df3d
00000240: 42ad be3d 5c94 2f3d 6060 da3d 1447 be3d
00000250: a0bc febb 9027 97bc 86be edbd 78d0 1cbd
00000260: d483 583d c076 973b 00a7 12ba 48c7 fabd
00000270: 4433 7e3d b06b c53d c027 4b3b 087a ab3c
00000280: 4250 af3d 9abf 9ebd 6095 bfbb 5cbc ec3d
00000290: 6efa adbd baf5 f5bd 0022 6f3a 24dc 4d3d
000002a0: 8620 e0bd 28fa f33d e8cf f3bd e8f3 50bd
000002b0: d09e 1e3d 2290 fdbd 7af4 e33d 4057 323d
000002c0: 5c38 df3d 5251 afbd c873 03bd a40a 0dbd
000002d0: 20d9 273c 8a96 b93d 40a9 a93d 6ccb 22bd
000002e0: 107d 403c 84cd d9bd 685a bc3c ae1c cbbd
000002f0: 00c8 e5b8 54ab 99bd a200 96bd 786d 70bd
00000300: 7cde e93d ce36 a53d 8864 92bd 5c41 4ebd
00000310: bc4d dfbd b0ef dd3c f00c 1a3c b005 b9bc
00000320: 30e8 563d 2882 b4bc e439 17bd 2086 eb3b
00000330: 72fa e5bd d83f ecbc fc20 babd 7aa6 cfbd
00000340: 7c94 f9bd e455 bb3d 4619 e93d 0014 ffbc
00000350: 9080 a7bd a499 553d 90c0 7bbd 1873 fa3d
00000360: c8e8 adbc 80f8 35bc ac6e d93d 88ae de3d
00000370: c280 e73d c895 853d 60ff bd3c 80bf ee3d
00000380: e08a b63b 3a07 97bd a426 023d 0801 aabd
00000390: a4b1 873d 204d 9cbb 1404 183d 4add c33d
000003a0: e019 443d ca7a 923d e2ce e8bd f0ce ce3d
000003b0: 4056 3ebd dcde 7ebd 025f dfbd 4803 cbbd
000003c0: b83e f8bc c059 e43d fa15 89bd 8c02 2abd
000003d0: 16d7 c63d 1e7b ccbd 403c 063d 6877 423d
000003e0: 16d2 e9bd 889d dcbd 9261 da3d d06f a6bd
000003f0: 2666 a6bd 646c d83d fcc9 113d 00a8 85b8
-0.11765537 -0.098089635 -0.06551936 -0.049755737 0.018904567 -0.00860776 -0.087269425 0.04679501
-0.02764222 -0.048113704 -0.06188193 0.10049021 -0.07814711 0.024423286 0.118512034 0.09952441
0.03496462 0.04755515 0.0527806 0.060842708 -0.020518422 0.02781637 0.031414494 -0.0912855
-0.07747327 -0.123782024 -0.045167625 -0.026305825 0.029026508 0.103945374 0.038236618 -0.009689257
-0.09876193 0.0941519 -0.050108597 -0.022809908 0.0461296 -0.0029438734 -0.00082686543 0.04602486
0.09191878 0.057850525 -0.044124573 0.07892315 0.07972108 0.047606125 0.086912915 0.026900202
-0.07895006 -0.06815183 0.11237435 0.12439157 -0.016216218 0.018133461 -0.10197744 0.113371626
-0.08869246 -0.08977842 0.034234717 0.048180774 0.0924605 -0.079309106 0.09916665 0.01771225
-0.0961093 -0.042326927 0.00041759014 -0.12122019 -0.10894011 0.06431985 -0.029494196 -0.022686213
0.1199653 -0.026194856 -0.11799045 0.07102893 0.041874364 0.010393098 -0.023760095 0.095912606
0.021097139 0.07353309 -0.009945124 0.1211292 0.008128807 0.0066610426 -0.044697702 -0.04222524
-0.1243563 -0.014039442 -0.051024303 0.01269941 -0.07676189 0.04171312 0.007399529 -0.09820543
-0.033929348 0.045253888 -0.010926023 -0.06692241 -0.112173915 -0.044938475 0.07834193 0.0034843981
-0.05125536 -0.048598185 0.013537481 0.11222237 0.11701463 0.078176126 -0.076992124 -0.111948505
-0.038003296 -0.11922991 -0.0581235 -0.009225562 0.102932766 -0.05680561 0.09406258 0.1072835
0.021647543 -0.033979654 -0.103514716 0.075794846 0.05332029 -0.09768808 0.05284834 -0.04123068
-0.0004210472 -0.11471878 0.10493073 0.039216995 0.042617142 0.07991174 -0.04137616 -0.11003804
-0.122369215 0.059431225 0.036738142 0.030627042 0.05841814 0.0029667318 0.07268058 0.10897963
0.0931039 0.042866096 0.10662913 0.09290901 -0.0077739507 -0.018451482 -0.11608605 -0.03828475
0.052860096 0.0046223104 -0.0005594343 -0.12245041 0.06206061 0.096396804 0.0030999035 0.020932212
0.0856023 -0.07751389 -0.0058466643 0.11559364 -0.08495031 -0.12009759 0.0009122193 0.05025877
-0.10943703 0.11912948 -0.11904889 -0.051013857 0.038725674 -0.12381007 0.111306146 0.04354024
0.108994216 -0.085604325 -0.03209284 -0.034433976 0.010244638 0.09061916 0.08284235 -0.03974478
0.011748567 -0.10634902 0.022992328 -0.099175796 -0.00010956824 -0.07503381 -0.073243394 -0.058698148
0.11419389 0.08067094 -0.07148081 -0.0503553 -0.109034985 0.027091831 0.009402499 -0.02258572
0.052467525 -0.02203472 -0.036920443 0.00718762 -0.11229409 -0.028839037 -0.090883225 -0.10139175
-0.12186524 0.09147242 0.11381774 -0.031137466 -0.08178818 0.052148476 -0.06146294 0.12228984
-0.021229163 -0.01110661 0.10616812 0.10873133 0.113038555 0.06522709 0.023193061 0.116576195
0.0055707544 -0.07374425 0.03177513 -0.08300978 0.06625679 -0.004769936 0.037113264 0.09563692
0.04787624 0.071523264 -0.11367585 0.10098064 -0.046468973 -0.062224254 -0.10906793 -0.09912735
-0.030303344 0.11149931 -0.06693645 -0.041506335 0.09708993 -0.0998442 0.032772303 0.047477156
-0.11417024 -0.10772234 0.10663141 -0.08126795 -0.08124952 0.10567549 0.035593018 -6.373227e-05

outs.bias f4 [4]
00000000: 085b e03d 00d9 b0bc 54b2 acbd 84b3 72bd
0.10954863 -0.021587849 -0.08432451 -0.05925323
