space_exploration_with_DQN/runs/2025-07-18_19-49-15.pt (torch, 12009 bytes, 13 tensors)

fc1.weight f4 [32, 8]
-0.36386845 -0.26098475 -0.3355241 0.04775322 0.6687554 0.44162583 -0.09819472 -0.29909244
-0.10771517 0.14718972 -0.03496957 -0.33069283 0.20610026 0.015413394 0.043820377 -0.2648089
-0.26773465 0.19872318 -0.22942138 0.3544152 -0.19832093 -0.5588494 -0.05403492 -0.13636802
0.3904277 0.0848735 0.1970911 -0.022411687 -0.10727096 -0.117760785 -0.17366132 -0.4609405
-0.0063545196 0.027432516 -0.15087634 1.0220047 0.19209035 0.20297861 -0.24959408 -0.24557014
0.12171277 -0.40380165 -0.10806718 -0.087220825 0.3917181 0.6784321 0.12374082 0.049283743
-0.11508639 0.11653637 0.030850748 0.3354972 0.41666535 0.68492347 0.14762142 -0.40625447
-0.06949414 0.22698867 0.05284898 -0.13304748 0.21819359 -0.046087846 -0.29052612 0.01755697
-0.16744581 0.15744734 -0.054542616 0.164787 0.39871365 0.58806014 0.62693644 0.08131377
-0.14746226 -0.055375192 0.031825546 0.4162863 -0.28291973 -0.018054167 0.052724645 -0.20690614
0.28906962 -0.022314679 0.29303655 0.24878716 0.04110962 0.17350017 0.50460285 -0.3866737
-0.08142729 -0.322111 0.154907 -0.21141396 -0.034982026 -0.5240506 -0.2609582 -0.088651955
-0.42131993 -0.25436246 -0.48751962 -0.1834971 -0.083767936 -0.19853206 -0.181252 0.07537862
0.017842256 -0.1606924 0.06420144 0.49214864 0.02199841 -0.15595001 0.31132245 -0.23811182
0.27513117 -0.27217424 0.069203325 0.3495454 -0.25746644 -0.016065426 -0.041276008 -0.08647799
-0.021548098 0.09892074 0.0399936 -0.23521303 0.06415243 -0.19524035 0.0053500994 -0.32102558
-0.22673075 0.23543137 -0.120068654 -0.055989157 0.29041818 -0.14992902 -0.36170194 0.32336986
0.35185882 -0.043192446 0.23195703 0.13317956 -0.24873917 -0.18356425 0.0030388646 -0.32868513
0.0697062 0.28533816 0.008704304 0.31334022 0.097647026 0.32925946 0.4143342 -0.06198884
-0.11505114 -0.12150962 0.039008297 -0.34700146 0.3849785 0.67677927 -0.16525362 -0.5040679
0.17463969 0.24168797 -0.13941647 0.024600968 0.34000567 -0.12070321 -0.015978293 0.010160536
0.09281482 0.023511909 -0.16551775 0.111026175 0.55484974 -0.13339041 0.15711898 0.22717537
-0.03069251 0.18270108 0.17687337 -0.08507069 0.12567873 0.16096005 -0.118366994 -0.07152503
0.056053214 -0.03433205 0.015214551 0.20813763 -0.1445585 0.07996045 0.14527479 -0.23979694
0.012185545 0.18768585 -0.045860726 0.01858626 -0.068835996 -0.019622382 0.14156023 -0.23538244
-0.16640525 -0.25183222 -0.25482935 -0.21968733 0.545584 0.42022324 0.40515986 -0.13295029
0.037343863 -0.02593024 0.020954713 -0.13151374 -0.13605092 -0.3118144 0.15728119 0.26328486
0.2583809 0.25102314 -0.2531498 -0.37807584 -0.08711636 0.028435228 -0.18891177 0.04233881
0.20587684 0.32542613 0.16698094 0.14330937 0.055392306 -0.11877009 -0.15001865 -0.360313
0.009962855 -0.19023788 -0.1983616 -0.014223164 0.1586669 0.2833463 -0.64528704 -0.03340006
-0.124179244 -0.13676047 0.0779681 0.34960055 0.20943047 0.14399844 -0.14777334 0.104920276
0.22565082 -0.06481857 0.13756387 -0.14260808 -0.068123564 0.12849858 -0.5638711 0.08311343
00000000: f74c babe cb9f 85be d1c9 abbe e198 433d
00000010: 8e33 2b3f c81c e23e 501a c9bd a522 99be
00000020: c599 dcbd e7b8 163e 403c 0fbd 9250 a9be
00000030: f20b 533e 7688 7c3c ff7c 333d 0895 87be
00000040: 8414 89be 177e 4b3e 70ed 6abe e975 b53e
00000050: a414 4bbe c110 0fbf b853 5dbd 0fa4 0bbe
00000060: 24e6 c73e 28d2 ad3d 40d2 493e b798 b7bc
00000070: e1b0 dbbd 912c f1bd 46d4 31be 6500 ecbe
00000080: 9339 d0bb 28ba e03c 547f 1abe 0dd1 823f
00000090: 55b3 443e a0d9 4f3e 9795 7fbe bd76 7bbe
000000a0: 8b44 f93d 17bf cebe 5352 ddbd d5a0 b2bd
000000b0: 468f c83e baad 2d3f d46b fd3d c0dd 493d
000000c0: 6ab2 ebbd 9faa ee3d b5ba fc3c 4ac6 ab3e
000000d0: 2955 d53e 2557 2f3f 122a 173e 9600 d0be
000000e0: f252 8ebd b86f 683e 2c78 583d 993d 08be
000000f0: 246e 5f3e 9cc6 3cbd d7bf 94be a2d3 8f3c
00000100: ea76 2bbe e039 213e 1468 5fbd ecbd 283e
00000110: 3224 cc3e 1c8b 163f e87e 203f d587 a63d
00000120: 5900 17be 19d1 62bd 815b 023d 7a23 d53e
00000130: dbda 90be 55e6 93bc ccf5 573d 34df 53be
00000140: ef00 943e 46cd b6bc e308 963e 10c2 7e3e
00000150: 9062 283d 07aa 313e a72d 013f 18fa c5be
00000160: 5ac3 a6bd bceb a4be f19f 1e3e e77c 58be
00000170: 5049 0fbd 2e28 06bf 509c 85be 288f b5bd
00000180: 3fb7 d7be cc3b 82be 2c9c f9be aae6 3bbe
00000190: 868e abbd fd4b 4bbe 209a 39be 1b60 9a3d
000001a0: ec29 923c 8c8c 24be 0b7c 833d e8fa fb3e
000001b0: 0236 b43c 5cb1 1fbe a865 9f3e 96d3 73be
000001c0: fedd 8c3e 6c5a 8bbe 79ba 8d3d 9df7 b23e
000001d0: a4d2 83be a49b 83bc 0811 29bd 5f1b b1bd
000001e0: a385 b0bc f596 ca3d 54d0 233d afdb 70be
000001f0: 5962 833d 16ed 47be e34f af3b 775d a4be
00000200: 1b2c 68be ec14 713e 8ee6 f5bd e354 65bd
00000210: b1b1 943e fe86 19be ff30 b9be bc90 a53e
00000220: d726 b43e 90ea 30bd 2586 6d3e 3960 083e
00000230: 7bb5 7ebe 44f8 3bbe b027 473b 6b49 a8be
00000240: 20c2 8e3d d817 923e 7f9c 0e3c 216e a03e
00000250: 2afb c73d b294 a83e 9d23 d43e 03e8 7dbd
00000260: ef9f ebbd 09da f8bd 2ac7 1f3d 2daa b1be
00000270: e71b c53e 6841 2d3f 3f38 29be 980a 01bf
00000280: bfd4 323e 0d7d 773e 31c3 0ebe f887 c93c
00000290: 3915 ae3e 3f33 f7bd e9e4 82bc 6078 263c
000002a0: b215 be3d 0c9c c03c 7c7d 29be b161 e33d
000002b0: a20a 0e3f 7f97 08be cce3 203e a9a0 683e
000002c0: dc6e fbbc fe15 3b3e 4b1e 353e 8b39 aebd
000002d0: edb1 003e b6d2 243e 656a f2bd b77b 92bd
000002e0: 0e98 653d c39f 0cbd 7446 793c 0822 553e
000002f0: 2507 14be 4ec2 a33d eac2 143e 548d 75be
00000300: e1a5 473c b830 403e 75d8 3bbd 3642 983c
00000310: e3f9 8cbd 1ebf a0bc 2af5 103e 1808 71be
00000320: 2366 2abe 27f0 80be fe78 82be b7f5 60be
00000330: 65ab 0b3f 8027 d73e 1d71 cf3e 1f24 08be
00000340: e1f5 183d a86b d4bc 38a9 ab3c 8aab 06be
00000350: ef50 0bbe 23a6 9fbe 520e 213e 46cd 863e
00000360: 804a 843e 1b86 803e da9c 81be 2893 c1be
00000370: 106a b2bd fff0 e83c 1672 41be 766b 2d3d
00000380: 61d1 523e 419e a63e 0dfd 2a3e b1bf 123e
00000390: 0be3 623d bc3d f3bd 7d9e 19be f27a b8be
000003a0: 3e3b 233c b8cd 42be 4e1f 4bbe 4608 69bc
000003b0: 9379 223e c412 913e 8831 25bf 80ce 08bd
000003c0: b051 febd f00a 0cbe bdad 9f3d d8fe b23e
000003d0: f174 563e 5474 133e e551 17be 71e0 d63d
000003e0: 0211 673e 99bf 84bd 8bdd 0c3e da07 12be
000003f0: 5e84 8bbd 2295 033e db59 10bf 6037 aa3d

fc1.bias f4 [32]
0.07333059 -0.18621598 0.00427152 -0.28939855 0.01509621 0.04844345 -0.22503898 -0.23763186
0.017284049 0.31777933 0.07997177 0.03086086 -0.13910417 0.25125656 0.24881417 -0.017502401
-0.11973835 -0.14558938 -0.30517018 -0.21889979 -0.32257888 -0.0063861883 -0.10837758 0.3433456
0.093845874 -0.11360131 -0.10554918 -0.4112212 -0.25168297 0.22111024 -0.18096495 0.01866645
00000000: 592e 963d 67af 3ebe 1bf8 8b3b 0c2c 94be
00000010: 1856 773c a46c 463d 9e70 66be c455 73be
00000020: 4797 8d3c f9b3 a23e 3dc8 a33d eacf fc3c
00000030: 5371 0ebe b3a4 803e 24c9 7e3e 3261 8fbc
00000040: 6139 f5bd 6215 15be 443f 9cbe 4427 60be
00000050: 0f29 a5be 3b43 d1bb 11f5 ddbd ffca af3e
00000060: 4432 c03d cea7 e8bd 2b2a d8bd 968b d2be
00000070: 97dc 80be b96a 623e e04e 39be 62ea 983c

ln1.weight f4 [32]
1.470153 1.7489315 1.56688 1.265456 1.8929819 1.5849963 1.4928923 2.040871
1.5853794 1.6195469 1.6661162 1.5819337 1.5485349 1.7506514 1.680113 1.9235189
1.8670297 1.4426148 1.4755789 1.6807842 1.3756843 1.6684399 1.5769253 1.416146
1.4000138 1.4931183 1.610085 1.758132 1.3717613 1.546362 1.4885331 1.539503
00000000: f92d bc3f fddc df3f 868f c83f 76fa a13f
00000010: 3b4d f23f 29e1 ca3f 1817 bf3f a19d 0240
00000020: b6ed ca3f 504d cf3f 4c43 d53f ce7c ca3f
00000030: 6436 c63f 5815 e03f f10d d73f de35 f63f
00000040: d4fa ee3f 9aa7 b83f c5df bc3f f023 d73f
00000050: 6c16 b03f 708f d53f b0d8 c93f 4644 b53f
00000060: a733 b33f 801e bf3f 4417 ce3f 780a e13f
00000070: e095 af3f 31ef c53f 4188 be3f 6f0e c53f

ln1.bias f4 [32]
-0.27015343 0.12307103 -0.024508135 -0.12265726 -0.27720574 -0.2918544 -0.28819153 0.25284314
-0.38451627 0.080556706 -0.028941123 -0.1826526 -0.31537762 0.18008932 -0.44026133 0.20729898
0.36247787 -0.3838979 -0.21951707 -0.34709963 -0.33490694 0.23151955 0.14296806 0.14073637
0.2698599 -0.34737694 -0.118129514 -0.0021668877 -0.19120482 0.07824573 -0.4976982 0.31362826
00000000: 8d51 8abe aa0c fc3d 49c5 c8bc bb33 fbbd
00000010: e9ed 8dbe f16d 95be d78d 93be a874 813e
00000020: 51df c4be eafa a43d ef15 edbc 4809 3bbe
00000030: 2d79 a1be 5669 383e ef69 e1be 2f46 543e
00000040: b396 b93e 448e c4be 15c9 60be 0bb7 b1be
00000050: ec78 abbe 7613 6d3e 3866 123e 321d 103e
00000060: 142b 8a3e 64db b1be e3ed f1bd 5802 0ebb
00000070: 32cb 43be 4c3f a03d 4cd2 febe e293 a03e

fc_value.weight f4 [16, 32]
0.20268105 -0.15343767 0.53003496 0.17688018 -0.28327972 0.23387595 -0.24025339 0.09108812
-0.39047685 -0.21193603 -0.22892594 0.25407243 0.17590818 -0.3222565 -0.25641355 0.1711179
0.16515478 -0.099532634 0.21170668 0.13594918 -0.3649738 0.19636251 -0.38450453 -0.4042469
-0.15581675 0.10451912 0.34338602 -0.48415512 0.21140625 -0.28536892 -0.08566832 0.3647538
-0.29180485 0.55716455 0.019438889 -0.24485248 -0.017407 -0.64440644 -0.40005958 0.5547234
-0.50583345 0.18682002 -0.19456267 -0.4568177 -0.43856874 -0.14988458 -0.5333872 0.419744
0.26884118 -0.46275893 -0.24854049 -0.43561932 -0.08532352 0.4610817 0.47439736 0.25268134
0.51063514 -0.28513318 -0.32058576 0.5281467 -0.47101086 0.3982931 -0.3275928 0.15654835
-0.5783019 0.7343968 -0.093522705 -0.38883495 -0.041938495 -0.42868418 -0.47786555 0.47298378
-0.32076478 -0.17795426 -0.19425409 -0.3575712 -0.45098835 -0.048849232 -0.4901696 0.4012659
0.5006645 -0.36016575 -0.27233914 -0.6315924 -0.17589544 0.5909253 0.34730038 0.43652245
0.31647578 -0.5283657 -0.60699415 0.5368794 -0.3265367 0.5379589 -0.16288954 0.2836231
0.17284171 -0.20629008 0.33621964 0.23769291 0.02914925 -0.06848209 -0.17814168 0.14191443
-0.32741025 -0.28424135 -0.4103719 0.2927474 0.14094225 -0.22839722 -0.27318898 0.08017295
0.3114131 -0.2076997 0.034670457 -0.1633202 -0.3677571 0.17855115 -0.5149542 -0.53294307
-0.19855252 -0.12054772 0.67121476 -0.24508594 0.24031067 -0.12778986 0.021850614 0.12466242
-0.07201994 -0.1886329 0.20203772 0.22492129 -0.37419757 0.16507122 -0.25001547 0.3252757
0.25718716 -0.092980996 -0.41016805 0.31727436 0.08380184 -0.3197527 -0.18384168 0.0003537251
0.37638208 -0.16471748 -0.046160154 0.06786188 -0.26045334 0.06520071 -0.2978435 -0.45092174
-0.030376755 -0.15745004 0.53646046 -0.29079032 0.28454456 -0.46238363 -0.13296258 0.07191247
-0.16728297 -0.4560607 0.2680525 0.13207306 -0.16828959 -0.17619841 -0.26093668 0.28696188
-0.02550258 -0.08522999 -0.68584615 0.5223902 -0.031084415 -0.579123 -0.05232936 0.057854418
0.3517558 -0.060388025 0.05246956 -0.18652798 -0.2843378 -0.08641404 -0.33674967 -0.3478108
0.070428476 -0.14749826 0.5582863 -0.50748456 0.07939574 -0.39851478 -0.102694586 0.28836977
-0.55454826 0.6955845 0.03377533 -0.22220582 -0.10862987 -0.41144478 -0.2723564 0.30229828
-0.51351684 -0.0062274104 0.02628767 -0.368755 -0.53024954 0.1961229 -0.28521183 0.48226675
0.51589555 -0.4090062 -0.32766277 -0.4952586 -0.14093797 0.40319857 0.51420957 0.5825978
0.34664363 -0.3127935 -0.46851778 0.6597618 -0.41120335 0.5266318 -0.4340503 0.09753471
-0.2518637 0.70704365 -0.56599724 -0.068385944 -0.42944598 -0.46231818 -0.4525533 0.39132917
-0.24131203 -0.379471 -0.01593688 -0.20366983 -0.39710253 -0.48423567 -0.29199144 0.4817752
0.39587736 -0.019732565 -0.48501444 -0.3718497 -0.046539556 0.40601203 0.5370163 0.2949246
0.13135073 -0.17763212 -0.20806153 0.8608086 -0.2617752 0.4724702 0.07871007 0.13291544
00000000: 9f8b 4f3e c41e 1dbe 5fb0 073f 1420 353e
00000010: 0a0a 91be 2d7d 6f3e fc04 76be 698c ba3d
00000020: 95ec c7be c205 59be 906b 6abe c815 823e
00000030: 4621 343e cefe a4be a348 83be 8839 2f3e
00000040: 561e 293e c4d7 cbbd a3c9 583e 4336 0b3e
00000050: d9dd babe 4113 493e c7dd c4be 73f9 cebe
00000060: 6d8e 1fbe 1f0e d63d 4bd0 af3e 2ee3 f7be
00000070: e17a 583e e01b 92be df72 afbd 03c1 ba3e
00000080: 7267 95be 56a2 0e3f 4e3e 9f3c 9cba 7abe
00000090: 2099 8ebc d2f7 24bf 9cd4 ccbe 5a02 0e3f
000000a0: 4d7e 01bf bf4d 3f3e 703b 47be 02e4 e9be
000000b0: 158c e0be 587b 19be 108c 08bf b0e8 d63e
000000c0: 8da5 893e bdee ecbe 6681 7ebe 7f09 dfbe
000000d0: 19be aebd e712 ec3e 36e4 f23e 735f 813e
000000e0: fcb8 023f fafc 91be d123 a4be 9f34 073f
000000f0: 5628 f1be 13ed cb3e 3eba a7be 364e 203e
00000100: 980b 14bf 6e01 3c3f d588 bfbd 6015 c7be
00000110: b3c7 2bbd 7e7c dbbe cbaa f4be ee2a f23e
00000120: 483b a4be a439 36be 8bea 46be 9313 b7be
00000130: f2e7 e6be 2216 48bd 83f7 fabe b972 cd3e
00000140: 8c2b 003f a567 b8be 0970 8bbe 0ab0 21bf
00000150: ef1d 34be e146 173f 5bd1 b13e df7f df3e
00000160: 1d09 a23e f942 07bf f863 1bbf ee70 093f
00000170: d12f a7be adb7 093f 84cc 26be 0c37 913e
00000180: 6bfd 303e b53d 53be fb24 ac3e c565 733e
00000190: 68ca ee3c 5740 8cbd c66a 36be 0452 113e
000001a0: 51a2 a7be 1588 91be 441c d2be fde2 953e
000001b0: 2a53 103e f6e0 69be 6ddf 8bbe b731 a43d
000001c0: 8a71 9f3e 3baf 54be 9c02 0e3d 693d 27be
000001d0: a94a bcbe 1dd6 363e 0ad4 03bf f56e 08bf
000001e0: 5a51 4bbe b9e1 f6bd bbd4 2b3f cff7 7abe
000001f0: 0014 763e 58db 02be 0f00 b33c 034f ff3d
00000200: 317f 93bd fc28 41be fae2 4e3e c451 663e
00000210: d396 bfbe 6e08 293e 0702 80be 898a a63e
00000220: 09ae 833e d26c bebd 8c01 d2be c971 a23e
00000230: 4da0 ab3d a0b6 a3be fe40 3cbe 2e74 b939
00000240: 27b5 c03e b3ab 28be 6e12 3dbd 2bfb 8a3d
00000250: 245a 85be f387 853d f17e 98be 37df e6be
00000260: acd8 f8bc 953a 21be 7955 093f 78e2 94be
00000270: d3af 913e 8cbd ecbe 5827 08be d846 933d
00000280: 3a4c 2bbe ca80 e9be 2d3e 893e 293e 073e
00000290: 1b54 2cbe 5b6d 34be 7e99 85be abec 923e
000002a0: c9ea d0bc 108d aebd 9d93 2fbf 5dbb 053f
000002b0: bea4 febc 6841 14bf 5057 56bd c1f8 6c3d
000002c0: 5619 b43e 6f59 77bd 52ea 563d 3101 3fbe
000002d0: b994 91be d8f9 b0bd 746a acbe 4214 b2be
000002e0: ce3c 903d c909 17be daeb 0e3f 82ea 01bf
000002f0: 3c9a a23d 210a ccbe 8a51 d2bd 34a5 933e
00000300: e0f6 0dbf d311 323f 0058 0a3d ec89 63be
00000310: 5679 debd e4a8 d2be 4c72 8bbe d7c6 9a3e
00000320: d775 03bf 4e0f ccbb 3d59 d73c 75cd bcbe
00000330: 6fbe 07bf 71d4 483e 4907 92be abeb f63e
00000340: bb11 043f 4369 d1be 6ac3 a7be 8992 fdbe
00000350: 0b52 10be 0b70 ce3e 3da3 033f 2125 153f
00000360: 467b b13e 7826 a0be 90e1 efbe 26e6 283f
00000370: 3f89 d2be 57d1 063f d73b debe 47c0 c73d
00000380: 47f4 80be d000 353f 32e5 10bf ee0d 8cbd
00000390: 58e0 dbbe f8b4 ecbe 11b5 e7be 4c5c c83e
000003a0: 801a 77be 064a c2be 0f8e 82bc d38e 50be
000003b0: 0651 cbbe bded f7be e77f 95be 3dab f63e
000003c0: 70b0 ca3e 30a6 a1bc d053 f8be 1563 bebe
000003d0: 43a0 3ebd cfe0 cf3e e679 093f 5b00 973e
000003e0: ce80 063e 32e5 35be 150e 55be f45d 5c3f
000003f0: 6607 86be 9de7 f13e bf32 a13d fc1a 083e

fc_value.bias f4 [16]
0.07649851 0.20820957 0.23090655 0.18256421 0.11421661 -0.09470365 0.30038404 0.12764771
0.34153357 0.012660226 0.061330497 0.032234944 0.111980885 0.19886698 -0.09612073 0.2743483
00000000: 40ab 9c3d e434 553e c472 6c3e 1df2 3a3e
00000010: 66ea e93d fdf3 c1bd f0cb 993e 15b6 023e
00000020: 7ddd ae3e d66c 4f3c b035 7b3d ca08 043d
00000030: 3c56 e53d c9a3 4b3e f2da c4bd 6177 8c3e

value.weight f4 [1, 16]
-0.9225546 0.73065287 0.7427968 -0.68798655 -0.52482414 -0.6794077 0.7612871 0.89013404
-0.8628843 1.4694551 -0.7525805 -0.49172142 0.77464867 -0.7670671 -0.41476548 0.59630185
00000000: 8a2c 6cbf 110c 3b3f ee27 3e3f e31f 30bf
00000010: e05a 06bf aaed 2dbf b6e3 423f d3df 633f
00000020: fce5 5cbf 1b17 bc3f 1ea9 40bf e9c2 fbbe
00000030: 604f 463f 825e 44bf 245c d4be 3da7 183f

fc_advantage.weight f4 [16, 32]
-0.0045673847 -0.29964927 0.5141987 0.09510422 -0.2770882 -0.23622784 -0.21960363 0.06894564
-0.02142976 -0.11042782 -0.396121 0.278941 -0.01187786 -0.14795671 0.2002454 -0.026059324
-0.003085697 0.044336244 -0.010643184 -0.081255876 -0.10543449 0.024618775 -0.13759106 -0.30866385
-0.2955457 -0.21155214 0.32164904 -0.22723709 0.2039662 -0.6360862 -0.13304888 -0.022270208
-0.013501055 -0.12627189 0.19206864 -0.124522716 0.35447922 -0.2874536 0.20094186 -0.33637583
0.0071660466 0.11097628 0.05119049 0.062925234 -0.000820985 0.2863852 0.24616338 0.0007466713
-0.2062697 0.057766024 0.18104862 0.11918724 0.28875932 -0.1314781 -0.31493613 -0.0069786957
-0.0857016 -0.1341478 -0.17154835 -0.1980502 0.2334114 -0.026676524 0.08695718 -0.12165745
-0.004986154 -0.2533173 0.075539425 -0.015375164 -0.07929793 -0.13879442 0.13528864 0.07907516
-0.31063843 0.20192271 -0.0497537 0.031428244 0.13087477 0.009450716 0.03355717 0.027068507
-0.0033481459 -0.18125267 0.09794014 0.012475256 -0.13430208 0.11509817 0.09824838 -0.0654555
-0.07546686 -0.28340626 0.1554732 -0.105720185 -0.3546709 0.097229235 0.07329021 -0.04203218
-0.17780034 -0.2373906 0.0038622704 0.16114238 -0.030013105 -0.24823104 0.05469025 0.058704693
-0.09191793 0.10718019 0.15921378 0.027914245 -0.06562776 0.07081176 -0.044886734 0.27739125
0.2516936 0.005008715 -0.12304002 -0.29758716 0.123409696 -0.14199823 0.06472312 0.1041348
0.18628527 -0.2585004 0.08015955 -0.061904024 0.18599759 -0.17949924 0.04746903 0.091184534
-0.05250521 0.38826418 0.06298236 -0.23217693 -0.12410119 0.09602838 -0.039175205 -0.04928498
0.1441752 -0.2963209 0.11953307 -0.5396238 -0.16197447 -0.21956584 -0.04434072 -0.18214148
-0.06755621 -0.058025416 0.0002184217 -0.064933605 -0.08120441 0.13788459 0.18028788 0.2500031
0.26479766 -0.10932795 -0.23083776 0.14595224 0.097432524 0.47635344 0.10651469 -0.19098456
-0.13086186 0.09324928 -0.15104054 -0.0011664882 -0.3026805 -0.07411836 -0.12507702 0.0012621053
-0.41176936 -0.06777882 -0.28134903 -0.16268581 0.17137988 0.01487247 -0.22383708 -0.009658802
-0.030732509 -0.03195786 0.038076986 0.060916953 0.020891493 0.09087966 0.42536977 0.04201425
-0.12446322 -0.05171151 -0.32577917 0.04996776 -0.27304938 0.36945722 -0.112783685 -0.13137576
-0.2720367 0.14211705 -0.028633308 -0.1304836 -0.12301696 -0.115650594 -0.13019194 -0.19664274
0.071874656 0.09949681 0.1791721 0.058634292 0.0063513163 -0.13770427 0.17922348 0.049823705
0.19250916 0.050700694 -0.04669261 -0.007383493 0.18585163 0.21306354 -0.37902907 -0.0122706145
0.20709765 -0.0059485724 0.07988562 -0.0063510714 -0.29075634 0.05077867 -0.07903255 -0.18201499
0.18196295 0.3109121 -0.035228275 -0.31254843 0.12357537 -0.014688416 0.021120634 -0.24197517
0.150642 -0.28357264 -0.055980783 -0.5336648 -0.32399523 -0.08217021 0.014747988 -0.16238844
-0.08256996 -0.2696064 -0.21861999 -0.18114991 -0.18833384 0.45208868 0.03941142 0.015780604
0.15340324 -0.1508131 -0.37518084 0.012570414 -0.27515367 0.5332784 -0.23113506 -0.35568106
00000000: 00aa 95bb a16b 99be 87a2 033f 00c6 c23d
00000010: 81de 8dbe b6e5 71be c6df 60be 5f33 8d3d
00000020: 778d afbc fb27 e2bd 5fd0 cabe 5bd1 8e3e
00000030: 5b9b 42bc f781 17be 210d 4d3e 5d7a d5bc
00000040: 6839 4abb ec99 353d c060 2ebc 7b69 a6bd
00000050: 0aee d7bd 50ad c93c ace4 0cbe 3009 9ebe
00000060: c451 97be 20a1 58be 2faf a43e d7b0 68be
00000070: 84dc 503e 8cd6 22bf f73d 08be 0370 b6bc
00000080: 8733 5dbc 6b4d 01be a4ad 443e c405 ffbd
00000090: 4d7e b53e 1e2d 93be b4c3 4d3e 7439 acbe
000000a0: 28d1 ea3b 8847 e33d 1fad 513d f2de 803d
000000b0: 5f37 57ba 15a1 923e 4112 7c3e 43bc 433a
000000c0: 5d38 53be 119c 6c3d cf64 393e 7118 f43d
000000d0: 43d8 933e 32a2 06be 4f3f a1be 8bad e4bb
000000e0: 5284 afbd 0a5e 09be 5faa 2fbe accd 4abe
000000f0: 6603 6f3e ba88 dabc 9b16 b23d 8b27 f9bd
00000100: e462 a3bb ceb2 81be 6ab4 9a3d 1de8 7bbc
00000110: f466 a2bd 2020 0ebe 1b89 0a3e 28f2 a13d
00000120: 000c 9fbe d4c4 4e3e 89ca 4bbd e7ba 003d
00000130: 0904 063e 2dd7 1a3c 3e73 093d c6be dd3c
00000140: 916c 5bbb 4d9a 39be d794 c83d 0465 4c3c
00000150: 7c86 09be 97b8 eb3d 7236 c93d 880d 86bd
00000160: 5e8e 9abd a01a 91be 5e34 1f3e d383 d8bd
00000170: 6d97 b5be 1f20 c73d 2d19 963d ef29 2cbd
00000180: 4b11 36be 8516 73be 251e 7d3b 8202 253e
00000190: 0bde f5bc 4730 7ebe e202 603d 5574 703d
000001a0: 783f bcbd 4a81 db3d f008 233e 6aac e43c
000001b0: d967 86bd c205 913d 27db 37bd 3a06 8e3e
000001c0: fcdd 803e 2620 a43b 68fc fbbd 585d 98be
000001d0: 39be fc3d fc67 11be 8e8d 843d a044 d53d
000001e0: 91c1 3e3e 2a5a 84be b12a a43d 138f 7dbd
000001f0: 2776 3e3e a6ce 37be e36e 423d f5be ba3d
00000200: b40f 57bd 90ca c63e e5fc 803d cabf 6dbe
00000210: c428 febd 87aa c43d 2e76 20bd 0cdf 49bd
00000220: aaa2 133e 5fb7 97be c1cd f43d c924 0abf
00000230: a3dc 25be ded5 60be 9d9e 35bd 4c83 3abe
00000240: e95a 8abd 0fac 6dbd 2108 6539 e9fb 84bd
00000250: 7f4e a6bd 9e31 0d3e 639d 383e 6800 803e
00000260: 8f93 873e 55e7 dfbd bc60 6cbe 8174 153e
00000270: b48a c73d 99e4 f33e 6024 da3d 7591 43be
00000280: a700 06be 7af9 be3d 5faa 1abe d9e4 98ba
00000290: f0f8 9abe 5ecb 97bd 3114 00be 3a6d a53a
000002a0: 6fd3 d2be 9fcf 8abd fb0c 90be 1c97 26be
000002b0: 357e 2f3e a9ab 733c 8c35 65be f43f 1ebc
000002c0: bec2 fbbc 3fe6 02bd 9df6 1b3d 0e84 793d
000002d0: a324 ab3c 1d1f ba3d 11ca d93e 2217 2c3d
000002e0: 93e6 febd 73cf 53bd 87cc a6be feaa 4c3d
000002f0: 21cd 8bbe 7f29 bd3e 22fb e6bd 5e87 06be
00000300: 6548 8bbe 2287 113e 6690 eabc 7e9d 05be
00000310: 51f0 fbbd 38da ecbd 0951 05be b75c 49be
00000320: 0533 933d fcc4 cb3d e478 373e 832a 703d
00000330: b41e d03b 5902 0dbe 5c86 373e f113 4c3d
00000340: 1f21 453e 88ab 4f3d c040 3fbd 3af1 f1bb
00000350: e44f 3e3e 542d 5a3e 1910 c2be b00a 49bc
00000360: 6811 543e 3eec c2bb 129b a33d a61c d0bb
00000370: 04de 94be 4bfd 4f3d d1db a1bd 2362 3abe
00000380: 7f54 3a3e df2f 9f3e 864b 10bd 5906 a0be
00000390: 1515 fd3d afa7 70bc 2e05 ad3c 57c8 77be
000003a0: e541 1a3e 6f30 91be 1b4c 65bd 429e 08bf
000003b0: b4e2 a5be db48 a8bd 8ca1 713c 2849 26be
000003c0: 701a a9bd da09 8abe ebdd 5fbe 5d7f 39be
000003d0: 96da 40be 2b78 e73e de6d 213d 5346 813c
000003e0: bd15 1d3e c06e 1abe b417 c0be 23f4 4d3c
000003f0: f1e0 8cbe ef84 083f abae 6cbe d41b b6be

fc_advantage.bias f4 [16]
0.040512484 -0.14313957 0.24056147 0.00010892717 -0.16005377 -0.04415745 -0.037391905 0.14650494
-0.008989378 -0.06820512 -0.006749051 0.030134201 0.04052169 0.13906464 0.05096197 -0.08261636
00000000: 6bf0 253d 2e93 12be bf55 763e d46f e438
00000010: 23e5 23be 71de 34bd 4128 19bd 6405 163e
00000020: 2f48 13bc 20af 8bbd 2527 ddbb 00dc f63c
00000030: 12fa 253d f666 0e3e 80bd 503d c432 a9bd

advantage.weight f4 [4, 16]
-0.041236382 0.19020744 0.042899128 0.13343346 -0.035287075 -0.23370737 0.03225435 -0.0069745034
0.0021551768 0.15299386 -0.28437683 -0.081094146 -0.24198203 -0.12761146 0.24165384 0.22368005
-0.8494226 0.04964732 0.06169306 0.38089046 -0.4105635 -0.34006464 0.48266125 -0.357586
0.3672553 0.51132524 -0.47442725 -0.1518113 -0.096097134 0.13310759 0.35256445 0.3614007
0.099444084 -0.6540161 0.36692446 -0.32088593 -0.23924874 0.269845 -0.31504104 -0.46630183
0.22715922 -0.29537222 0.1909802 0.34995076 0.4550729 0.5513015 -0.72997445 -0.3172058
0.6383164 0.53348947 -0.43039277 -0.23797925 0.24159138 0.020938981 -0.36806232 0.21209987
-0.47177625 -0.4175146 0.057057332 0.16437747 -0.25908798 -0.5897574 0.36317894 0.06669436
00000000: 7be7 28bd bdc5 423e ffb6 2f3d c8a2 083e
00000010: 2e89 10bd fc50 6fbe 231d 043d 608a e4bb
00000020: de3d 0d3b 6caa 1c3e d799 91be b014 a6bd
00000030: 23ca 77be 94ac 02be 1b74 773e 620c 653e
00000040: c273 59bf fd5a 4b3d ddb1 7c3d 1304 c33e
00000050: 6135 d2be f41c aebe 601f f73e 8315 b7be
00000060: e308 bc3e 36e6 023f 21e8 f2be 6c74 1bbe
00000070: 93ce c4bd 5b4d 083e 5483 b43e 8309 b93e
00000080: 57a9 cb3d 996d 27bf 86dd bb3e 294b a4be
00000090: 9ffd 74be 2029 8a3e 0f4d a1be 1dbf eebe
000000a0: 6d9c 683e 073b 97be 5090 433e bf2c b33e
000000b0: 51ff e83e 1822 0d3f 9bdf 3abf cc68 a2be
000000c0: b468 233f c492 083f 715c dcbe d5b0 73be
000000d0: bb63 773e 3a88 ab3c aa72 bcbe b530 593e
000000e0: a88c f1be 79c4 d5be f3b4 693d 9152 283e
000000f0: 2ea7 84be 57fa 16bf 97f2 b93e 0d97 883d

advantage.bias f4 [4]
-0.007801951 0.115532964 0.018290736 -0.20207179
00000000: 82a7 ffbb 8c9c ec3d 74d6 953c e8eb 4ebe

outs.weight f4 [4, 32]
-0.015768081 -0.03521812 -0.1261099 -0.058052205 -0.05914931 -0.107326 -0.058156244 0.05401118
-0.16198859 -0.046388358 0.09443937 -0.07743754 0.06982295 0.1522549 -0.09042851 -0.036858857
0.17230742 0.12675275 0.16603656 -0.14340717 -0.14452635 -0.110675134 -0.1280302 -0.10640292
-0.033593953 0.10557969 -0.10180112 -0.11341369 0.0368544 -0.1592273 -0.15416649 0.1348752
0.029515266 0.063713595 -0.018781155 -0.061412886 -0.13411528 -0.16005191 -0.07669158 -0.1468817
-0.05878836 -0.16152859 0.122025 0.062792435 -0.04281178 0.095188096 0.13421555 -0.1500342
0.15011437 -0.117929876 -0.12544513 0.17468853 -0.13300936 -0.014362261 0.11313172 0.08097105
0.17231761 0.15944864 -0.015910625 0.05928807 -0.009327307 -0.033327624 0.054480284 0.116416946
-0.15244102 0.16390972 0.010250762 0.10025488 0.03642033 -0.08213196 0.04940234 -0.011006221
-0.07716879 -0.088660195 0.079938546 -0.08479126 -0.0076839775 0.14493127 0.11276774 0.040497467
0.0011927485 0.065100044 0.0717904 -0.11964205 0.03661099 -0.1393393 -0.13216099 -0.12677513
-0.07336055 -0.08552084 -0.14545846 0.1666298 0.031341434 0.08832969 -0.06097673 -0.16788387
0.06086588 0.12445702 -0.158141 0.11624129 -0.06339617 0.11084418 0.06999332 0.021174878
-0.16077037 -0.15362477 0.047563225 0.058258012 0.1719103 0.106935754 -0.07504071 0.018908784
-0.16193451 0.06808314 0.17324592 0.12705614 0.0781057 0.1468455 -0.007250622 0.009032279
-0.13887918 -0.06201841 -0.025191367 -0.07334787 -0.07449398 -0.087940305 0.16928704 0.007203847
00000000: 102c 81bc e040 10bd f422 01be 26c8 6dbd
00000010: 8c46 72bd bccd dbbd 3e35 6ebd d43a 5d3d
00000020: 56e0 25be b801 3ebd 6e69 c13d 9397 9ebd
00000030: 56ff 8e3d b5e8 1b3e 9532 b9bd 50f9 16bd
00000040: 5b71 303e 79cb 013e 7d05 2a3e 54d9 12be
00000050: b7fe 13be a5a9 e2bd 591a 03be c6e9 d9bd
00000060: d099 09bd 2a3a d83d 1b7d d0bd 7045 e8bd
00000070: a4f4 163d 7b0c 23be d2dd 1dbe b91c 0a3e
00000080: 00ca f13c 467c 823d f0da 99bc 148c 7bbd
00000090: 8455 09be a6e4 23be 7a10 9dbd 2868 16be
000000a0: 10cc 70bd c067 25be 3ee8 f93d 5299 803d
000000b0: 685b 2fbd faf1 c23d cd6f 093e 91a2 19be
000000c0: 95b7 193e 3885 f1bd b074 00be 8de1 323e
000000d0: 9b33 08be b04f 6bbc 9ab1 e73d 26d4 a53d
000000e0: 0774 303e 8146 233e 0057 82bc 0cd8 723d
000000f0: 90d1 18bc 8c82 08bd b826 5f3d 026c ee3d
00000100: 8019 1cbe f3d7 273e d0f2 273c 6e52 cd3d
00000110: 7c2d 153d cd34 a8bd 1c5a 4a3d 7053 34bc
00000120: ac0a 9ebd 7a93 b5bd d2b6 a33d 0aa7 adbd
00000130: e0c9 fbbb dd68 143e c6f2 e63d ace0 253d
00000140: 0056 9c3a 2c53 853d d806 933d e406 f5bd
00000150: 68f5 153d f6ae 0ebe 3655 07be 57d1 01be
00000160: 0e3e 96bd 8d25 afbd 10f3 14be 01a1 2a3e
00000170: e05f 003d 32e6 b43d bcc2 79bd c0e9 2bbe
00000180: 804e 793d 52e3 fe3d b7ef 21be ea0f ee3d
00000190: dad5 81bd 4602 e33d a858 8f3d f076 ad3c
000001a0: fda0 24be d04f 1dbe a8d1 423d f49f 6e3d
000001b0: 4109 303e 2201 db3d f2ae 99bd 98e6 9a3c
000001c0: 29d2 25be 2c6f 8b3d 6167 313e 011b 023e
000001d0: e2f5 9f3d ab5e 163e a096 edbb 20fc 133c
000001e0: 5836 0ebe 0407 7ebd 205e cebc 6837 96bd
000001f0: 4d90 98bd 0c1a b4bd 9559 2d3e 400e ec3b

outs.bias f4 [4]
0.08846401 -0.16561125 0.11772044 -0.06436599
00000000: 9e2c b53d ff95 29be 6a17 f13d 51d2 83bd
