space_exploration_with_DQN/runs/2025-07-18_19-45-32.pt (torch, 26665 bytes, 13 tensors)

fc1.weight f4 [64, 8]
0	0xbd53b6d7	-0.05168804
1	0x3e1961c1	0.14978696
2	0x3e7b8eba	0.24566165
3	0x3dad0806	0.08448796
4	0xbf2e60ea	-0.6811663
5	0x3e8def04	0.27721417
6	0x3e804d21	0.25058845
7	0x3e3d8dd4	0.18511134
8	0xbd20ccf5	-0.039257962
9	0x3e0ca876	0.13736138
10	0x3e5d25d8	0.21596467
11	0x3de281d9	0.11059923
12	0x3f45fef7	0.7734217
13	0xbe346fcf	-0.17620777
14	0x3e193683	0.14962201
15	0xbe0c3a8e	-0.13694212
16	0xbed3b118	-0.4134605
17	0xbe7727e0	-0.24136305
18	0xbedefcd1	-0.4355226
19	0xbd94d73f	-0.072676174
20	0x3df3006f	0.11865317
21	0x3e397a33	0.18113022
22	0xbe0358ad	-0.12826796
23	0xbe3c85f0	-0.18410468
24	0xbdb73832	-0.08946265
25	0xbd893357	-0.066992454
26	0x3e972555	0.2952067
27	0xbebb96e5	-0.3663856
28	0x3cb78129	0.022400456
29	0xbccc5e95	-0.024947444
30	0xbed3ec6b	-0.4139131
31	0xbd49b645	-0.04924609
32	0xbe16a532	-0.14711455
33	0x3d97fb25	0.07420949
34	0xbc38b707	-0.011274106
35	0x3d507298	0.050890535
36	0x3de7153e	0.112833485
37	0x3e21dca2	0.15806821
38	0xbe0a640e	-0.1351473
39	0x3de19b8e	0.11015998
40	0x3e65218f	0.22376083
41	0x3d2d93f8	0.042377442
42	0x3ebd6d3a	0.36997396
43	0x3e539e75	0.20665915
44	0xbebc40f7	-0.36768314
45	0xbe94306d	-0.28943196
46	0xbef281a8	-0.47364545
47	0x3ce282e7	0.02765031
48	0x3e9b03aa	0.30276233
49	0xbe02dfa7	-0.12780629
50	0xbebc64ca	-0.36795646
51	0xbe71edcd	-0.2362587
52	0xbd3f3e91	-0.046690527
53	0xbde5ad53	-0.112146996
54	0xbec0ccc5	-0.37656227
55	0x3df6c96f	0.12050139
56	0xbd023163	-0.03178538
57	0x3cdb35ce	0.026759055
58	0x3ef54288	0.47902322
59	0x3d4b4964	0.049630538
60	0xbdbaefdc	-0.09127781
61	0x3f3a911c	0.7287767
62	0x3dc05882	0.093918815
63	0x3e17201b	0.14758341
64	0x3e9bf76c	0.30462205
65	0x3dae2cd8	0.08504647
66	0xbe8cd565	-0.27506557
67	0xbe981659	-0.2970455
68	0xbec27f10	-0.37987566
69	0x3e934daa	0.2877019
70	0x3e216ea6	0.15764865
71	0xbe71e673	-0.23623066
72	0xbdf3e8cb	-0.11909636
73	0x3e21b43c	0.1579141
74	0x3dd259d3	0.10271039
75	0xbebbcee2	-0.36681277
76	0xbe0ace73	-0.13555317
77	0x3d9ce832	0.07661475
78	0xbce074f4	-0.027399518
79	0xbeba07e5	-0.36334148
80	0x3f1a2de6	0.60226285
81	0x3b8ecceb	0.004357924
82	0xbe2d7aa2	-0.16941312
83	0xbcb743b9	-0.02237116
84	0xbe3148e1	-0.17312957
85	0x3db6ed12	0.08931936
86	0x3e56c4ef	0.20973562
87	0x3e2e835d	0.17042299
88	0xbe05eacf	-0.13077854
89	0x3d625bbb	0.055263262
90	0x3e894bcd	0.26815644
91	0xbc307212	-0.010769384
92	0x3e755cec	0.23961228
93	0x3ea3e2e8	0.32009053
94	0x3d813f38	0.06310886
95	0xbeacda63	-0.33760366
96	0x3e423471	0.18965317
97	0xbd5a5f95	-0.05331381
98	0x3cfd4fc4	0.030921824
99	0x3d4bc0ba	0.049744345
100	0xbef3d67c	-0.47624576
101	0xbe48e2f8	-0.19617832
102	0xbd92d9d9	-0.071704574
103	0xbe839a13	-0.25703487
104	0xbe84e1c1	-0.25953487
105	0x3e203581	0.1564541
106	0xbe2faeea	-0.17156568
107	0xbd077122	-0.033066876
108	0xbc0db3ab	-0.008648793
109	0xbd79fa3c	-0.061029658
110	0x3eee8a8b	0.46590075
111	0x3c376b38	0.011194997
112	0x3ed39a76	0.41328782
113	0xbd66e721	-0.056372765
114	0xbe4fd85f	-0.20297383
115	0xbde4d9b9	-0.1117434
116	0xbe8dc95d	-0.2769269
117	0xbcc2bc16	-0.023771327
118	0x3f0b5807	0.54431194
119	0x3e049c8d	0.12950344
120	0xbd3056ce	-0.043051533
121	0xbee45b27	-0.44600794
122	0x3df0457d	0.11732004
123	0xbeb0e80f	-0.34552047
124	0xbe866c25	-0.26254383
125	0xbed9bbb4	-0.4252602
126	0xbe6e33b7	-0.23261915
127	0xbb91d297	-0.004450153
128	0x3e71edcb	0.23625867
129	0xbda61108	-0.08108717
130	0x3de8e14e	0.113710985
131	0xbe5acf5e	-0.21368167
132	0xbe6f6128	-0.23376906
133	0x3e121ecd	0.14269562
134	0x3e0b3a49	0.13596453
135	0xbee1f024	-0.44128525
136	0xbe1257ef	-0.14291357
137	0xbe49130a	-0.19636169
138	0xbe0b2412	-0.13587978
139	0x3ebf0c5d	0.3731412
140	0xbecf59e4	-0.4049827
141	0xbeae1ff5	-0.34008756
142	0x3e060083	0.13086133
143	0x3ecd2713	0.40068874
144	0x3e3e8fb4	0.18609506
145	0xbe06fa30	-0.13181376
146	0x3e8839e8	0.2660668
147	0xbd8a8ab9	-0.067647405
148	0x3d5f83ae	0.05456894
149	0x3db4c006	0.08825688
150	0x3d82cc73	0.06386652
151	0x3e713041	0.23553564
152	0xbd89c44f	-0.06726896
153	0xbc92e7b9	-0.01793276
154	0x3e3ea4ca	0.1861755
155	0x3b444ea9	0.0029954112
156	0x3e31886c	0.17337197
157	0x3defeae1	0.117147215
158	0x3d5b7921	0.053582314
159	0xbda3514b	-0.0797449
160	0x3eeae6d1	0.45879224
161	0x3e1d62c8	0.15369713
162	0x3dec3eef	0.11535441
163	0x3f774708	0.9659276
164	0xbd71f48d	-0.059071112
165	0x3e2920f2	0.16516474
166	0x3d77ef8d	0.060531188
167	0x3e3438db	0.17599814
168	0xbdec2ebc	-0.115323514
169	0x3d951634	0.072796255
170	0xbda7d808	-0.081955016
171	0x3e5dfff2	0.21679667
172	0xbe059a23	-0.1304708
173	0xbcabd5d0	-0.020975977
174	0xbe9a4db8	-0.3013742
175	0x3dadf75c	0.08494446
176	0xbe576716	-0.21035418
177	0xbe6833dd	-0.22676034
178	0xbede48a0	-0.43414783
179	0x3e8a93de	0.2706594
180	0x3ea35846	0.31903285
181	0xbd18fd49	-0.037350927
182	0x3e3fb1d6	0.18720183
183	0xbdec3e88	-0.115353644
184	0xbef34ea8	-0.47520947
185	0xbe861377	-0.26186725
186	0xbebe2abf	-0.37141988
187	0x3c4758a0	0.012167126
188	0x3dc27a39	0.09495968
189	0xbe4bc756	-0.1990026
190	0x3d7805f1	0.06055254
191	0xbe015622	-0.12630513
192	0xbbd50c26	-0.0065016923
193	0x3d9a126f	0.07523047
194	0x3e465602	0.19368747
195	0x3e2fac34	0.17155534
196	0xbe9e28db	-0.30890545
197	0xbe347e50	-0.1762631
198	0xbf033af6	-0.5126184
199	0xbe77b95b	-0.24191801
200	0xbe54c320	-0.2077756
201	0x3e4e675f	0.2015662
202	0x3f04671c	0.5171983
203	0xbd116ae6	-0.035502337
204	0xbe4b231f	-0.19837616
205	0x3e3c0d31	0.18364407
206	0x3eeb1e41	0.4592152
207	0xbe1389ca	-0.14408031
208	0xbe9521ed	-0.29127446
209	0x3d101f59	0.035186145
210	0x3d2d9b18	0.042384237
211	0x3eaa2f00	0.33238983
212	0x3e1005e3	0.14064746
213	0x3e96b5aa	0.29435474
214	0xbe9d42e0	-0.30715084
215	0x3df9e1a1	0.122012384
216	0xbd940314	-0.072271496
217	0xbab28b9a	-0.0013621927
218	0x3e506573	0.203512
219	0x3d542175	0.05178972
220	0x3bd08333	0.0063632964
221	0xbd498ba9	-0.049205456
222	0x3d7d1c63	0.06179465
223	0x3d7a2585	0.061070938
224	0x3e70788b	0.23483483
225	0x3ce7dea2	0.028304402
226	0xbe941418	-0.2892158
227	0x3e7e45a8	0.24831259
228	0xbe1b00cd	-0.15137024
229	0xbdc252dc	-0.094884604
230	0xbd57e5e7	-0.052709486
231	0xbe6eb470	-0.23311019
232	0x3e0cca26	0.13748989
233	0x3e74d8e9	0.2391087
234	0xbe31f73c	-0.17379469
235	0x3eb8dcf5	0.36106077
236	0x3e95e841	0.29278758
237	0x3e2d5c4e	0.16929743
238	0x3d480796	0.04883536
239	0xbd0153d1	-0.031574074
240	0x3ed97abd	0.42476454
241	0xbde7d8c1	-0.113206394
242	0xbde4566f	-0.111492984
243	0x3e008dec	0.12554139
244	0x3df1eb74	0.11812487
245	0x3d94e60b	0.0727044
246	0x3d788683	0.060675155
247	0x3dd8e8bd	0.10591266
248	0x3c2cb00a	0.010540018
249	0x3e6417f5	0.22274764
250	0xbe9c7dcb	-0.30564722
251	0x3e989759	0.2980297
252	0x3f06d9ca	0.5267607
253	0xbf096f96	-0.5368589
254	0x3e956af9	0.29183176
255	0xbd565ba4	-0.05233349

fc1.bias f4 [64]
0	0x3d1160c9	0.035492692
1	0xbc9e0a9b	-0.019292166
2	0xbcb8e864	-0.02257175
3	0x3d21b669	0.0394806
4	0x3e34c41c	0.17652935
5	0x3dd2f6f2	0.10301007
6	0x3e505521	0.20344974
7	0xbe7a2a74	-0.24430257
8	0xbe040be2	-0.12895158
9	0xbe861bda	-0.26193124
10	0x3e30a4a8	0.17250311
11	0xbe7576ca	-0.23971096
12	0x3e57cb3b	0.2107362
13	0xbe64d3b2	-0.2234638
14	0x3dd2c54e	0.10291539
15	0xbdf3d70c	-0.11906251
16	0x3e4452b6	0.19172177
17	0xbe62a2d6	-0.2213243
18	0x3e5b67d9	0.21426333
19	0x3e2cf970	0.16892028
20	0xbf00ff30	-0.50389385
21	0xbea61c3e	-0.32443422
22	0x3dd8ccc2	0.105859295
23	0x3c03a7b8	0.008035593
24	0x3e68795a	0.22702542
25	0xbe5fecb1	-0.21867634
26	0x3d9c58ff	0.07634162
27	0x3e41a4d8	0.18910539
28	0x3e0d2c1e	0.1378636
29	0xbd73e151	-0.05954105
30	0x3e8c30ee	0.2738108
31	0xbe741525	-0.23836191
32	0xbe80fe5e	-0.25194067
33	0x3db0f1aa	0.08639844
34	0x3da5cd80	0.08095837
35	0x3e0e8737	0.13918768
36	0xbe74b0fd	-0.2389564
37	0xbdafd168	-0.08584863
38	0x3d895b40	0.06706858
39	0x3d376c4b	0.04478101
40	0x3d682c45	0.056682844
41	0xbd6c9156	-0.05775579
42	0x3e5b18a8	0.21396124
43	0x3dc20ea5	0.094754495
44	0x3e5db4fc	0.21651071
45	0xbcb4894e	-0.022038128
46	0xbc3ca37e	-0.011513589
47	0x3df2d175	0.11856357
48	0x3e464ff0	0.19366431
49	0xbe9d90e7	-0.30774614
50	0xbd4b0d6a	-0.04957334
51	0xbe193f8b	-0.14965646
52	0xbe3bb69c	-0.18331379
53	0xbcb6eaca	-0.022328753
54	0x3e2ee98d	0.1708128
55	0xbe69f715	-0.2284816
56	0xbab68141	-0.0013924019
57	0xbc8256d7	-0.01591055
58	0x3dbf15a0	0.093302965
59	0x3e82f4e3	0.2557746
60	0xbe2b2d65	-0.16716535
61	0xbd6cdabe	-0.057825796
62	0x3e4822c6	0.19544515
63	0xbd8407a2	-0.06446768

ln1.weight f4 [64]
0	0x3fd1bb05	1.6385199
1	0x3fc2b301	1.5210878
2	0x3fa6c2c8	1.3028193
3	0x3fb73920	1.4314308
4	0x3fac5e67	1.3466309
5	0x3fb94f16	1.447726
6	0x3fc70904	1.5549626
7	0x3fd77b3e	1.6834486
8	0x3fcedab3	1.6160492
9	0x3fb18d92	1.3871329
10	0x3f9cc7d1	1.2248479
11	0x3fcc1187	1.5942849
12	0x3fb69f7f	1.4267424
13	0x3f998ba4	1.199574
14	0x3fbb53b7	1.4634923
15	0x3fbea65b	1.4894518
16	0x3fc733e7	1.5562714
17	0x3fb47cbc	1.4100566
18	0x3f9718c5	1.1804434
19	0x3faeae0f	1.3646868
20	0x3fd44c28	1.6585741
21	0x3fbc46ea	1.4709141
22	0x3fbcc926	1.4748886
23	0x3fa4cfcc	1.2875915
24	0x3fb4273e	1.4074476
25	0x3fc0e9d1	1.5071355
26	0x3fb77374	1.4332108
27	0x3fabeeed	1.3432289
28	0x3fc5155d	1.5397145
29	0x3fa2b157	1.271037
30	0x3fa3eef8	1.2807302
31	0x3fb58aa7	1.4182938
32	0x3fc80c9d	1.5628849
33	0x3fac288f	1.3449878
34	0x3fbebcdf	1.4901389
35	0x3fd40d8b	1.6566633
36	0x3fae712c	1.3628287
37	0x3fa9c4f7	1.3263234
38	0x3fa6880d	1.3010269
39	0x3fcf8fa9	1.6215717
40	0x3faf7400	1.3707275
41	0x3fb5717a	1.4175255
42	0x3fbb8b27	1.4651841
43	0x3fa2cf45	1.2719504
44	0x3fa83705	1.3141791
45	0x3fabde9b	1.3427309
46	0x3fca86f6	1.5822437
47	0x3fa959df	1.3230551
48	0x3fbc4cbe	1.471092
49	0x3f9ba72d	1.2160393
50	0x3fc096e4	1.5046048
51	0x3fbee1d7	1.4912671
52	0x3fb2e053	1.3974708
53	0x3fcf797b	1.6208948
54	0x3fb8df44	1.4443135
55	0x3fb3f8b8	1.4060278
56	0x3fdfd388	1.7486429
57	0x3fc35549	1.5260402
58	0x3fbc965a	1.4733384
59	0x3fa9c38f	1.3262805
60	0x3fb6f0a9	1.4292194
61	0x3fa824ab	1.313619
62	0x3f99ec38	1.2025213
63	0x3fb6d622	1.4284098

ln1.bias f4 [64]
0	0x3e6f9123	0.23395209
1	0x3d649ad0	0.055811703
2	0xbd74c0f8	-0.05975434
3	0xbca2bf3f	-0.019866584
4	0xbc94a7b2	-0.01814637
5	0xbdd8eff0	-0.105926394
6	0x3bf43f58	0.00745384
7	0xbf280830	-0.65637493
8	0x3dd8d52b	0.105875336
9	0xbcb2a239	-0.02180587
10	0x3d93fc92	0.07225908
11	0xbedf3ce5	-0.43601146
12	0xbd9a177e	-0.07524012
13	0xbd04201d	-0.032257188
14	0x3db1b7d1	0.08677638
15	0xbdb53e2c	-0.08849749
16	0x3e4a7129	0.1976973
17	0xbe62c20b	-0.22144334
18	0x3d775a6f	0.06038898
19	0x3d0dd4cf	0.03462678
20	0xbdc85ec9	-0.09783704
21	0xbeeb8566	-0.46000212
22	0xbe1cc9b1	-0.15311314
23	0xbd45f1b1	-0.048326198
24	0x3d4e5f62	0.050383933
25	0xbdfee9ef	-0.12446963
26	0x3c7fe39c	0.015618231
27	0x3e24512f	0.16046594
28	0x3c2e773b	0.010648544
29	0x3d243152	0.040086098
30	0x3e159a02	0.1460953
31	0xbd1feb3b	-0.039042693
32	0xbc2146c0	-0.009843528
33	0xbd3caafd	-0.046061505
34	0x3d083533	0.03325386
35	0x3d6b73cb	0.057483476
36	0xbdf0d4a7	-0.1175931
37	0x3de95a4a	0.113941744
38	0x3cbd7ca8	0.02313073
39	0x3e1150b0	0.14190936
40	0xbd33af63	-0.043868434
41	0x3d8ddce9	0.06926901
42	0xbcc02553	-0.023455298
43	0xbc043a8c	-0.008070599
44	0x3e3e766c	0.18599862
45	0xbea0380f	-0.3129277
46	0xbee6c865	-0.45074764
47	0x3d0fbedd	0.03509413
48	0xbe509434	-0.20369035
49	0xbdbbe202	-0.09173967
50	0xbe2c87f4	-0.16848737
51	0xbd045351	-0.03230602
52	0xbcca1932	-0.024670217
53	0x3df24abd	0.118306614
54	0xbdb7c3c9	-0.0897289
55	0xbea713cc	-0.3263229
56	0x3df1fca8	0.118157685
57	0xbdf0cc2f	-0.11757695
58	0xbb27fd0f	-0.0025633012
59	0xbb8900e7	-0.004181016
60	0xbe270a08	-0.1631242
61	0x3b359007	0.0027704255
62	0x3dc70012	0.0971681
63	0xbe04c809	-0.12966932

fc_value.weight f4 [32, 64]
0	0x3e4bb04a	0.19891468
1	0x3e4638f0	0.19357657
2	0xbe009ae2	-0.12559083
3	0x3f06b215	0.5261548
4	0xbdc2b64b	-0.09507426
5	0xbf0dd384	-0.5540087
6	0x3e24b2cd	0.16083832
7	0xbe58d301	-0.21174242
8	0x3ed6bc09	0.41940334
9	0x3e968c29	0.2940381
10	0x3e1e1154	0.15436298
11	0xbe15df8b	-0.14636056
12	0xbe3e4aed	-0.1858327
13	0xbe66656e	-0.2249963
14	0x3e35525d	0.177072
15	0xbecc796c	-0.39936388
16	0x3e87b8ad	0.26508084
17	0xbe41fc0a	-0.18943802
18	0x3d971fd8	0.073791206
19	0xbdd1c995	-0.10243527
20	0xbe2b3cce	-0.16722414
21	0xbd120e15	-0.03565796
22	0xbe1c8f4c	-0.15289038
23	0xbe7bef4f	-0.24603008
24	0xbe22198d	-0.1583006
25	0xbe3753b0	-0.17903018
26	0xbede78c6	-0.43451518
27	0x3e578c04	0.21049505
28	0xbe35600e	-0.17712423
29	0xbec9be12	-0.39402825
30	0xbd6aa041	-0.057281736
31	0xbe217683	-0.15767865
32	0x3edbc02c	0.42920053
33	0xbe834951	-0.25641873
34	0x3ec90c50	0.39267206
35	0x3e26cb37	0.16288458
36	0xbe7db6fa	-0.24776831
37	0x3e630825	0.22171076
38	0x3e77a3dc	0.24183601
39	0x3e207c69	0.15672459
40	0xbe7eefcd	-0.24896164
41	0x3ee25154	0.44202673
42	0xbecd5da6	-0.4011051
43	0x3b3fc568	0.002926195
44	0xbdcf186e	-0.101120815
45	0xbd9c5e1f	-0.0763514
46	0xbe1b72ad	-0.15180464
47	0x3e8ddeea	0.27709132
48	0xbecca6ec	-0.399711
49	0x3d0e323d	0.03471588
50	0xbd979125	-0.07400731
51	0x3ec9dcde	0.3942632
52	0xbe79dec8	-0.2440139
53	0x3eb19896	0.34686726
54	0x3d206b03	0.039164554
55	0xbe1ae975	-0.1512812
56	0x3f2a070a	0.6641699
57	0xbea96cf8	-0.3309095
58	0x3e643431	0.22285534
59	0x3ddad3ea	0.10684951
60	0xbe01cebf	-0.12676524
61	0x3e8ab6c0	0.27092552
62	0xbd426619	-0.04746065
63	0xbeb48307	-0.35256216
64	0x3e095108	0.13409817
65	0xbe6c308b	-0.23065393
66	0x3cb3cf22	0.021949355
67	0xbe3e278c	-0.18569773
68	0xbe3420c5	-0.17590626
69	0x3dee7158	0.11642712
70	0xbe8b56c4	-0.27214634
71	0xbe4e789d	-0.20163198
72	0x3e713872	0.23556688
73	0xbe8bfbe4	-0.27340615
74	0x3e19198f	0.14951156
75	0xbd8daf45	-0.06918196
76	0xbdcfbd10	-0.10143483
77	0xbd11e8ad	-0.035622288
78	0x3e86495b	0.2622784
79	0x3b9bd1b6	0.004755224
80	0x3e2d8303	0.16944508
81	0x3d99ccbf	0.07509755
82	0xbca45d16	-0.020063918
83	0x3e896aa2	0.26839167
84	0xbe1bfac0	-0.15232372
85	0xbcb7ded0	-0.022445112
86	0xbec4c2b7	-0.38429806
87	0x3d975cd3	0.07390752
88	0x3c4fa1ca	0.012672851
89	0x3e5c6603	0.2152329
90	0x3e1cbad9	0.15305652
91	0x3e6b3859	0.22970714
92	0xbe31f975	-0.17380317
93	0x3e16f055	0.14740117
94	0x3e02f36a	0.12788168
95	0xbe91e7fb	-0.284973
96	0xbe4d5173	-0.20050602
97	0x3dbcfab6	0.09227507
98	0x3cf8d2a1	0.030373873
99	0xbce87b46	-0.028379094
100	0x3c2b35de	0.010449855
101	0xbcfd2f41	-0.030906321
102	0xbe063c02	-0.13108829
103	0x3e7c2312	0.24622753
104	0x3deae895	0.11470143
105	0x3e643007	0.22283946
106	0x3e24bec5	0.16088398
107	0x3d2bbcc1	0.041928057
108	0x3a66e6d2	0.00088081986
109	0xbdbc3cf9	-0.09191317
110	0xbe370ebd	-0.17876716
111	0xbdc6a0fe	-0.096986756
112	0xbc2886f3	-0.010286081
113	0xbddc989e	-0.10771297
114	0xbe091fe7	-0.13391076
115	0xbeb981f2	-0.36231953
116	0x3ea55134	0.32288516
117	0x3d499bbe	0.049220793
118	0xbe2ef230	-0.17084575
119	0x3c571e6e	0.013129814
120	0xbe9788d6	-0.29596585
121	0x3e26ec54	0.1630109
122	0xbe5c4639	-0.21511163
123	0xbd4c7cd9	-0.04992375
124	0xbaa06bf6	-0.0012239206
125	0xbd6fae2f	-0.058515724
126	0xbdf622b8	-0.12018341
127	0x3e9be383	0.30447015
128	0xbd896435	-0.06708566
129	0xbe07cc27	-0.13261472
130	0x3e89358c	0.26798666
131	0xbe7243c7	-0.23658668
132	0xbdf7f6a0	-0.12107587
133	0xbc0e7ce6	-0.00869677
134	0xbd17525a	-0.03694377
135	0xbe0c9f62	-0.13732675
136	0x3caaeba3	0.020864313
137	0xbe44a148	-0.19202149
138	0xbdd3e0d7	-0.10345619
139	0x3dd93575	0.10605899
140	0xbe18d0c2	-0.14923385
141	0x3d9f1d50	0.07769263
142	0x3d06a7a7	0.03287473
143	0x3c2ab079	0.010418051
144	0x3e458751	0.192899
145	0xbdb61f5f	-0.08892702
146	0xbcc3f5f3	-0.023920989
147	0x3eac2aff	0.33626553
148	0xbe99b64d	-0.30021897
149	0x3cf8f7ef	0.030391661
150	0xbdc397a4	-0.095504075
151	0x3d502d9f	0.050824758
152	0x3d12edf6	0.03587147
153	0x3d628b21	0.055308465
154	0x3cef97fb	0.029247275
155	0x3e5e37ba	0.21700945
156	0x3d85da9d	0.06535838
157	0x3c3b3797	0.011426828
158	0x3d5a48d3	0.053292107
159	0xbcecdad6	-0.028912943
160	0xbea0e918	-0.31427836
161	0x3e1306fd	0.14358135
162	0xbe144500	-0.14479446
163	0x3e17c462	0.14821008
164	0x3e55e852	0.20889404
165	0xbd924888	-0.071427405
166	0x3ca2427b	0.019807091
167	0x3d9717a6	0.073775575
168	0x3e1cafff	0.15301512
169	0xbe82e9fc	-0.2556914
170	0x3c412208	0.011787899
171	0x3e09fde2	0.13475755
172	0x3d70a868	0.058754355
173	0xbe1ad639	-0.15120782
174	0xbe3f37dd	-0.18673654
175	0xbe108ed7	-0.14116989
176	0xbd89e135	-0.06732408
177	0x3e4ade84	0.19811445
178	0xbe24b2ad	-0.16083784
179	0xbe196034	-0.14978105
180	0x3eb049b6	0.34431237
181	0xbcd2837b	-0.02569746
182	0xbdeadd32	-0.11467971
183	0x3bad1d8e	0.005283064
184	0xbde1873b	-0.11012121
185	0xbd44d5f9	-0.048055623
186	0xbe52283b	-0.20523159
187	0xbe66700f	-0.22503684
188	0xbdbe0a8a	-0.09279354
189	0xbd69a1bf	-0.05703902
190	0xbd43db1f	-0.047816392
191	0x3e2680c2	0.16260055
192	0x3ea48b3c	0.32137477
193	0x3ecd422e	0.40089554
194	0xbeca0f89	-0.39464977
195	0x3e7213dd	0.2364039
196	0x3e8fc1fb	0.28077683
197	0xbe819473	-0.2530857
198	0x3dbc1f28	0.0918563
199	0xbe93f643	-0.2889882
200	0x3e6aca4a	0.2292873
201	0x3eb9fe51	0.3632684
202	0x3e9ab5dd	0.30216876
203	0xbeca5fc7	-0.39526197
204	0x3ce69d2c	0.028151117
205	0xbe5d8495	-0.21632607
206	0x3d9226bf	0.071362965
207	0xbed54221	-0.41652015
208	0x3e478d8c	0.1948759
209	0xbecbd581	-0.39811328
210	0x3d9e6b19	0.07735271
211	0x3a713dc3	0.00092026236
212	0x3e33ab34	0.17545778
213	0xbe0cef2e	-0.13763115
214	0x3e1b9d19	0.15196647
215	0xbe958de5	-0.2920982
216	0x3d8f1dd8	0.06988114
217	0xbc6bebfe	-0.014399527
218	0xbe837e34	-0.25682223
219	0x3e5a7436	0.21333393
220	0x3e05f3c9	0.13081278
221	0x3cc8b371	0.024499627
222	0x3ea1024c	0.31447065
223	0x3e034a77	0.12821375
224	0x3ccb63ab	0.024827799
225	0xbea01960	-0.3126936
226	0x3e909bd2	0.2824388
227	0x3e2ba7a7	0.16763173
228	0xbe926d00	-0.28598785
229	0x3ebe305c	0.3714627
230	0x3e6fa681	0.2340336
231	0x3dfc9b4c	0.12334308
232	0xbea18a0a	-0.31550628
233	0x3ed091d4	0.40736258
234	0xbd7951c2	-0.060868986
235	0xbeacfc80	-0.33786392
236	0x3e4beab7	0.19913755
237	0xbe85c73e	-0.26128572
238	0xbe763fc7	-0.24047767
239	0x3e9d847b	0.30765137
240	0xbe1cf9ca	-0.15329662
241	0xbe85919d	-0.26087657
242	0xbe7dcc2d	-0.24784918
243	0x3e16fc3b	0.14744656
244	0xbe9579f9	-0.2919462
245	0x3e816e67	0.25279543
246	0xbed62d24	-0.41831315
247	0xbea09dc4	-0.31370366
248	0x3ede531e	0.43422788
249	0xbec22497	-0.3791854
250	0x3e7e4c5d	0.24833818
251	0x3e921859	0.285342
252	0xbedc550f	-0.43033645
253	0x3e40281c	0.187653
254	0x3e888800	0.2666626
255	0xbe9451bb	-0.28968605

fc_value.bias f4 [32]
0	0x3dada1ad	0.08478103
1	0x3d25b95f	0.040459987
2	0x3d610174	0.054933026
3	0x3e8af0ff	0.2713699
4	0x3dcb1568	0.09916192
5	0x3e33adb5	0.17546733
6	0x3d1e63d3	0.03866942
7	0x3df3afa9	0.11898739
8	0x3e72d9e3	0.2371593
9	0x3bd0d047	0.006372485
10	0x3d6756cf	0.05647927
11	0x3e0df51a	0.1386303
12	0x3e435979	0.190771
13	0x3eaf84b8	0.34280944
14	0x3ddb9aa9	0.107228585
15	0x3e08cca9	0.13359322
16	0x3cd2f401	0.025751116
17	0x3e3c46da	0.18386403
18	0x3e49f322	0.19721654
19	0x3e2bff7c	0.16796678
20	0xbde2ba48	-0.110706866
21	0x3d2a1556	0.041524254
22	0x3e374d25	0.17900522
23	0xbd565a06	-0.052331947
24	0x3e222d29	0.1583754
25	0x3e44b110	0.19208169
26	0x3e5f6dde	0.21819255
27	0x3e4fc3ca	0.20289531
28	0x3da88e15	0.08230225
29	0x3def34b3	0.116799735
30	0xbe1e1212	-0.15436581
31	0x3c928174	0.017883994

value.weight f4 [1, 32]
0	0x3f1ba15f	0.6079311
1	0xbed712bc	-0.4200648
2	0xbedd7bc8	-0.432585
3	0x3eb1b322	0.3470698
4	0xbf1d107b	-0.6135327
5	0xbee0f071	-0.43933442
6	0x3f1d809c	0.6152437
7	0xbee457f9	-0.44598368
8	0xbf06ec62	-0.5270444
9	0xbeacf839	-0.3378313
10	0x3f14558f	0.5794305
11	0xbf078da7	-0.5295052
12	0xbf3a7db1	-0.7284804
13	0x3eb94d8a	0.3619197
14	0xbee457b1	-0.44598153
15	0x3f8ae273	1.0850357
16	0xbf2cf5e0	-0.67562675
17	0xbed13154	-0.40857947
18	0x3efd7893	0.49506053
19	0xbed34992	-0.41267067
20	0x3f1c5c8f	0.61078733
21	0xbf64dfe2	-0.8940412
22	0x3f68dd77	0.9096293
23	0xbeca8f5b	-0.39562497
24	0xbebc6c15	-0.3680121
25	0xbf55a94d	-0.8346146
26	0xbf1a9906	-0.60389745
27	0x3eba4168	0.36378026
28	0x3ef8bfab	0.4858373
29	0x3ee23c5f	0.44186684
30	0x3f81063f	1.0080031
31	0xbedcc1bb	-0.43116555

fc_advantage.weight f4 [32, 64]
0	0xbe24452b	-0.1604201
1	0x3c0c1039	0.00854879
2	0xbe00d69b	-0.12581865
3	0xbd9a8fb8	-0.075469434
4	0xbde24e27	-0.110500626
5	0xbeac6d55	-0.33677164
6	0x3e16f035	0.14740069
7	0x3e07b81b	0.13253824
8	0x3dbae219	0.09125156
9	0xbd9ef9a7	-0.07762461
10	0x3cb34449	0.021883147
11	0xbe3b9612	-0.18318966
12	0xbe801269	-0.25014046
13	0xbe5657fc	-0.20932001
14	0x3df62869	0.120194264
15	0x3def7f65	0.116942205
16	0x3d3e4b9d	0.04645883
17	0x3e87bd7e	0.2651176
18	0xbd87f668	-0.06638795
19	0x3db09b7d	0.08623407
20	0x3ca58a11	0.020207437
21	0x3d65bf73	0.056090783
22	0x3e9a06a9	0.30083206
23	0x3d84cac8	0.0648399
24	0xbdca0254	-0.09863725
25	0xbe460a14	-0.19339782
26	0xbe418723	-0.18899207
27	0xbcb4c209	-0.02206518
28	0x3dced689	0.10099513
29	0xbd6076f6	-0.05480095
30	0x3e5db58f	0.2165129
31	0x3cc89778	0.024486288
32	0xbe712c63	-0.23552088
33	0x3b3a3640	0.0028413683
34	0x3abb86d1	0.0014307146
35	0x3d961bfb	0.073295556
36	0xbd525164	-0.05134715
37	0xbd8896bb	-0.066693746
38	0x3c62b3f6	0.013836851
39	0xbcac406e	-0.021026816
40	0x3bcd8826	0.0062723337
41	0xbe2ef3fe	-0.17085263
42	0x3d8be0a4	0.06829956
43	0xbd912245	-0.070866145
44	0x3c9e2efb	0.019309511
45	0x3dca1be8	0.09868604
46	0xbc3864f1	-0.011254535
47	0x3d580d87	0.052747276
48	0xbe757e0b	-0.23973863
49	0x3e157a9d	0.14597555
50	0xbe0bc36a	-0.13648763
51	0x3ddd49b8	0.10805076
52	0x3e06ea27	0.1317526
53	0x3dea8219	0.114505954
54	0xbd2500cd	-0.040283967
55	0xbd82de79	-0.063900895
56	0x3e8c0deb	0.2735437
57	0xbe625104	-0.22101218
58	0x3d7f5436	0.06233617
59	0xbe50844e	-0.2036297
60	0xbd6c0e78	-0.057630986
61	0xbd6b6648	-0.05747059
62	0xbcca146f	-0.024667947
63	0x3ce77398	0.028253362
64	0x3c997043	0.018730288
65	0xbbac133b	-0.005251316
66	0xbd696961	-0.056985263
67	0xbc3095b9	-0.010777884
68	0xbd85c488	-0.06531626
69	0xbc1f8f52	-0.00973876
70	0xbd35eb07	-0.044413593
71	0xbdc4e73a	-0.096144155
72	0x3c803688	0.015651003
73	0xbda59f58	-0.08087033
74	0x3d44d01c	0.04805003
75	0x3d049213	0.03236587
76	0x3c8da93d	0.017292613
77	0xbc471634	-0.01215129
78	0xbd01e0a6	-0.031708382
79	0x3e026ebe	0.12737557
80	0x3d659aa8	0.056055695
81	0x3cbdb731	0.023158642
82	0x3d39adee	0.045331888
83	0x3de80bbd	0.11330364
84	0x3b31269d	0.0027031072
85	0xbdbde5c8	-0.09272343
86	0x3d99fb06	0.07518582
87	0x3dc2d83b	0.09513899
88	0x3d353260	0.044237494
89	0x3d4b69aa	0.049661316
90	0xbd8f1fa3	-0.06988456
91	0x3dd4244a	0.10358484
92	0x3da0e415	0.07856003
93	0x3d6f9635	0.058492858
94	0x3cfb353a	0.030665029
95	0xbe37157c	-0.1787929
96	0xbd68daab	-0.056849163
97	0xbd16c85c	-0.03681217
98	0xbd8f34e0	-0.06992507
99	0xbd99c16d	-0.07507596
100	0xbe184203	-0.14868931
101	0xbdb34c90	-0.087548375
102	0xbcc1d3a7	-0.023660494
103	0xbd838a4a	-0.06422861
104	0xbe2772aa	-0.16352335
105	0x3e137645	0.14400585
106	0x3da6484c	0.08119258
107	0x3d0de824	0.034645215
108	0x3d538bd6	0.05164703
109	0xbda898e2	-0.08232285
110	0xbd7f3fb4	-0.06231661
111	0x397d8492	0.00024177346
112	0xbe1ff53f	-0.15620898
113	0x3cf84a43	0.030308848
114	0xbdb8ac42	-0.090172306
115	0x3df3d82d	0.11906467
116	0x3e090166	0.1337944
117	0xbd27c89a	-0.040962793
118	0xbd1df242	-0.038561113
119	0xbd9004ca	-0.070321634
120	0xbd128886	-0.03577473
121	0xbd0bb17b	-0.034104805
122	0x3dd7e58f	0.10541832
123	0xbccdaf99	-0.025108146
124	0x3d840da1	0.06447912
125	0x3da872c9	0.082250185
126	0x3d8e873c	0.06959388
127	0xbd25eab5	-0.040507037
128	0x3dda7148	0.10666138
129	0x3d865e44	0.065609485
130	0x3e3a4cf2	0.18193415
131	0x3e24003e	0.16015717
132	0xbdc6a1d8	-0.09698838
133	0xbe5d2309	-0.21595396
134	0xbc343bf9	-0.011000627
135	0xbe365de0	-0.17809248
136	0x3d6aeebd	0.057356585
137	0xbbd78a00	-0.00657773
138	0xbe072cf2	-0.13200739
139	0xbdc69932	-0.096971884
140	0x3d3c4f97	0.04597434
141	0x3dcc2b57	0.09969204
142	0x3ce4d84a	0.027935166
143	0x3db73cdd	0.089471556
144	0x3e01ed41	0.12688161
145	0xbd0b1b19	-0.03396139
146	0x3e27c692	0.16384342
147	0x3d9f8a85	0.077900924
148	0xbe09f04f	-0.13470577
149	0xbd8ba0d8	-0.06817788
150	0x3c2255b6	0.00990813
151	0x3c2bdc37	0.010489515
152	0x3d618e18	0.05506715
153	0xbd1be9e9	-0.03806487
154	0x39c2ef6b	0.00037180944
155	0x3d85076d	0.06495557
156	0xbd415c07	-0.047206905
157	0xbe85aa16	-0.26106328
158	0xbdfba4f7	-0.12287324
159	0x3e1795bd	0.14803214
160	0x3e46f26a	0.19428411
161	0x3d73761c	0.05943881
162	0x3e430b43	0.19047265
163	0x3deeb1a0	0.11654973
164	0xbe2866fa	-0.16445532
165	0x3d25c63e	0.04047226
166	0xbc92f158	-0.017937347
167	0xbd7cfb3b	-0.06176303
168	0xbde44505	-0.11145977
169	0xbc8e4dde	-0.017371114
170	0xbe53c199	-0.2067932
171	0x3e180d5c	0.14848846
172	0x3d164755	0.03668912
173	0x3d456294	0.048189715
174	0x3d245ed2	0.04012949
175	0x3e86f0cb	0.26355585
176	0xbdac0526	-0.083994195
177	0x3df125ba	0.11774774
178	0xbc87bf40	-0.016570687
179	0xbcca5510	-0.024698764
180	0xbdd58b19	-0.104269214
181	0xbe4030fc	-0.18768686
182	0x3e5f1b56	0.21787772
183	0xbdc5c698	-0.096570194
184	0xbdd4105c	-0.10354683
185	0x3c9a1e64	0.01881332
186	0xbe4eb6cc	-0.20186919
187	0xbddeaa9b	-0.10872384
188	0x3d2417ab	0.040061634
189	0x3ddc967f	0.10770892
190	0xbda1b8d8	-0.07896584
191	0x3e357dc3	0.17723756
192	0xbd902825	-0.07038907
193	0x3c73e0ee	0.01488517
194	0xbdfc9260	-0.12332606
195	0x3c28ca31	0.010302112
196	0x3db98ec4	0.090604335
197	0xbe354cec	-0.17705125
198	0xbbd993c9	-0.006639932
199	0xbdd9b072	-0.106293574
200	0xbdf03e52	-0.11730637
201	0x3e196f31	0.14983822
202	0xbd8b493f	-0.0680108
203	0xbdc70eb4	-0.09719601
204	0xbb02e9dc	-0.0019975817
205	0x3d1ca8c0	0.03824687
206	0x3e8246b9	0.25444582
207	0xbe11df8e	-0.14245436
208	0xbe07b9b9	-0.13254441
209	0x3e147f99	0.145018
210	0xbdfe4b7c	-0.12416741
211	0x3d90d574	0.07071963
212	0x3e3fabf0	0.18717933
213	0xbdbcbe43	-0.09215977
214	0x3e49eb32	0.19718626
215	0x3d9b0868	0.07569963
216	0xbdcae8ff	-0.09907722
217	0xbe54a136	-0.20764622
218	0x3bce540e	0.006296641
219	0x3e0051b9	0.12531175
220	0xbd0193bb	-0.031635027
221	0xb88a3fe4	-6.592253e-05
222	0x3e229c92	0.1588004
223	0x3e10b91c	0.14133114
224	0xbd2dfc68	-0.04247704
225	0x3cfdb153	0.030968344
226	0xbe736f7f	-0.23773001
227	0x3d7b18d7	0.061302986
228	0x3e3e03df	0.18556164
229	0x3b939131	0.004503392
230	0xbe0c8fa2	-0.13726667
231	0xbcc2aa43	-0.023762828
232	0xbd170e0e	-0.036878638
233	0xbe5c9e6d	-0.2154481
234	0xba662e7b	-0.000878073
235	0xbcc3a6f5	-0.023883322
236	0x3cb48e48	0.022040501
237	0x3d8a4eae	0.06753288
238	0x3d918fb0	0.07107484
239	0xbe27361b	-0.16329233
240	0xbc93147a	-0.0179541
241	0x3ddfeefa	0.10934253
242	0xbd9bfd14	-0.0761663
243	0xbd556712	-0.05210025
244	0xbe0c2aff	-0.13688277
245	0xbd8e7933	-0.06956711
246	0xbdfbd9e8	-0.12297422
247	0x3d9a9243	0.075474285
248	0x3e3d67d4	0.18496639
249	0xbe202ade	-0.15641353
250	0x3d48e0f0	0.049042642
251	0x3db6b349	0.08920915
252	0xbdf7ed4b	-0.12105807
253	0xbec4e977	-0.3845937
254	0x3ddd50ef	0.108064525
255	0x3dc42b34	0.09578553

fc_advantage.bias f4 [32]
0	0xbe071454	-0.13191348
1	0x3e1628fe	0.14664075
2	0x3e2a162d	0.16610022
3	0x3d937592	0.07200159
4	0x3d316512	0.04330928
5	0x3b6e2f2f	0.0036344042
6	0x3bd31e19	0.006442797
7	0x3dd5e8e7	0.10444813
8	0x3d1ce167	0.038300898
9	0xbe240899	-0.16018905
10	0x3d79a039	0.060943816
11	0x3dd9faa0	0.10643506
12	0xbd55d788	-0.0522075
13	0x3e0d7dbb	0.13817494
14	0x3dfd50b2	0.12368907
15	0xbab0c352	-0.0013485944
16	0x3b833ea3	0.0040052696
17	0x3d6cab44	0.05778052
18	0x3dea2121	0.114321
19	0x3cc685fc	0.02423381
20	0xbd2f34df	-0.04277503
21	0x3dbeb3ef	0.09311663
22	0x3e5f606a	0.21814123
23	0x3d86938d	0.06571112
24	0x3d1415a4	0.03615345
25	0x3d17cf2a	0.0370628
26	0x3e0c5695	0.13704903
27	0xbd5b0af7	-0.053477254
28	0x3c095e4d	0.008384299
29	0x3dece803	0.1156769
30	0x3df6ebab	0.12056669
31	0x3dadf5ec	0.084941715

advantage.weight f4 [4, 32]
0	0xbe039a81	-0.12851907
1	0xbe35d878	-0.17758358
2	0xbdaa3e40	-0.083126545
3	0xbb1308e7	-0.0022435726
4	0x3e3f3a65	0.1867462
5	0xbe4552d9	-0.19269885
6	0x3d9e4cc9	0.07729489
7	0x3e32a3e0	0.17445326
8	0x3de8a0c6	0.1135879
9	0x3e31940e	0.17341635
10	0xbb2438fa	-0.0025058375
11	0x3e65d7c9	0.22445597
12	0xbe3d5702	-0.18490222
13	0xbde05496	-0.109536335
14	0xbe19d219	-0.15021552
15	0x3e632a34	0.22184068
16	0xbe587f80	-0.21142387
17	0xbd8d6751	-0.06904472
18	0xbd07b54b	-0.03313188
19	0x3e563415	0.20918305
20	0x3e088df4	0.13335401
21	0xbdbd9594	-0.092570454
22	0x3c44ed85	0.01201952
23	0x3e32381c	0.17404217
24	0x3d504935	0.050851066
25	0x3e7eb1cf	0.24872516
26	0x3c3bf67d	0.011472342
27	0xbd111ccf	-0.035427865
28	0xbe449bba	-0.1920003
29	0xbbeffe23	-0.0073239966
30	0x3e301b45	0.17197903
31	0x3e593034	0.21209794
32	0xbf0d5506	-0.5520786
33	0x3dd94f9c	0.106108874
34	0x3d542273	0.051790666
35	0x3e32688c	0.17422694
36	0x3ee83387	0.45351812
37	0xbe481f29	-0.19543137
38	0x3e4e3dc5	0.2014075
39	0x3e8ad805	0.27117935
40	0xbde5012a	-0.11181863
41	0xbe30abe9	-0.17253079
42	0xbe64e273	-0.22352009
43	0x3eb08f7d	0.34484473
44	0xbe494c87	-0.19658099
45	0xbcc44e2f	-0.023963062
46	0x3d22281a	0.039589025
47	0xbd796ad6	-0.060892902
48	0xbee3af82	-0.4446984
49	0x3dda0b0e	0.1064664
50	0x3e64a0dc	0.22326988
51	0x3def7128	0.11691505
52	0xbe86ab79	-0.26302698
53	0xbebd4681	-0.36967853
54	0xbdf9642e	-0.12177311
55	0x3e80c295	0.25148454
56	0x3e136ce3	0.14397006
57	0x3e261484	0.16218764
58	0x3e6b6e23	0.22991233
59	0xbde9efa3	-0.1142266
60	0xbee0b723	-0.43889722
61	0xbe9ec968	-0.31013036
62	0x3ecf97db	0.40545544
63	0xbca93636	-0.020655733
64	0x3da66a33	0.08125725
65	0x3dc39f2d	0.09551845
66	0x3ea785e8	0.3271935
67	0xbe945c52	-0.28976685
68	0xbe830e17	-0.25596687
69	0x3f06f80a	0.5272223
70	0x3e86d0da	0.26331216
71	0xbf231f61	-0.63719755
72	0xbe1b3112	-0.15155438
73	0xbe044a37	-0.12918936
74	0x3e105e14	0.14098388
75	0xbec118e2	-0.37714297
76	0x3f0f3f53	0.55956
77	0x3eb53861	0.35394576
78	0x3e8d2e7e	0.27574533
79	0xbefe2e55	-0.49644724
80	0x3de13191	0.10995782
81	0xbbde4e2b	-0.0067842207
82	0x3e4adba7	0.19810353
83	0xbe866077	-0.26245472
84	0x3c9339e9	0.01797195
85	0x3e8cc8a0	0.27496815
86	0x3e9aa3b6	0.30203027
87	0xbf282424	-0.65680146
88	0x3ecbc1da	0.39796335
89	0xbec04ee6	-0.37560195
90	0xbc91d8e2	-0.017803613
91	0x3c4deaec	0.012568217
92	0x3eaa8017	0.3330085
93	0x3e0a2a89	0.13492788
94	0xbf0f57a8	-0.5599313
95	0xbec8b229	-0.39198425
96	0x3eb7b2eb	0.3587869
97	0x3e1e6791	0.15469195
98	0xbe871a10	-0.26387072
99	0x3e4421fb	0.19153588
100	0x3cf3b241	0.029748084
101	0xbebad869	-0.36493233
102	0xbe9d0976	-0.3067128
103	0x3ec29960	0.3800764
104	0x3eb9e3ed	0.36306706
105	0x3e4ff059	0.20306529
106	0x3ec8f6f1	0.392509
107	0x3dd1fa8c	0.10252866
108	0xbe7e35fc	-0.24825281
109	0xbee1de2f	-0.44114825
110	0xbd4b4cbc	-0.049633726
111	0x3ef07413	0.46963558
112	0x3e809f15	0.2512137
113	0xbe5718ad	-0.21005507
114	0xbebce182	-0.368908
115	0x3ebdfb08	0.37105584
116	0xbd87260d	-0.065990545
117	0x3e224c28	0.15849364
118	0x3d5126be	0.051062338
119	0x3e950209	0.29103115
120	0xbf3075a8	-0.6892953
121	0x3e8146e4	0.25249398
122	0xbec7907a	-0.38977414
123	0x3e9da140	0.30787086
124	0x3dd2e5c4	0.102977306
125	0x3d66d11e	0.056351773
126	0x3e206274	0.15662557
127	0x3ea5ddd5	0.32395807

advantage.bias f4 [4]
0	0xbe09407f	-0.1340351
1	0xbd903da9	-0.07043011
2	0x3cba6b8c	0.02275636
3	0x3c73227f	0.0148397675

outs.weight f4 [4, 64]
0	0x3df47b0e	0.11937533
1	0x3d3d12f8	0.046160668
2	0x3905fc00	0.00012777746
3	0x3dc431ca	0.09579809
4	0x3d08df60	0.033416152
5	0x3dad4618	0.08460635
6	0xbc793b80	-0.01521194
7	0x3d88aa90	0.06673157
8	0xbdda10fa	-0.10647769
9	0xbdbbfb3a	-0.09178777
10	0x3dadccda	0.08486338
11	0x3ce1e3a8	0.027574375
12	0xbc39a8c0	-0.011331737
13	0xbd8f89ac	-0.07008681
14	0x3d21df68	0.039519697
15	0xbdaa7736	-0.08323519
16	0x3d6eb4f0	0.058278024
17	0x3db77914	0.08958641
18	0x3d023908	0.03179267
19	0xbd7b2a00	-0.06131935
20	0x3c8c7f30	0.017150491
21	0xbda6b6f6	-0.08140366
22	0x3a089600	0.000521034
23	0xbcd87c48	-0.02642645
24	0x3d73ca18	0.059518903
25	0x3cddc178	0.027069792
26	0x3da76bc8	0.081748545
27	0x3dfdfff2	0.12402333
28	0x3df66ea2	0.1203282
29	0xbd9e22d4	-0.07721487
30	0xbd810fce	-0.06301843
31	0x3d55a51c	0.052159414
32	0x3d397fbc	0.045287833
33	0xbd1c0d08	-0.038098365
34	0x3d918564	0.0710552
35	0x3d98436e	0.07434736
36	0x3d68c0ec	0.05682461
37	0x3dd15a5e	0.10222314
38	0x3d9a58c2	0.075364605
39	0x3d36f1cc	0.04466419
40	0x3df3d9ec	0.119068
41	0xbdbbc260	-0.091679335
42	0x3d638fb4	0.055556968
43	0x3d7d9b4c	0.06191568
44	0x3db3b7c0	0.08775282
45	0x3dd5fcc8	0.10448605
46	0xbdcd0b7c	-0.10011956
47	0x3d1f07f4	0.038825944
48	0xbd79481c	-0.060859784
49	0xbb26ac80	-0.0025432408
50	0xbcc79260	-0.02436179
51	0xbdfa4d9a	-0.122218326
52	0x3b542400	0.003237009
53	0x3d1f1678	0.038839787
54	0x3d053fa8	0.03253141
55	0x3d8447e2	0.06459023
56	0xbdd52c18	-0.10408801
57	0x3cdff500	0.027338505
58	0xbd376b08	-0.044779807
59	0xbd37ac08	-0.044841796
60	0xbdeb16dc	-0.114789695
61	0x3c66e730	0.014093205
62	0x3dcbab54	0.099447876
63	0xbbefe920	-0.007321492
64	0xbda97920	-0.08275056
65	0x3df70886	0.120621726
66	0xbdef5236	-0.11685602
67	0xbd781900	-0.060570717
68	0x3c9b89e8	0.018986657
69	0xbdb09460	-0.0862205
70	0xbddfc8d4	-0.10926977
71	0x3d68d4fc	0.056843743
72	0x3d72ecdc	0.059307918
73	0xbde18a82	-0.110127464
74	0xbcc0c0d8	-0.023529455
75	0xbdc17824	-0.09446743
76	0x3db78106	0.08960156
77	0x3c899350	0.016793877
78	0x3cff3318	0.031152293
79	0x3ccb2168	0.024796203
80	0xbdf21534	-0.118204504
81	0x3dabb422	0.08383967
82	0xbdda54ba	-0.106606916
83	0x3d18a9d8	0.03727135
84	0xbd689820	-0.056785703
85	0x3df00e78	0.1172151
86	0x3d0f0118	0.034913152
87	0xbd828d2c	-0.06374583
88	0xbd426758	-0.047461838
89	0xbd76c4dc	-0.060246333
90	0x3d873e7c	0.06603715
91	0x3b3206c0	0.0027164668
92	0xbdad60c4	-0.08465722
93	0x3de5d0bc	0.112214535
94	0x3d8f44ba	0.069955304
95	0xbd9c8a90	-0.07643616
96	0x3dfaee0e	0.122524366
97	0x3dc23ab0	0.0948385
98	0x3c9e77a0	0.019344151
99	0xbdc133ce	-0.09433709
100	0xbd915c5c	-0.07097694
101	0xbdcaeaa8	-0.099080384
102	0x3d4aff4c	0.049559876
103	0x3da2f4c4	0.079568416
104	0xbc75b070	-0.014995679
105	0xbdf0e452	-0.11762299
106	0xbd1c65d4	-0.03818305
107	0x3dff0798	0.1245262
108	0x3d5fc004	0.05462648
109	0x3dd4a5d8	0.10383195
110	0x3cbfdf18	0.02342181
111	0xbdae37f8	-0.08506769
112	0xbb35f280	-0.002776295
113	0xbd9779d8	-0.07396287
114	0xbd0c7534	-0.03429146
115	0x3df69cc8	0.120416224
116	0xbb9aa360	-0.004719183
117	0x3ddbb09a	0.107270434
118	0xbad9ce00	-0.0016617179
119	0xbd1c17f8	-0.038108796
120	0xbdd0a770	-0.10188186
121	0xbca05988	-0.019573942
122	0xbad11980	-0.0015953034
123	0xbd427b30	-0.047480762
124	0x3db55532	0.0885414
125	0x3ba8ad00	0.0051475763
126	0x3d56297c	0.052285656
127	0xbde52ccc	-0.11190185
128	0x3d876c94	0.066125065
129	0xbcdae860	-0.026722133
130	0xbdc307d0	-0.095229745
131	0x3c3d8330	0.011566922
132	0xbcdd5bb8	-0.027021274
133	0xbc142cc0	-0.009043872
134	0xbd9038b4	-0.07042065
135	0xbd24473c	-0.040106997
136	0xbdbeb40c	-0.09311685
137	0xbde39bac	-0.111136764
138	0x3db9e26e	0.09076391
139	0xbda6170e	-0.08109866
140	0xbcf1dda8	-0.02952464
141	0x3d5f919c	0.054582223
142	0x3db15af2	0.086599246
143	0x3da39ae8	0.079885304
144	0xbd80b8d2	-0.06285252
145	0xbde6ed60	-0.112757444
146	0xbdce7946	-0.10081725
147	0x3d60f97c	0.054925427
148	0x3dced58e	0.10099326
149	0x3dd8c600	0.105846405
150	0x3d5be310	0.05368334
151	0xbda70ab8	-0.08156341
152	0x3d802060	0.06256175
153	0xbd1f7670	-0.03893131
154	0x3c098300	0.008393049
155	0x3d6c045c	0.057621345
156	0xbd974dc6	-0.07387881
157	0xbd2f4fe8	-0.042800814
158	0x3deaf4f2	0.11472501
159	0xbce28ae0	-0.027654111
160	0xbd142f7c	-0.036178097
161	0x3dba7cec	0.09105858
162	0x3da441d6	0.0802037
163	0x3dc8f844	0.09812978
164	0xbd180914	-0.037118033
165	0xbdc58528	-0.09644538
166	0xbd5de5dc	-0.05417429
167	0x3d8b90c2	0.0681472
168	0x3d182738	0.037146777
169	0x3d95ad08	0.07308394
170	0x3c3a6fd0	0.011379197
171	0xbc7d7420	-0.015469581
172	0x3c845858	0.016155407
173	0x3de1de52	0.11028732
174	0x3b4275c0	0.0029672235
175	0xbdb60a42	-0.08888675
176	0xbdfca826	-0.12336759
177	0x3cdc98b0	0.026928276
178	0xbd4e7f50	-0.050414383
179	0xbd94aaf0	-0.07259166
180	0xbab26e00	-0.0013613105
181	0x3dfea748	0.1243425
182	0xbde447de	-0.1114652
183	0xbdc7630e	-0.0973569
184	0xbd963a94	-0.07335392
185	0x3d84ef54	0.06490961
186	0x3dbdbf18	0.09264964
187	0xb93d3800	-0.00018045306
188	0xbdf22a54	-0.1182448
189	0x3daab152	0.083346024
190	0xbd4c6268	-0.049898535
191	0x3df7c3da	0.120979026
192	0x3d227ab4	0.0396678
193	0xbd860f08	-0.06545836
194	0x3d0cbd64	0.034360304
195	0x3dda8736	0.10670321
196	0x3ccf9100	0.025337696
197	0x3d3140c0	0.04327464
198	0xbd814130	-0.06311262
199	0x3c8816f8	0.016612515
200	0xbd9357a0	-0.071944475
201	0x3d4fa50c	0.05069451
202	0x3d82cd94	0.06386867
203	0x3bcf6fe0	0.006330475
204	0x3d9e4b0c	0.07729158
205	0x3d570b58	0.052501053
206	0x3d9f052e	0.0776466
207	0xbdc6ffac	-0.09716734
208	0xbd647c14	-0.055782393
209	0xbba5fc40	-0.005065471
210	0xbdbec6f2	-0.093152896
211	0x3d82582e	0.06364475
212	0x3df1ba9a	0.118031695
213	0x3d157ce8	0.036496073
214	0xbd9c0fba	-0.07620187
215	0xbc78a5a0	-0.015176207
216	0x3dac7162	0.084200636
217	0x3d77425c	0.06036602
218	0x3c7dce60	0.015491098
219	0xbcd8eff0	-0.026481599
220	0x3c8d4f70	0.017249793
221	0xbde5b28c	-0.11215696
222	0xbdd13e52	-0.10216965
223	0x39025400	0.00012429059
224	0xbce2f6c0	-0.02770555
225	0x3d91ecf8	0.07125276
226	0x3db77ffa	0.089599565
227	0xbdf4eaf2	-0.11958875
228	0x3dd5e8b2	0.10444774
229	0xbd17bef0	-0.037047327
230	0x3d99ab6e	0.07503401
231	0x3d5dd1d8	0.0541552
232	0xbca2ad68	-0.019858077
233	0x3c27b010	0.010234848
234	0xbdb09ad4	-0.08623281
235	0x3d41a5cc	0.047277257
236	0xbcca2a80	-0.024678469
237	0xbdd4385c	-0.10362312
238	0xbde6260a	-0.11237724
239	0x3da8bc48	0.08239037
240	0x3d214928	0.039376408
241	0x3cb6fda8	0.02233775
242	0x3d5d2014	0.05398567
243	0xbd71b470	-0.05900997
244	0xbd25587c	-0.04036759
245	0xb4700000	-2.2351742e-07
246	0xbc4f5d80	-0.0126565695
247	0x3c6b4ad0	0.014361098
248	0x3da9a494	0.08283344
249	0xbdd02b1e	-0.10164474
250	0x3d285a74	0.041101888
251	0xbdcf8d5e	-0.101343855
252	0xbdaafe54	-0.083492905
253	0xbd9d3924	-0.07676914
254	0xbd0eaa00	-0.034830093
255	0xbd97f732	-0.07420196

outs.bias f4 [4]
0	0x3d32b4f4	0.0436296
1	0xbdc3ec7c	-0.0956659
2	0xbd59f2e4	-0.053210154
3	0xbdc0130a	-0.093786314
