space_exploration_with_DQN/runs/2025-07-18_19-55-25.pt (torch, 12009 bytes, 13 tensors)

fc1.weight f4 [32, 8]
0	0xbe009a26	-0.12558803
1	0x3e6436cd	0.2228653
2	0x3c75dbca	0.015006015
3	0x3eabcd2c	0.3355497
4	0xbedb94a0	-0.4288683
5	0x3c0a455f	0.008439391
6	0xbee0ceb0	-0.4390769
7	0x3e85ff81	0.26171497
8	0x3d3f6d7b	0.046735268
9	0xbeb241e8	-0.34815907
10	0xbcc082ef	-0.023499934
11	0xbe6a615a	-0.22888699
12	0xbe3b6f5b	-0.18304197
13	0xbfab86ce	-1.3400514
14	0xbec2ffbb	-0.38085732
15	0x3fa699f0	1.3015728
16	0x3f1dc984	0.61635613
17	0x3eb70eee	0.35753578
18	0x3e7fb211	0.2497027
19	0x3dbf1b33	0.0933136
20	0xbf1eb07e	-0.61988056
21	0xbf955fc5	-1.1669852
22	0xbf223329	-0.63359314
23	0x3e529542	0.2056475
24	0x3e30fbb2	0.17283514
25	0xbcf26f9e	-0.029594239
26	0xbe197f47	-0.14989959
27	0xbe9c58e1	-0.3053656
28	0xbe261868	-0.16220248
29	0x3e635bda	0.22203007
30	0x3e964a4b	0.29353556
31	0xbde65e0e	-0.11248408
32	0xbba2563a	-0.0049541267
33	0xbe25ff7c	-0.16210741
34	0xbd961cd8	-0.0732972
35	0xbeb0d73f	-0.3453922
36	0x3dbac543	0.09119656
37	0xbe74512c	-0.2385909
38	0xbec5a352	-0.38601166
39	0x3e11ab93	0.14225607
40	0x3ef14117	0.47119972
41	0x3d4eb4f9	0.050465558
42	0xbec08368	-0.37600255
43	0x3f546c6b	0.8297793
44	0x3db61e98	0.08892554
45	0xbd956525	-0.072946824
46	0xbe4167f8	-0.18887317
47	0xbd35b14d	-0.04435854
48	0x3ebf4ebc	0.37364757
49	0xbe007f43	-0.12548546
50	0x3e8e256d	0.2776293
51	0x3e95336d	0.29140797
52	0x3d408852	0.047005005
53	0x3e4fe85c	0.20303482
54	0x3d072727	0.032996323
55	0x3e228bd5	0.15873654
56	0x3e8e088c	0.27740896
57	0xbd34f705	-0.04418089
58	0x3e84e27b	0.2595404
59	0xbe95c558	-0.29252124
60	0xbeee6055	-0.4655787
61	0x3cc3f742	0.023921613
62	0xbe630ebd	-0.22173591
63	0xbe585ce8	-0.21129191
64	0xbe82161a	-0.25407487
65	0xbf6c3da5	-0.9228156
66	0x3f0be834	0.5465119
67	0xbca735fc	-0.020411484
68	0xbe62b4f5	-0.22139342
69	0x3ee61951	0.4494119
70	0x3ef65e52	0.48118836
71	0xbd1aa86e	-0.037758283
72	0x3e9fee42	0.31236464
73	0xbcf1de97	-0.029525084
74	0x3e95ab88	0.2923243
75	0x3c936082	0.017990354
76	0x3db9b993	0.090685986
77	0x3eb2dc5c	0.34933746
78	0xbee01dc2	-0.43772703
79	0x3e96eb02	0.29476172
80	0x3dc9563a	0.098308995
81	0x3e846d15	0.25864473
82	0x3eee622a	0.46559268
83	0xbe753529	-0.2394606
84	0xbebc6648	-0.36796784
85	0x3eb9f7fd	0.36322013
86	0xbe5f1c1c	-0.21788067
87	0xbe30ab25	-0.17252786
88	0x3c80080c	0.015628837
89	0x3dbb1aab	0.09135946
90	0x3edd6f3e	0.43248934
91	0xbd282a9e	-0.041056268
92	0xbca58e74	-0.020209529
93	0xbe94ae47	-0.29039213
94	0x3ea8e820	0.32989597
95	0xbe0a9528	-0.13533461
96	0x3dce0a91	0.10060609
97	0x3e208a50	0.15677762
98	0xbf0ae71f	-0.5425891
99	0x3f58a356	0.8462423
100	0xbca20348	-0.019776955
101	0xbdc11c94	-0.09429279
102	0xbde21434	-0.1103901
103	0xbd7f2aad	-0.06229656
104	0x3d3f56be	0.046713583
105	0x3cade780	0.021228552
106	0xbd2d8fd9	-0.042373512
107	0x3da1a3c7	0.07892566
108	0x3e8b0af1	0.27156785
109	0x3e19f135	0.1503342
110	0x3dc9f06a	0.098603085
111	0x3e8cedd9	0.27525213
112	0xbe0e6f55	-0.13909657
113	0x3e1daf23	0.1539884
114	0x3d4d4439	0.05011389
115	0x3e8c089b	0.27350315
116	0x3d7bd0c6	0.0614784
117	0x3da1f4a8	0.079079926
118	0xbe6641f8	-0.22486103
119	0x3e9e88cb	0.3096374
120	0x3e23251d	0.15932126
121	0xbe362916	-0.1778911
122	0xbb377c2e	-0.00279976
123	0xbe928af9	-0.28621653
124	0xbe045dc8	-0.129264
125	0xbd5fb35b	-0.054614406
126	0xbefcc517	-0.49369118
127	0xbef8aa9d	-0.48567668
128	0xbe5dc82c	-0.21658391
129	0x3d5e10e7	0.054215338
130	0x3e911945	0.28339592
131	0x3e93fd33	0.28904113
132	0x3ea04ff7	0.31311008
133	0x3d934d70	0.071925044
134	0xbcf18116	-0.029480498
135	0x3f0051ea	0.5012499
136	0xbe8e4c0d	-0.27792397
137	0xbea2f299	-0.31825712
138	0xbe2a5ac1	-0.16636182
139	0x3e50bc1b	0.20384257
140	0x3e1dc38f	0.15406631
141	0xbe20a871	-0.15689255
142	0x3e73aba1	0.2379594
143	0xbe516c1f	-0.20451401
144	0xbd9900e7	-0.07470875
145	0xbe4a65dd	-0.1976542
146	0x3e1ab844	0.15109354
147	0x3f62bdd5	0.8857091
148	0x3d54ffbd	0.052001704
149	0xbdc4197f	-0.095751755
150	0xbd3d46d8	-0.04621014
151	0xbe04fba0	-0.12986612
152	0xbeaab39f	-0.33340165
153	0x3e8be9cb	0.27326807
154	0x3d18dde4	0.037320986
155	0xbdf88d5d	-0.12136338
156	0x3d33db11	0.04391009
157	0xbe2d84a4	-0.1694513
158	0xbf030845	-0.51184493
159	0xbf2c9b5a	-0.6742455
160	0xbd1c4f5a	-0.038161613
161	0x3ca33e7a	0.019927252
162	0xbe87f157	-0.26551315
163	0xbe6e0d59	-0.23247279
164	0x3ca3b79b	0.01998501
165	0xbdf37e1e	-0.11889289
166	0xbcf70a7d	-0.030156368
167	0x3e0eb4a9	0.13936104
168	0x3edc05f6	0.42973298
169	0xbee89a3f	-0.4543018
170	0x3eb1c17c	0.3471793
171	0xbed51195	-0.41614977
172	0xbe6c3c06	-0.23069772
173	0xbca160c3	-0.01969946
174	0xbf48ed9a	-0.7848755
175	0x3f496149	0.7866407
176	0xbd67081b	-0.056404214
177	0xbdcb333a	-0.0992188
178	0xbd778d93	-0.06043775
179	0xbd034628	-0.032049328
180	0x3d1d2175	0.038361985
181	0x3e3f6f28	0.18694746
182	0x3cac3036	0.021019083
183	0x3d87a4c4	0.066232234
184	0xbdfa0aa4	-0.12209061
185	0x3e311d46	0.17296323
186	0x3ecd0652	0.40043885
187	0xbdd586d8	-0.1042611
188	0xbe0ac9c2	-0.13553527
189	0x3eaae378	0.3337667
190	0x3eeffcc0	0.4687252
191	0xbe2a687c	-0.1664142
192	0xbe298f7f	-0.16558646
193	0x3de4cf66	0.111723706
194	0x3e717fc5	0.23583896
195	0xbe62abf6	-0.2213591
196	0x3d80ebef	0.06295001
197	0x3e356445	0.17714031
198	0x3f06aa27	0.5260338
199	0x3e62f423	0.22163443
200	0x3e6950bd	0.22784705
201	0x3d57a846	0.052650712
202	0xbdf83507	-0.12119489
203	0x3bdb7825	0.006697672
204	0xbe1756d4	-0.14779216
205	0x3d697e61	0.05700529
206	0xbd7188d0	-0.058968365
207	0x3e8bce83	0.27305993
208	0xbf1fe08a	-0.62451994
209	0xbf183cf4	-0.5946801
210	0x3d96662d	0.07343707
211	0xbecdc968	-0.40192723
212	0x3d75dcb2	0.060024925
213	0x3dea109e	0.11428951
214	0xbd879df9	-0.06621928
215	0x3e54cd70	0.20781493
216	0xbe55e623	-0.20888571
217	0x3d4a261e	0.049352758
218	0x3ec3063c	0.38090694
219	0xbe8cf4bc	-0.27530468
220	0x3b18d18e	0.0023318264
221	0xbe878a4b	-0.26472697
222	0xbea8e4be	-0.32987016
223	0xbf183e22	-0.5946981
224	0x3e4e6d00	0.20158768
225	0xbc8b810a	-0.017029304
226	0xbefbf587	-0.4921076
227	0xbee8b1ed	-0.45448247
228	0x3d007727	0.031363633
229	0xbe4938a9	-0.1965052
230	0xbddb750f	-0.107156865
231	0xbe654b76	-0.22392067
232	0x3d51c9f7	0.051218
233	0x3ecd338a	0.40078384
234	0xbe75899c	-0.23978275
235	0xbe8de961	-0.27717116
236	0x3e8c18b0	0.27362585
237	0xbeb78676	-0.35844773
238	0xbed33e07	-0.4125826
239	0x3e96f889	0.29486492
240	0xbe2f0fbe	-0.17095849
241	0xbc1f1921	-0.009710581
242	0xbe8210f8	-0.2540357
243	0x3eb853d0	0.36001444
244	0x3ea5c0e9	0.3237374
245	0xbea4785f	-0.32123086
246	0x3e388012	0.18017605
247	0xbea503a0	-0.32229328
248	0xbdccbf41	-0.09997416
249	0x3e438d4e	0.19096872
250	0xbe35ffdc	-0.17773384
251	0xbe2ffcca	-0.17186275
252	0x3e0a5b0f	0.13511299
253	0xbdbdbef6	-0.092649385
254	0x3e896b7f	0.26839826
255	0x3e92d7ed	0.28680363

fc1.bias f4 [32]
0	0xbdf8b9c2	-0.121448055
1	0xbd3a2915	-0.045449335
2	0xbe1401c6	-0.14453802
3	0x3e1d5c78	0.15367305
4	0x3e7f85b9	0.24953355
5	0xbdc224af	-0.09479653
6	0x3e2ee5cb	0.17079847
7	0x3b9c66fd	0.0047730193
8	0xbe7c890d	-0.24661656
9	0xbdb57320	-0.08859849
10	0xbe395763	-0.18099742
11	0xbefc1d5a	-0.49241143
12	0xbe832107	-0.25611135
13	0xbec2efc9	-0.38073567
14	0xbdd4d4b9	-0.10392136
15	0x3e39e4bb	0.1815366
16	0xbe532523	-0.20619635
17	0xbe8d586e	-0.2760653
18	0x3e297396	0.16547999
19	0x3e44afe9	0.1920773
20	0x3e00bcd5	0.12572034
21	0x3e850cab	0.25986227
22	0x3da113c2	0.07865097
23	0xbef2324f	-0.47304007
24	0xbddf50df	-0.10904097
25	0xbeaf1d26	-0.34201926
26	0x3d77e52d	0.060521293
27	0xbbeac4e5	-0.007164585
28	0xbc9d2b0d	-0.019185567
29	0xbdb56905	-0.088579215
30	0xbecd0889	-0.40045574
31	0xbddd74d8	-0.10813302

ln1.weight f4 [32]
0	0x40035a78	2.0523968
1	0x401b9b44	2.4313517
2	0x3fe40c23	1.7816204
3	0x3fff58f1	1.9949018
4	0x3fc913c4	1.5709157
5	0x4003e2f5	2.0607274
6	0x3fe1a363	1.7627987
7	0x3fd26480	1.643692
8	0x3fcdfeae	1.6093347
9	0x40020236	2.031385
10	0x3fd32848	1.6496668
11	0x3fc11c52	1.5086768
12	0x3ff4ac80	1.9115143
13	0x3feaaa5e	1.8333242
14	0x3fdeb292	1.7398245
15	0x3fc518b5	1.5398165
16	0x3fe6ccb4	1.803122
17	0x3fc9b7e5	1.5759245
18	0x3fe17c1f	1.7616004
19	0x3fb41426	1.4068649
20	0x3fdc47ca	1.7209408
21	0x3fcee603	1.6163944
22	0x40063b6c	2.0973768
23	0x3fc38a7c	1.5276637
24	0x40040f97	2.0634515
25	0x3fddad18	1.7318449
26	0x40004a39	2.0045302
27	0x3fdd4975	1.7288042
28	0x3fce4dcf	1.6117495
29	0x3fcc6d76	1.5970905
30	0x3fcb94c9	1.5904781
31	0x3fa55e2b	1.2919363

ln1.bias f4 [32]
0	0xbf5fe925	-0.87465125
1	0xbf3ae43a	-0.73004496
2	0xbf2f5573	-0.6848976
3	0x3f21efe4	0.6325667
4	0xbeafe5cc	-0.3435501
5	0xbf32b1cf	-0.69802564
6	0x3c8ec967	0.01743002
7	0xbec62d1a	-0.38706285
8	0xbf107add	-0.56437474
9	0x3eb0594e	0.34443134
10	0xbec8e4cc	-0.39237058
11	0xbede3c80	-0.43405533
12	0xbf07654c	-0.5288894
13	0x3ee1c76e	0.44097465
14	0x3e4cb43c	0.19990629
15	0xbeb6d30c	-0.3570789
16	0x3e908f3e	0.28234285
17	0xbf19ade0	-0.6003094
18	0xbefc8489	-0.49319866
19	0xbde5ea94	-0.11226383
20	0x3e905345	0.2818853
21	0xbe42caaa	-0.19022623
22	0x3eb7a02e	0.35864395
23	0xbef4989d	-0.47772685
24	0x3ee525a2	0.44755274
25	0xbf3bf1a8	-0.73415613
26	0x3ee6cb38	0.4507692
27	0xbeacc519	-0.33744124
28	0xbed4a52f	-0.41532275
29	0xbeb6c81d	-0.3569955
30	0xbf18746f	-0.59552664
31	0x3ed2aede	0.41149038

fc_value.weight f4 [16, 32]
0	0xbf608045	-0.87695724
1	0xbf17cbcd	-0.5929535
2	0xbf19c7ca	-0.6007048
3	0x3f28783f	0.6580848
4	0x3f2d3b71	0.67668825
5	0xbf0e69fd	-0.55630475
6	0xbf36b26a	-0.7136599
7	0x3e99871c	0.29985893
8	0xbe82179a	-0.25408632
9	0xbf0802f3	-0.531295
10	0x3ec75434	0.3893143
11	0xbe7ed151	-0.24884535
12	0xbeeb2f97	-0.45934746
13	0xbeb3823e	-0.35060304
14	0xbf3a313f	-0.72731394
15	0x3ea9cbff	0.3316345
16	0xbf0f89d0	-0.5606966
17	0xbe990ffc	-0.29895008
18	0xbe7e0b7e	-0.24809071
19	0x3efc27e6	0.4924919
20	0x3f0690d9	0.5256477
21	0x3cbbbd06	0.022917282
22	0xbf00489d	-0.501108
23	0xbe79d505	-0.24397667
24	0x3f2448e6	0.64173734
25	0xbedd0091	-0.43164495
26	0xbefecf41	-0.49767497
27	0x3f0d94de	0.5530528
28	0x3ef8f413	0.48623714
29	0x3f0c184a	0.5472456
30	0xbec285d9	-0.37992743
31	0x3c922a8a	0.01784255
32	0xbe4ff830	-0.2030952
33	0xbaf76432	-0.0018874465
34	0x3e48faad	0.19626875
35	0x3f1331a0	0.57497597
36	0xbedd9c1c	-0.43283165
37	0xbed13766	-0.40862578
38	0x3d1ce10c	0.03830056
39	0xbf21aa62	-0.6315061
40	0xbef55386	-0.47915286
41	0x3f41da65	0.7572387
42	0xbf089b2b	-0.5336177
43	0xbe983c28	-0.29733396
44	0xbf08ba18	-0.53408957
45	0x3f407ccf	0.7519044
46	0x3ebcd0d8	0.36878085
47	0xbf23d702	-0.6399995
48	0x3f800281	1.0000764
49	0xbeaef1d5	-0.34168878
50	0xbf0ed13f	-0.55788034
51	0xbe770d71	-0.24126221
52	0x3c93d762	0.018047038
53	0xbf4fe059	-0.812017
54	0x3f7d8588	0.9903188
55	0xbe870ccc	-0.2637695
56	0x3f104360	0.56352806
57	0xbe8148f6	-0.25250977
58	0x3f885453	1.0650734
59	0xbeb9b160	-0.3626814
60	0xbef36134	-0.47535098
61	0xbed58c2a	-0.417085
62	0xbedf1c17	-0.43576118
63	0x3ee6b34b	0.45058665
64	0xbede7929	-0.43451813
65	0xbe622401	-0.22084047
66	0xbe868255	-0.2627131
67	0x3f184e39	0.5949436
68	0xbf1abbcc	-0.60442805
69	0xbe92fa2c	-0.2870649
70	0x3e0d7f12	0.13818005
71	0xbf3f867f	-0.748146
72	0xbf00d05d	-0.5031794
73	0x3f762a57	0.96158355
74	0xbf0464c1	-0.5171624
75	0xbe5da2a4	-0.21644074
76	0xbecce14a	-0.40015632
77	0x3f8a5ab6	1.0808933
78	0x3f2577cf	0.6463594
79	0xbf21c20b	-0.6318671
80	0x3f757d49	0.95894295
81	0xbeccff3f	-0.40038487
82	0xbf1c8c5d	-0.6115168
83	0x3cad6a35	0.021168808
84	0xbcb6b165	-0.022301385
85	0xbf26fb07	-0.6522679
86	0x3f8b68db	1.0891374
87	0xbebd300e	-0.36950725
88	0x3f2f1b93	0.6840145
89	0xbe8031a7	-0.25037882
90	0x3f9823a4	1.1885877
91	0xbefde2b4	-0.49587023
92	0xbf17ed67	-0.5934662
93	0xbefabed7	-0.48973724
94	0xbea9ddc7	-0.33177015
95	0x3ee3fd50	0.445292
96	0xbf3bfcce	-0.73432624
97	0xbf3ad40a	-0.72979796
98	0xbf485fe6	-0.7827133
99	0x3f1b6af6	0.60710084
100	0x3f27b467	0.6550965
101	0xbed74ca4	-0.4205066
102	0xbeddb243	-0.43300065
103	0x3ea53794	0.32268965
104	0xbe7632f7	-0.24042879
105	0xbf002991	-0.50063425
106	0x3ee17a45	0.44038597
107	0xbec4e183	-0.38453302
108	0xbf4d2480	-0.8013382
109	0xbe90840a	-0.28225738
110	0xbef30f83	-0.47472772
111	0x3ec4b8b2	0.3842216
112	0xbf0b829e	-0.5449618
113	0xbefb60ce	-0.49097294
114	0xbe6efb47	-0.23338042
115	0x3eb81d55	0.3595988
116	0x3eb3cbd0	0.35116434
117	0xbd0b19ab	-0.033960026
118	0xbf11af63	-0.56908244
119	0xbf09a490	-0.5376673
120	0x3f0bd041	0.54614645
121	0xbe826d2b	-0.25473914
122	0xbf2354f3	-0.638015
123	0x3f43e1bb	0.7651631
124	0x3efdcb1c	0.49569023
125	0x3ef8b6f6	0.48577088
126	0xbe71133c	-0.23542494
127	0x3e6bef5d	0.23040529
128	0x3e7346f0	0.2375753
129	0xbe979592	-0.296063
130	0xbd98b1d5	-0.07455794
131	0xbe6f20b1	-0.23352315
132	0xbd92cc3f	-0.07167863
133	0x3eb57d6e	0.35447258
134	0x3f323c88	0.69623613
135	0xbe81773c	-0.2528628
136	0xbd1e4828	-0.038643032
137	0xbb2f0281	-0.0026704373
138	0xbd703abe	-0.05864977
139	0x3b89bdb6	0.0042035235
140	0x3e11431e	0.1418576
141	0xbe330a41	-0.1748438
142	0x3f23b1a5	0.6394294
143	0x3db61411	0.08890546
144	0x3e3964fb	0.18104927
145	0xbe59344d	-0.21211357
146	0x3f0b3324	0.5437491
147	0x3e4e96ef	0.20174764
148	0xbf20c2f8	-0.627975
149	0xbe60153b	-0.21883099
150	0xbedb191d	-0.42792597
151	0xbd010d60	-0.031506896
152	0x3df1c1dd	0.118045546
153	0xbe2b599c	-0.16733402
154	0xbec339d7	-0.38130066
155	0xbef03358	-0.46914172
156	0xbf076f8d	-0.5290459
157	0x3e2f7db5	0.17137797
158	0xbdb7053a	-0.08936544
159	0x3d5c1dc0	0.05373931
160	0xbf19cdaa	-0.60079443
161	0xbeaba1ac	-0.33521783
162	0xbf6a2c9f	-0.91474336
163	0x3f12cb48	0.5734143
164	0x3f156826	0.5836204
165	0xbf17c690	-0.5928736
166	0xbf1157e8	-0.5677476
167	0x3de07cbe	0.10961293
168	0xbddd076e	-0.10792433
169	0xbee63970	-0.44965696
170	0x3e434e49	0.19072832
171	0xbedba22e	-0.4289717
172	0xbee5a3df	-0.44851586
173	0xbea1bb79	-0.31588343
174	0xbf2b116c	-0.6682346
175	0x3eb3f059	0.35144308
176	0xbf176745	-0.5914195
177	0xbeb0e7c6	-0.3455183
178	0xbeb49337	-0.35268566
179	0x3ebb8f24	0.36632645
180	0x3ee990f6	0.4561841
181	0xbd7b2a1b	-0.06131945
182	0xbf0b2f61	-0.5436917
183	0xbdb08268	-0.08618623
184	0x3f0bdc65	0.5463317
185	0xbec01d33	-0.37522277
186	0xbec0fe2e	-0.37693924
187	0x3f1e5506	0.61848485
188	0x3f069cf9	0.5258327
189	0x3f1f09c0	0.6212425
190	0xbe53f43d	-0.20698638
191	0x3e3d14b5	0.1846493
192	0xbf0e2016	-0.5551771
193	0xbddd59be	-0.108081326
194	0xbe2e2f48	-0.17010224
195	0x3efb1228	0.4903729
196	0xbf1e5bd0	-0.61858845
197	0xbec399e8	-0.3820336
198	0x3ede4f28	0.43419766
199	0xbe74b807	-0.23898326
200	0xbec4351d	-0.38321772
201	0x3f838870	1.0276012
202	0xbe028da1	-0.1274934
203	0xbe6979e3	-0.22800402
204	0xbed0217c	-0.40650547
205	0x3f6cbafd	0.9247282
206	0x3f0be3f8	0.5464473
207	0xbebfc604	-0.3745576
208	0x3f2e65a2	0.6812383
209	0xbeff1071	-0.4981723
210	0xbf0db8df	-0.55360216
211	0xbda48791	-0.0803367
212	0x3e06bcf8	0.13158023
213	0x3d297d5d	0.04137932
214	0x3f76e0ce	0.96436775
215	0xbe6163c1	-0.2201071
216	0x3f1f2798	0.6216979
217	0xbf065015	-0.52465945
218	0x3f84adf3	1.0365585
219	0xbed12a41	-0.4085255
220	0xbf418da0	-0.7560673
221	0xbf315802	-0.69274914
222	0xbed6b625	-0.4193584
223	0x3ea03c7f	0.31296155
224	0xbeb3d590	-0.35123873
225	0xbc9b7903	-0.018978601
226	0xbea8ce6e	-0.32969993
227	0x3ea44f0c	0.32091558
228	0xbee55f8e	-0.44799465
229	0xbf0201ea	-0.5078417
230	0x3e8ac454	0.2710291
231	0xbeb7f1a0	-0.35926533
232	0xbedd0d46	-0.4317419
233	0x3f6ffba1	0.9374333
234	0xbf2d448c	-0.6768272
235	0xbef3b2f6	-0.47597474
236	0xbecb1253	-0.39662418
237	0x3f70e940	0.9410591
238	0x3e18ba93	0.14914922
239	0xbd9da00f	-0.076965444
240	0x3f3bdef8	0.733871
241	0xbecd2809	-0.40069607
242	0xbee45c08	-0.44601464
243	0xbee2db24	-0.44307816
244	0x3e6eab55	0.23307545
245	0xbe228054	-0.15869266
246	0x3f96cbc5	1.1780936
247	0xbeebd681	-0.4606209
248	0x3f2751ae	0.6535901
249	0xbe4bd940	-0.19907093
250	0x3f901e4a	1.1259243
251	0xbebc4196	-0.36768788
252	0xbe684a43	-0.22684579
253	0xbf2b7df2	-0.6698905
254	0xbe96e5d4	-0.2947222
255	0x3d1dab27	0.0384933

fc_value.bias f4 [16]
0	0x3e94cb94	0.29061568
1	0x3ed74a58	0.42048907
2	0x3e72d41e	0.23713729
3	0x3e1dcbd6	0.15409788
4	0x3d2ed76c	0.04268591
5	0x3da3c5ac	0.07996687
6	0x3ed4b50e	0.41544384
7	0x3ecec0b5	0.403814
8	0x3ecbe54a	0.3982337
9	0x3d17a372	0.037021108
10	0x3f1ae7fa	0.6051022
11	0x3ec3fee2	0.38280398
12	0x3f2d361d	0.67660695
13	0x3ea68065	0.32519832
14	0x3e6a10d1	0.22857977
15	0x3e151518	0.14558828

value.weight f4 [1, 16]
0	0x3f5fa39c	0.87359023
1	0xbf90687d	-1.1281887
2	0xbf8b8509	-1.0899974
3	0x3f52e376	0.8237833
4	0x3f275a49	0.6537214
5	0x3f46f77f	0.777214
6	0xbf9b8567	-1.2150086
7	0xbf9cee9f	-1.2260321
8	0xbf92f34c	-1.1480498
9	0x3f4ce6f7	0.80039924
10	0xbfa3e66e	-1.2804697
11	0x3f3b85e2	0.73251164
12	0xbfa996b6	-1.3249118
13	0xbf9248c1	-1.1428453
14	0xbf7e8fe7	-0.9943833
15	0x3f632ff3	0.8874504

fc_advantage.weight f4 [16, 32]
0	0xbdb0c334	-0.08630982
1	0xbdf8f7ea	-0.12156661
2	0xbd8b7017	-0.06808489
3	0x3ea33b7b	0.31881317
4	0x3de523ce	0.1118847
5	0xbd2ff537	-0.042958464
6	0xbed765e5	-0.42069927
7	0xbea89009	-0.3292239
8	0xbdb81804	-0.089889556
9	0x3e2f08ab	0.1709315
10	0xbe8940e6	-0.26807326
11	0xbde5ae75	-0.11214916
12	0x3df0ec50	0.11763823
13	0x3da1ed8b	0.07906636
14	0xbeb26460	-0.34842205
15	0x3e04716b	0.1293389
16	0x3e030de1	0.12798263
17	0xbbcc807b	-0.006240902
18	0xbe9dc098	-0.30811
19	0x3e5b4a8d	0.21415158
20	0x3e9a720d	0.3016514
21	0x3dd95372	0.10611619
22	0xbe8db264	-0.27675164
23	0xbe59d0b6	-0.21271023
24	0xbd952ca8	-0.07283908
25	0xbe6499d9	-0.22324313
26	0x3cdd06ad	0.026980722
27	0xbe00a41d	-0.12562604
28	0x3e979fc4	0.2961408
29	0xbd11fd0b	-0.03564171
30	0xbdeed4b5	-0.116616644
31	0x3e442592	0.19154957
32	0xbe5dfdef	-0.21678899
33	0xbd39db89	-0.04537538
34	0xbe40782d	-0.18795843
35	0xbe335fe4	-0.17517048
36	0x3dbb7f65	0.09155158
37	0x3ded953a	0.11600728
38	0x3e38e659	0.1805662
39	0xbdfa4680	-0.12220478
40	0xbc113d1b	-0.008864666
41	0xbeb2f635	-0.34953466
42	0xbe8dac81	-0.27670673
43	0xbe32408d	-0.17407437
44	0x3d293086	0.04130604
45	0xbd588b7f	-0.05286741
46	0x3e389ab9	0.18027772
47	0x3e02c40d	0.127701
48	0xbe01e792	-0.12685993
49	0x39dbe25a	0.0004193958
50	0xbe6f6a9d	-0.23380513
51	0xbe1f95ab	-0.15584438
52	0x3e0de532	0.13856962
53	0xbd4fc85d	-0.05072819
54	0x3e6c5599	0.23079528
55	0xbd0a57a8	-0.033775
56	0x3e65bb2b	0.2243468
57	0x3dc5d368	0.09659463
58	0x3e1d9e37	0.15392385
59	0x3d3f9608	0.04677394
60	0x3de5713d	0.11203239
61	0xbcbe88b2	-0.02325854
62	0xbde6ca44	-0.11269048
63	0xbc5d4ec9	-0.013507553
64	0xbec4f7c1	-0.3847027
65	0xbe3e7b26	-0.18601665
66	0x3d8db272	0.06918801
67	0x3d2ccedd	0.042189468
68	0xbd9a6de1	-0.07540489
69	0x3c0b234b	0.008492301
70	0xbdcd8320	-0.10034776
71	0xbd10884c	-0.035286233
72	0x3de0fa49	0.10985238
73	0xbbee6199	-0.007274818
74	0xbea903d4	-0.33010733
75	0xbd524157	-0.051331844
76	0xbde5b25e	-0.112156615
77	0x3ee4a921	0.44660285
78	0xbe271491	-0.16316439
79	0x3dba286b	0.0908974
80	0x3e056894	0.13028175
81	0x3ddb19f6	0.10698311
82	0xbdb664db	-0.089059554
83	0x3df71d5a	0.12066145
84	0xbe4b9b88	-0.19883549
85	0x3d4ed899	0.050499532
86	0xbc78868f	-0.0151688
87	0xbd97bc34	-0.07408944
88	0x3dd44de3	0.10366418
89	0xbc77f057	-0.015132985
90	0xbd29d25f	-0.04146039
91	0x3e58c079	0.21167172
92	0x3e6ab697	0.22921215
93	0xbe2327a3	-0.15933089
94	0xbd9deee4	-0.077115804
95	0xbd64667f	-0.05576181
96	0xbe05c02b	-0.13061588
97	0x3c59823a	0.013275677
98	0xbeedfcbb	-0.4648188
99	0x3e28297d	0.16422077
100	0x3e9b1ffd	0.30297843
101	0x3df73c1e	0.12072013
102	0x3e90d67f	0.28288648
103	0xbea3ac4c	-0.3196739
104	0xbe550b4b	-0.20805089
105	0xbde8288b	-0.11335858
106	0xbe298cf3	-0.16557674
107	0xbd637301	-0.0555296
108	0x3dd51af1	0.10405529
109	0xbe972925	-0.29523578
110	0x3e5399f8	0.20664203
111	0xbde3e674	-0.1112794
112	0xbe141447	-0.1446086
113	0xbdf0e349	-0.11762101
114	0x3d8233c2	0.06357528
115	0xbcfbc95c	-0.030735664
116	0xbc83c645	-0.016085753
117	0xbe7a6ee5	-0.24456365
118	0x3f0e42d1	0.55570704
119	0xbdb1d903	-0.0868397
120	0x3e61a50a	0.22035614
121	0xbe219e66	-0.1578308
122	0xbe6743fb	-0.22584526
123	0xbf1eeaf9	-0.6207729
124	0xbe64e87a	-0.22354308
125	0x3e443989	0.19162573
126	0xbdd38e1e	-0.10329841
127	0x3e9e7ee5	0.30956188
128	0x3dd6d792	0.104903355
129	0xbeaa1932	-0.33222347
130	0xbdc89677	-0.09794324
131	0xbd36f83a	-0.04467032
132	0xbdc222b3	-0.094792746
133	0xbd375466	-0.044758223
134	0x3d00d8ea	0.031456865
135	0xbe3751e2	-0.1790233
136	0xbe8e49c5	-0.27790657
137	0xbe0a9fcd	-0.13537522
138	0xbd00c321	-0.03143609
139	0x3da4cadb	0.08046504
140	0x3d44c39c	0.04803811
141	0x3d9a9d1c	0.075494975
142	0x3e6b17c0	0.22958279
143	0xbe76b532	-0.24092558
144	0x3e1ee30c	0.15516299
145	0xbcdb6fe9	-0.026786761
146	0xbd80d4c5	-0.062905826
147	0xbd6815bf	-0.056661364
148	0xbdd4f6b1	-0.10398615
149	0xbe899375	-0.26870313
150	0x3ef7ff7f	0.48437116
151	0xbe60af95	-0.21941979
152	0x3e52da59	0.20591106
153	0x3bf05386	0.0073341755
154	0x3e30ca78	0.17264736
155	0xbe809183	-0.25111017
156	0xbe067643	-0.13131051
157	0xbd6e4b58	-0.058177322
158	0xbe403c0a	-0.18772903
159	0xbcd8c18b	-0.026459476
160	0x3e49e159	0.1971487
161	0x3e9e4b51	0.30916837
162	0x3e0a11ee	0.13483402
163	0xbe3d0147	-0.18457519
164	0x3e7957f0	0.24349952
165	0x3e414af2	0.18876246
166	0x3c6dca35	0.014513542
167	0xbe583ab2	-0.2111614
168	0x3d9197a0	0.07108998
169	0xbdc90179	-0.09814734
170	0xbebe8495	-0.37210527
171	0x3e71be25	0.2360769
172	0xbd3d258b	-0.046178382
173	0xbe818e67	-0.25303957
174	0x3d937ff5	0.0720214
175	0xbe67dbd9	-0.22642459
176	0x3cb4ff17	0.022094293
177	0xbe0ed3c5	-0.13947971
178	0x3da86596	0.08222501
179	0xbed6c537	-0.41947338
180	0x3da11bd2	0.078666344
181	0x3ea4b6e1	0.32170776
182	0x3e5ea04a	0.21740833
183	0x3e684332	0.22681883
184	0xbd800467	-0.0625084
185	0xbd959537	-0.07303851
186	0xbb09106a	-0.0020914325
187	0xbec63a24	-0.38716233
188	0xbe3e25e5	-0.18569143
189	0x3e196285	0.14978988
190	0x3e36ead4	0.17863017
191	0x3eaa21ac	0.33228815
192	0xbda8962c	-0.08231768
193	0x3e9bf2df	0.30458733
194	0x3cc83007	0.024436964
195	0xbdc58d6e	-0.09646116
196	0x3e960beb	0.29305968
197	0x3e9d0907	0.3067095
198	0xbe30e3b6	-0.17274365
199	0xbe5df2bc	-0.21674627
200	0x3c863611	0.016383203
201	0xbda61d6c	-0.081110805
202	0x3c9b8c3a	0.018987764
203	0xbdf201b8	-0.11816734
204	0xbcafb4cc	-0.021448515
205	0xbe4a74b9	-0.19771089
206	0x3e9bd70d	0.30437508
207	0x3e9114df	0.28336236
208	0xba4674ad	-0.00075704866
209	0x3ddec52b	0.108774506
210	0x3e44f9e2	0.19235948
211	0x3e9900dc	0.29883468
212	0x3d240904	0.04004766
213	0x3d1be15f	0.038056727
214	0xbf013dc0	-0.5048485
215	0xbd93f301	-0.07224084
216	0xbf1f12cc	-0.62138057
217	0xbd246037	-0.04013082
218	0xbdb9df47	-0.0907579
219	0x3ef9c46c	0.4878267
220	0xbbc33d0c	-0.005958205
221	0x3cb9cd55	0.022680918
222	0xbde521e2	-0.11188103
223	0xbe8b7f62	-0.27245623
224	0xbe570532	-0.20998076
225	0x3db9b56b	0.09067806
226	0x3c612290	0.0137411505
227	0x3c8ead50	0.017416626
228	0x3dbfec31	0.09371222
229	0xbd88b414	-0.06674972
230	0xbebd863b	-0.37016472
231	0x3e6a2a23	0.22867636
232	0x3d0dad10	0.034588873
233	0xbf5c584b	-0.86072224
234	0xbe9ae18e	-0.3025021
235	0xbd22d6f8	-0.03975579
236	0xbd169511	-0.036763255
237	0xbec2366b	-0.37932143
238	0xbeab7232	-0.33485562
239	0x3e4782e0	0.19483519
240	0xbe3a16e2	-0.18172792
241	0xbd9aae86	-0.07552819
242	0x3d7cff4e	0.061766915
243	0x3e442565	0.1915489
244	0x3c84acd0	0.016195685
245	0x3e4c7351	0.19965865
246	0xbec82a3d	-0.39094725
247	0x3c625b8e	0.013815774
248	0xbea0e9aa	-0.31428272
249	0xbd7266bd	-0.05918001
250	0xbed4fad2	-0.4159761
251	0x3e455321	0.19269992
252	0x3de06998	0.109576404
253	0x3e9dac5f	0.3079557
254	0x3e0116f7	0.12606417
255	0x3ea615c5	0.32438484

fc_advantage.bias f4 [16]
0	0x3bdf648b	0.0068174056
1	0x3e4ac787	0.19802676
2	0x3ca8c7a2	0.020603005
3	0x3e18712f	0.14886926
4	0x3e58efe9	0.21185268
5	0x3e6bdf98	0.23034513
6	0xbdeadaf4	-0.11467543
7	0xbbad1cc3	-0.0052829697
8	0x3d49749a	0.049183466
9	0x3da98ef4	0.08279219
10	0x3e76e602	0.24111179
11	0x3e261d10	0.16222024
12	0x3df7dc14	0.121025234
13	0xbd9569ba	-0.07295556
14	0x3de5af3e	0.112150654
15	0x3d97ec2d	0.07418094

advantage.weight f4 [4, 16]
0	0xbeab8f71	-0.33507875
1	0x3e59e36a	0.21278158
2	0xbcd41b02	-0.025891785
3	0x3e0da59e	0.13832709
4	0xbb4c546a	-0.0031178244
5	0x3d84a71f	0.06477188
6	0xbe56a927	-0.20962964
7	0x3e292e94	0.16521674
8	0x3d1b4d1c	0.037915334
9	0xbd621632	-0.05519695
10	0x3e47330d	0.19453068
11	0xbe4503d2	-0.19239739
12	0x3dc798a4	0.09745911
13	0x3bbc225c	0.0057414006
14	0xbef57e9c	-0.47948158
15	0x3e7d651e	0.24745604
16	0xbeb0f007	-0.34558126
17	0x3cab6312	0.020921264
18	0x3e26b3fb	0.16279595
19	0xbe1f2b7a	-0.15543929
20	0x3e9786e1	0.29595092
21	0x3b7e7516	0.0038827113
22	0x3eb20c6e	0.34775108
23	0x3ef12010	0.47094774
24	0x3ea7fd7d	0.32810584
25	0xbe152c25	-0.14567621
26	0x3f239136	0.6389345
27	0xbee07bf2	-0.43844563
28	0xbe8a5959	-0.27021292
29	0xbebe0799	-0.37115172
30	0x3d87f9c6	0.066394374
31	0x3ee1d0c1	0.4410458
32	0x3e9d4145	0.3071386
33	0xbe9f9117	-0.31165382
34	0x3e453914	0.19260055
35	0xbeffeb02	-0.49983984
36	0xbe28939b	-0.16462557
37	0xbf089a6d	-0.53360635
38	0x3eb2b727	0.3490536
39	0xba326026	-0.00068044884
40	0xbf029e09	-0.5102239
41	0x3e732c60	0.23747396
42	0xbefad06b	-0.48987135
43	0x3e42bdb7	0.19017683
44	0x3c20f93c	0.009825047
45	0x3df27d9c	0.11840364
46	0xbef9bf83	-0.48778924
47	0xbe35ab3b	-0.177411
48	0xbe0aa467	-0.13539277
49	0x3e39b31c	0.18134731
50	0xbe648004	-0.22314459
51	0x3ef676e7	0.4813759
52	0xbe119640	-0.14217472
53	0x3f0a20ea	0.5395647
54	0xbef8f5d4	-0.48625052
55	0xbedc3d5b	-0.4301556
56	0x3e655e28	0.22399199
57	0xbe39109e	-0.18072745
58	0x3d2f82ca	0.04284934
59	0x3d274b84	0.0408435
60	0x3f0db726	0.5535759
61	0x3f0214c1	0.5081292
62	0x3f85a2cb	1.0440305
63	0xbe4d2d1c	-0.20036739

advantage.bias f4 [4]
0	0x3e999828	0.29998899
1	0xbe382b8e	-0.17985365
2	0xbe753d2a	-0.23949113
3	0xbdc1e37e	-0.09467219

outs.weight f4 [4, 32]
0	0x3dc7bec6	0.09753184
1	0x3de3f3a6	0.111304566
2	0x3d2e4c28	0.042553097
3	0xbdf15150	-0.11783087
4	0xbde202c2	-0.11035682
5	0xbcd5a028	-0.026077345
6	0xbdc72f0f	-0.097257726
7	0xbe29e752	-0.16592148
8	0x3cbb8ed8	0.022895262
9	0x3e1c4471	0.15260483
10	0x3cf6c270	0.030122012
11	0xbcb8d4a8	-0.02256234
12	0x3e0ff7af	0.14059328
13	0xbd1a62b0	-0.037691772
14	0x3c820150	0.015869766
15	0x3d170840	0.036873102
16	0xbe1955a7	-0.1497408
17	0xbdf473d0	-0.11936152
18	0xbdec4a44	-0.115376025
19	0x3d2052ac	0.039141342
20	0x3d0b27f8	0.033973664
21	0x3d81a1c8	0.063296854
22	0xbd1ff1a4	-0.039048806
23	0xbdbc4d2e	-0.09194408
24	0xbcbf6cd0	-0.023367316
25	0x3e04779b	0.12936251
26	0x3cb8c848	0.022556439
27	0x3dafcf8a	0.08584507
28	0x3dec674a	0.11543138
29	0x3dc99ef2	0.098447695
30	0xbe046e51	-0.12932707
31	0x3d81f184	0.063448936
32	0xbe2e40a2	-0.17016843
33	0x3e2efc1f	0.17088364
34	0xbb6e44c0	-0.0036356896
35	0x3d918d66	0.07107048
36	0x3de31652	0.11088242
37	0x3d84f1ee	0.06491457
38	0xbe349a2d	-0.17636938
39	0x3dad3a8a	0.08458431
40	0x3e0dc03b	0.13842861
41	0xbd3fa9f0	-0.046792924
42	0x3a4ec300	0.00078873336
43	0xbdefe3ec	-0.117133945
44	0xbe00258e	-0.12514326
45	0x3d4528a0	0.048134446
46	0xbdc32d15	-0.09530083
47	0xbdc0a56d	-0.094065525
48	0xbd604a4e	-0.054758362
49	0xbe2ec204	-0.17066199
50	0xbe279e10	-0.1636889
51	0x3e17bdf3	0.14818554
52	0x3e2ffcc3	0.17186265
53	0xbd866689	-0.06562526
54	0x3e14da39	0.1453637
55	0xbdea5772	-0.1144246
56	0x3c6d3c80	0.014479756
57	0xbdf86017	-0.12127703
58	0x3e0b5289	0.13605703
59	0xbe0178f3	-0.12643795
60	0xbe01db39	-0.12681283
61	0xbd3dd684	-0.046347156
62	0x3da1b922	0.078966394
63	0x3dca6a0a	0.098835066
64	0xbc0ff540	-0.0087864995
65	0xbda19a2a	-0.078907326
66	0xbc9bcfb8	-0.019019946
67	0xbe09e48a	-0.13466087
68	0xbd6985be	-0.057012312
69	0x3e256e1f	0.16155289
70	0x3e2fb5d5	0.17159207
71	0xbd9fabad	-0.077964164
72	0xbd69b316	-0.057055555
73	0xbd818d6e	-0.06325804
74	0x3c992458	0.018694088
75	0xbc5e72b0	-0.013577148
76	0xbe0a7b44	-0.13523585
77	0xbd703ffe	-0.058654778
78	0x3df730d2	0.120698586
79	0xbe195c2d	-0.14976569
80	0xbe03bd3b	-0.12865154
81	0x3deb6772	0.1149434
82	0xbdb814bc	-0.0898833
83	0xbd85495f	-0.06508135
84	0xbdcbcef5	-0.09951583
85	0xbbf04da0	-0.0073334724
86	0x3e2f1b43	0.17100243
87	0x3d749330	0.05971068
88	0x3cdbbc08	0.026823059
89	0x3da0a06a	0.078430966
90	0x3d59c574	0.05316682
91	0x3de8c972	0.11366548
92	0xbd296d6c	-0.04136412
93	0x3e065c99	0.1312126
94	0xbdf7f264	-0.12106779
95	0x3dcbd7de	0.09953283
96	0x3dc4ef3e	0.09615944
97	0x3e33cb87	0.17558108
98	0xbdcd12ec	-0.10013375
99	0xbe11c42e	-0.14234993
100	0x3e27e46d	0.16395731
101	0x3e278a0d	0.16361256
102	0x3d62d570	0.05537933
103	0xbe0762fa	-0.1322135
104	0xbe163dde	-0.14672038
105	0x3e15885b	0.14602797
106	0x3e0c22d7	0.13685165
107	0x3d1fae1c	0.038984403
108	0xbe142cb4	-0.14470178
109	0x3d76f644	0.06029345
110	0xbdd9d9e6	-0.10637264
111	0xbd9ddb0b	-0.07707795
112	0xbdf723bd	-0.120673634
113	0x3d105dc8	0.035245687
114	0xbcb73fc0	-0.022369266
115	0x3db7cb5e	0.08974336
116	0xbdb8b1b9	-0.09018273
117	0x3e1c5f0d	0.15270634
118	0x3df8f21a	0.12155552
119	0x3bd56cc0	0.006513208
120	0x3dd4fe7a	0.104001
121	0x3df9a94e	0.121904954
122	0x3e0943e9	0.13404812
123	0x3ce26668	0.027636722
124	0x3d420404	0.04736711
125	0xbe285b6f	-0.16441129
126	0x3e05df11	0.13073374
127	0x3c8f4ed0	0.017493635

outs.bias f4 [4]
0	0x3d2ecce4	0.042675868
1	0x3d8f1140	0.06985712
2	0x3e2854e9	0.1643864
3	0xbe2001c9	-0.15625681
