space_exploration_with_DQN/runs/2025-07-18_19-52-22.pt (torch, 12009 bytes, 13 tensors)

fc1.weight f4 [32, 8]
0.09452868 0.132186 0.33093002 0.18641324 -0.18745963 -0.009208059 0.18454179 -0.20264436
0.46347368 -0.15820685 0.20641251 -0.3126302 -0.5823417 -0.58165824 -0.34607667 0.1400254
0.103390664 0.17904867 -0.22076112 -0.07181485 0.17897734 0.061260182 0.10090707 -0.38632396
-0.187924 -0.16513716 0.057693094 0.033777762 0.2774836 -0.12693627 0.17448492 0.1523561
-0.03488836 -0.1808601 0.24913552 -0.18554398 -0.18366738 0.31787783 0.085023105 -0.25248396
-0.13106146 -0.4446278 -0.389242 0.09640209 -0.37768036 0.11842351 -0.055501133 0.28639477
0.27076566 -0.057454698 -0.15309668 -0.053892653 -0.18593484 -0.51445216 -0.07176538 0.5051847
0.28606084 -0.40429658 0.26656905 -0.17040509 -0.3744528 -0.20054087 -0.089770444 0.13706082
-0.3263223 -0.2651345 -0.2197663 -0.15984304 0.120743245 0.47535738 0.24140175 -0.15012173
0.021682242 0.25195396 -0.12843207 -0.060579423 -0.30879888 -0.3070024 -0.045088407 0.3814299
-0.024847126 -0.2283583 -0.00874186 -0.032893658 0.1724954 0.34163025 -0.17623813 -0.5457314
-0.40532735 0.07005265 0.14590181 0.51850027 -0.21382539 0.09612523 -0.2843203 -0.20642696
-0.43614605 -0.23042217 -0.3424228 -0.10959526 0.16624475 0.10851667 -0.21141954 -0.2045054
0.14796412 0.03450244 0.00787268 -0.01761741 0.036720727 -0.08312714 -0.0026460523 0.62920177
-0.23062867 -0.11618015 -0.11837968 -0.027594272 0.17887366 0.3071397 0.11642872 -0.0051489826
0.27792507 -0.33405656 0.030643353 -0.31745332 -0.007868324 0.42150888 0.098412044 -0.34863374
0.33386716 -0.010359634 -0.40645275 0.048878018 0.023537194 -0.22033061 -0.40924168 0.5989103
0.045942858 0.098336175 0.078500085 -0.31830496 -0.0010536006 0.23352362 -0.3675862 -0.25152135
0.35750148 0.047145516 -0.12386664 -0.25667024 0.21415578 -0.08593401 -0.3179779 -0.079982296
0.07035387 0.03658627 -0.100043476 0.044417232 -0.037136797 -0.06741494 0.058456082 -0.51437104
0.038104016 -0.079799384 0.24602766 0.07833423 0.037140924 0.03311478 0.04329873 0.030629128
0.104767434 0.09387071 0.16696793 -0.32245243 0.21458273 -0.105142996 0.011420934 0.2799774
0.13046576 -0.33712795 0.06816388 -0.32098508 -0.1581663 -0.20771983 0.040315103 0.28190306
0.31925374 0.07088825 0.22945789 -0.017024351 -0.0334985 0.45782942 0.039293263 -0.24705061
0.39244854 -0.27819192 0.5504769 -0.12364277 -0.04074145 0.15473314 0.03922018 0.20601054
-0.21856162 -0.42068025 0.12658055 -0.13194238 0.026793526 -0.13495809 -0.06601289 -0.049871035
-0.20772041 -0.40956616 -0.05853154 -0.11654945 0.4181988 0.536753 -0.03821216 -0.46120766
-0.35486224 -0.13245158 -0.11636071 0.16601568 0.05403839 -0.0137358075 0.27967545 0.59486324
0.37726733 0.23160097 0.12585708 -0.020676175 -0.36753234 -0.20226558 -0.10535686 0.04722541
0.48259282 -0.44464365 0.32357264 -0.46152988 -0.30481738 -0.13344283 0.38646868 0.08288067
-0.35157084 0.10236792 0.1793908 -0.0260738 -0.22241805 0.23105173 -0.34189042 -0.06567009
0.21576896 0.1265776 -0.021247404 0.7048566 -0.41195685 0.2909828 0.10385346 0.13633613
00000000: 4198 c13d c45b 073e a96f a93e 1de3 3e3e
00000010: 6bf5 3fbe 66dd 16bc 86f8 3c3e 0182 4fbe
00000020: 6c4c ed3e fa00 22be cd5d 533e 1111 a0be
00000030: 5814 15bf 8ee7 14bf f630 b1be d262 0f3e
00000040: 7cbe d33d 8958 373e 340f 62be aa13 93bd
00000050: d645 373e f5eb 7a3d 5ea8 ce3d 41cc c5be
00000060: 266f 40be b719 29be 984f 6c3d 8d5a 0a3d
00000070: 5512 8e3e 95fb 01be 2dac 323e 3d03 1c3e
00000080: 19e7 0ebd 6433 39be 621d 7f3e 3eff 3dbe
00000090: 4d13 3cbe e2c0 a23e 9820 ae3d 9445 81be
000000a0: fa34 06be 41a6 e3be ba4a c7be 756e c53d
000000b0: 525f c1be 0688 f23d 2855 63bd 56a2 923e
000000c0: cca1 8a3e 9e55 6bbd 60c5 1cbe 8bbe 5cbd
000000d0: b465 3ebe 23b3 03bf baf9 92bd c953 013f
000000e0: 9176 923e f6ff cebe bd7b 883e ac7e 2ebe
000000f0: 47b8 bfbe 965a 4dbe 91d9 b7bd ac59 0c3e
00000100: b713 a7be b6bf 87be 6b0a 61be e5ad 23be
00000110: 3c48 f73d 0b62 f33e 0532 773e 83b9 19be
00000120: f59e b13c 1c00 813e b283 03be 2122 78bd
00000130: e31a 9ebe 6b2f 9dbe 9fae 38bd c84a c33e
00000140: 338c cbbc c2d6 69be 053a 0fbc 80bb 06bd
00000150: a2a2 303e 29ea ae3e c577 34be 0eb5 0bbf
00000160: 1187 cfbe c477 8f3d 4967 153e 6fbc 043f
00000170: 0bf5 5abe 4edd c43d 6e92 91be 9761 53be
00000180: 894e dfbe caf3 6bbe 0b52 afbe 7b73 e0bd
00000190: 103c 2a3e fd3d de3d 5d7e 58be dd69 51be
000001a0: e883 173e 6e52 0d3d 6afc 003c 6352 90bc
000001b0: 7968 163d 903e aabd 6469 2dbb 5e13 213f
000001c0: ec29 6cbe dcef edbd 0c71 f2bd 620d e2bc
000001d0: a82a 373e 6a41 9d3e 2e72 ee3d ccb8 a8bb
000001e0: 324c 8e3e 7609 abbe c507 fb3c 3e89 a2be
000001f0: 25ea 00bc 03d0 d73e 418c c93d 1f80 b2be
00000200: a3f0 aa3e 74bb 29bc 931a d0be 5134 483d
00000210: 13d1 c03c 599e 61be 2088 d1be 2f52 193f
00000220: 942e 3c3d 7a64 c93d a7c4 a03d def8 a2be
00000230: f818 8aba d120 6f3e 4234 bcbe 68c7 80be
00000240: 6f0a b73e a81b 413d cbad fdbd 486a 83be
00000250: a74b 5b3e 2cfe afbd 00ce a2be c2cd a3bd
00000260: b115 903d 7cdb 153d 98e3 ccbd d8ee 353d
00000270: c11c 18bd d810 8abd a56f 6f3d d2ad 03bf
00000280: f512 1c3d dc6d a3bd adee 7b3e b26d a03d
00000290: 1521 183d 5da3 073d 025a 313d f0e9 fa3c
000002a0: 4f90 d63d 493f c03d a4f9 2a3e 7c18 a5be
000002b0: 93bb 5b3e 3655 d7bd df1e 3b3c 3359 8f3e
000002c0: d198 053e 099c acbe 8199 8b3d 2858 a4be
000002d0: 59f6 21be 82b4 54be 7321 253d 9955 903e
000002e0: 3a75 a33e dc2d 913d 02f7 6a3e a776 8bbc
000002f0: b935 09bd 9e68 ea3e f9f1 203d d6fa 7cbe
00000300: 04ef c83e 2c6f 8ebe 0eec 0c3f 6c38 fdbd
00000310: 82e0 26bd 5d72 1e3e 57a5 203d 6df4 523e
00000320: 9ece 5fbe 6763 d7be 559e 013e e71b 07be
00000330: 197e db3c 7432 0abe c431 87bd 9245 4cbd
00000340: a9b4 54be a8b2 d1be c5be 6fbd 7ab1 eebd
00000350: 271e d63e a568 093f 5b84 1cbd 6923 ecbe
00000360: 81b0 b5be 63a1 07be 864e eebd 0400 2a3e
00000370: 5c57 5d3d 270c 61bc 9f31 8f3e f548 183f
00000380: 2f29 c13e ce28 6d3e aee0 003e 1561 a9bc
00000390: 332d bcbe b51e 4fbe 56c5 d7bd 6e6f 413d
000003a0: 6816 f73e 55a8 e3be 50ab a53e a54d ecbe
000003b0: 0611 9cbe 3da5 08be 39df c53e 57bd a93d
000003c0: 1801 b4be 46a6 d13d 39b2 373e b998 d5bc
000003d0: 8fc1 63be d398 6c3e 430c afbe 0a7e 86bd
000003e0: 8af2 5c3e 8f9d 013e 090f aebc 7b71 343f
000003f0: 02ec d2be b3fb 943e 1fb1 d43d b39b 0b3e

fc1.bias f4 [32]
-0.06569853 -0.21178259 0.021266365 0.4232319 0.23529145 -0.45532966 0.15913372 -0.16747029
-0.18857533 -0.3365019 0.10864224 -0.14598364 0.023523401 0.28133515 0.26516846 -0.10306118
0.28558663 -0.112936616 -0.10603788 0.12371023 0.27252465 -0.122123756 0.083592616 0.00405779
0.10575664 0.11067653 -0.028605178 0.15051493 -0.24105048 -0.2456447 -0.0685577 -0.533673
00000000: f38c 86bd 89dd 58be cd36 ae3c dab1 d83e
00000010: 3ef0 703e f820 e9be f3f3 223e 557d 2bbe
00000020: e419 41be fa49 acbe d37f de3d bc7c 15be
00000030: 26b4 c03c 290b 903e 29c4 873e bd11 d3bd
00000040: 6938 923e 504b e7bd 632a d9bd ca5b fd3d
00000050: 5a88 8b3e 051c fabd 9b32 ab3d 36f7 843b
00000060: f096 d83d 60aa e23d 6855 eabc 9620 1a3e
00000070: f0d5 76be 498a 7bbe fb67 8cbd cb9e 08bf

ln1.weight f4 [32]
1.4747826 1.7330697 1.5170904 1.6442546 1.4757435 2.0350919 1.6443721 1.8312811
1.5696385 1.4363265 1.8195673 1.9007024 1.5988238 1.4296112 1.6434952 1.9399625
1.5465965 1.9748716 1.9055833 1.4691627 1.5697336 2.083155 1.5932909 1.6264586
1.811488 1.6089991 2.0797012 1.1469333 1.1775329 1.5972756 1.8021652 1.4929072
00000000: adc5 bc3f 3ad5 dd3f 0530 c23f ef76 d23f
00000010: 2ae5 bc3f f23e 0240 c97a d23f 6b67 ea3f
00000020: eae9 c83f 8cd9 b73f 95e7 e83f 374a f33f
00000030: 42a6 cc3f 80fd b63f 0d5e d23f b150 f83f
00000040: e0f6 c53f 98c8 fc3f 27ea f33f 860d bc3f
00000050: 08ed c83f 6952 0540 f5f0 cb3f cc2f d03f
00000060: d7de e73f aff3 cd3f d319 0540 b6ce 923f
00000070: 66b9 963f 8773 cc3f 59ad e63f 9517 bf3f

ln1.bias f4 [32]
0.27656633 0.06524782 0.45590162 0.18060875 0.06607379 -1.0752162 -0.32691702 -0.64026296
-0.2571592 0.026277767 -0.568384 -0.544672 -0.5052313 0.7055084 -0.34024683 -0.72625184
0.21689464 0.4231538 0.1863176 0.091525346 0.3781789 0.3868798 -0.36721078 -0.05743112
-0.5516818 -0.47960815 -0.5652316 0.42105424 0.12959866 -0.31489146 0.031007845 -0.09483219
00000000: 1a9a 8d3e a6a0 853d f06b e93e 80f1 383e
00000010: b251 873d afa0 89bf ab61 a7be 46e8 23bf
00000020: 5faa 83be 7944 d73c 9d81 11bf a06f 0bbf
00000030: d756 01bf 339c 343f d534 aebe a4eb 39bf
00000040: a119 5e3e 9da7 d83e 0aca 3e3e a471 bb3d
00000050: aaa0 c13e 1c15 c63e 0d03 bcbe e53c 6bbd
00000060: 053b 0dbf 338f f5be 05b3 10bf 6c94 d73e
00000070: 83b5 043e 7439 a1be 2a04 fe3c 6137 c2bd

fc_value.weight f4 [16, 32]
0.62883985 -0.6168923 0.54775804 0.7411093 0.4116245 -0.40806562 -0.45163268 -0.47330612
-0.40373167 -0.34385827 -0.6232023 -0.1508736 -0.5494022 0.41068402 -0.39257628 -0.69508654
0.6228651 0.84804964 0.8536941 0.6611586 0.292117 0.6809858 -0.3283851 -0.4636876
-0.51365864 -0.6269483 -0.67992514 -0.013122592 -0.19281778 -0.47754267 0.7530645 0.046215832
0.5167432 -0.5679173 0.5261582 0.64874315 0.46286657 -0.52962875 -0.5230935 -0.6676903
-0.57734305 -0.47421545 -0.62763554 -0.22482091 -0.39256388 0.3082252 -0.5776713 -0.47415537
0.71705264 0.7686969 0.8340997 0.4685616 0.47850144 0.85510474 -0.3308399 -0.6209994
-0.5809095 -0.4267916 -0.57646203 0.0864648 -0.1798994 -0.6110506 0.51120925 0.12485806
-0.18440917 0.20907936 -0.07557248 0.23726428 -0.053159095 -0.386653 0.1346694 -0.2845395
0.21465431 0.16329512 0.11915991 -0.81417376 0.12179386 0.049088493 0.2552809 0.15045513
-0.17455369 -0.19059066 -0.58476096 -0.13031963 0.13096611 -0.5187331 -0.15229413 0.5658048
0.005013786 -0.29430866 0.46983683 0.25631183 -0.007138243 -0.103154115 -0.46894082 -0.62486064
-0.08305373 0.48157945 0.109098226 0.06320496 0.0017268598 -0.60571873 -0.056842487 -0.14117767
0.08557703 0.2906862 0.072376184 -0.7972011 0.08484839 0.221949 0.21805009 -0.1853406
-0.2605513 -0.22218633 -0.33382028 -0.27383754 -0.031172406 -0.42112562 0.056713138 0.31920752
0.085654765 -0.00081209914 0.34015125 0.19633202 0.011268007 0.064279325 -0.53547484 -0.56504804
0.33520782 -0.65755194 0.44414547 0.47767067 0.32442185 -0.49809456 -0.38446364 -0.50104225
-0.5763022 -0.42791042 -0.59559387 -0.10809427 -0.5048867 0.34744644 -0.5492833 -0.6686271
0.7294938 0.91870433 0.8049419 0.4156621 0.46830153 0.66305834 -0.4367735 -0.66696876
-0.59561324 -0.3324555 -0.47507223 -0.037411913 -0.15920457 -0.6355976 0.40966374 0.15581846
-0.15274839 0.75670505 0.23796606 -0.18543038 -0.14559785 -0.06590155 0.25987837 0.13928463
0.23936462 0.3387345 -0.43507218 -0.5814584 -0.28855917 -0.0021601855 0.14538361 -0.19943719
-0.21042235 -0.42498454 -0.38713247 -0.02465706 0.1151777 0.0001920271 0.14328638 -0.1564147
-0.08428162 -0.06449361 -0.25125366 0.20066065 -0.026584813 0.07279639 -0.43573448 -0.4028732
0.06569958 0.57868236 0.03936784 -0.20479296 -0.2554933 -0.29888275 0.35679746 0.17970717
0.08811257 0.3574711 -0.31899065 -0.41212815 -0.0240943 0.18676351 -0.014628932 -0.31213984
-0.044993483 -0.3189949 -0.36673227 -0.082741685 0.0070366412 0.02118385 0.27384692 -0.017299611
-0.1440654 0.15202011 -0.3731783 0.14631931 0.23645379 0.3787535 -0.3149308 -0.5315708
-0.09048924 0.7572864 0.034544345 -0.32975686 -0.2122809 -0.070162326 0.47396514 0.21855772
0.052351337 0.34187615 -0.28199878 -0.49649173 -0.13797861 0.031349063 -0.22533685 -0.39215273
0.04388242 -0.5220635 -0.7013006 0.061154068 0.14871426 0.068978176 0.20274496 -0.015082186
-0.09564352 -0.17387965 -0.35326248 -0.1703189 0.1738626 0.19269031 -0.2363923 -0.58028406
00000000: a6fb 203f a7ec 1dbf df39 0c3f 57b9 3d3f
00000010: 72c0 d23e faed d0be 663c e7be 2e55 f2be
00000020: ebb5 cebe 310e b0be 308a 1fbf 9c7e 1abe
00000030: 9fa5 0cbf 2d45 d23e c2ff c8be 31f1 31bf
00000040: 1674 1f3f c819 593f b28b 5a3f b141 293f
00000050: 5c90 953e 1655 2e3f 1822 a8be 7668 edbe
00000060: 227f 03bf af7f 20bf 930f 2ebf 2400 57bc
00000070: 0672 45be 7980 f4be d6c8 403f d04c 3d3d
00000080: 4849 043f 0763 11bf 4eb2 063f 0814 263f
00000090: d9fc ec3e c095 07bf 75e9 05bf c0ed 2abf
000000a0: c1cc 13bf 5ecc f2be b9ac 20bf 7437 66be
000000b0: 22fe c8be b2cf 9d3e 44e2 13bf 7ec4 f2be
000000c0: c390 373f 52c9 443f 8f87 553f 4ee7 ef3e
000000d0: 24fe f43e 25e8 5a3f d963 a9be d1f9 1ebf
000000e0: 7cb6 14bf 6e84 dabe 0493 13bf 7514 b13d
000000f0: 8c37 38be d06d 1cbf 9cde 023f 95b5 ff3d
00000100: c2d5 3cbe e618 563e bfc5 9abd 68f5 723e
00000110: 5abd 59bd 62f7 c5be c6e6 093e 29af 91be
00000120: 57ce 5b3e d636 273e 1c0a f43d b16d 50bf
00000130: 0f6f f93d 0411 493d 2eb4 823e e910 1a3e
00000140: 34be 32be 332a 43be e5b2 15bf 8272 05be
00000150: fb1b 063e b1cb 04bf fef2 1bbe 95d8 103f
00000160: af4a a43b a0af 96be 748e f03e 4e3b 833e
00000170: ece7 e9bb 7742 d3bd 0319 f0be def6 1fbf
00000180: 1318 aabd 9591 f63e e46e df3d 9a71 813d
00000190: cd57 e23a 6210 1bbf abd3 68bd e190 10be
000001a0: 0343 af3d d2d4 943e f739 943d 5f15 4cbf
000001b0: fec4 ad3d 9946 633e 8648 5f3e edc9 3dbe
000001c0: fb66 85be d084 63be 7eea aabe 6f34 8cbe
000001d0: 465d ffbc c79d d7be 094c 683d 2b6f a33e
000001e0: c46b af3d 0de3 54ba 4e28 ae3e 430b 493e
000001f0: 729d 383c e1a4 833d e114 09bf fda6 10bf
00000200: 5ca0 ab3e 5355 28bf 0967 e33e 4091 f43e
00000210: 9f1a a63e 4006 ffbe 6bd8 c4be 4e44 00bf
00000220: 8a88 13bf 1317 dbbe d778 18bf 8760 ddbd
00000230: 4140 01bf 80e4 b13e d59d 0cbf 252b 2bbf
00000240: 1bc0 3a3f 3530 6b3f ac10 4e3f aad1 d43e
00000250: 38c5 ef3e 31be 293f c7a0 dfbe 77be 2abf
00000260: 1c7a 18bf 9b37 aabe ab3c f3be 3c3d 19bd
00000270: 8606 23be 86b6 22bf 72bf d13e e08e 1f3e
00000280: 136a 1cbe 6cb7 413f 60ad 733e 76e1 3dbe
00000290: 9a17 15be 64f7 86bd c70e 853e a1a0 0e3e
000002a0: 001c 753e 9c6e ad3e c8c1 debe 75da 14bf
000002b0: 07be 93be e691 0dbb 71df 143e 4339 4cbe
000002c0: f578 57be 9397 d9be 3a36 c6be 9afd c9bc
000002d0: 49e2 eb3d e25a 4939 aab9 123e 2d2b 20be
000002e0: d89b acbd 3a15 84bd 52a4 80be fc79 4d3e
000002f0: 65c8 d9bc 4616 953d 9718 dfbe 6545 cebe
00000300: 808d 863d 8724 143f 2c40 213d 3fb5 51be
00000310: 05d0 82be 2907 99be 28ae b63e 2805 383e
00000320: 5d74 b43d 7406 b73e be52 a3be 7602 d3be
00000330: 6961 c5bc ef3e 3f3e 30ae 6fbc cbd0 9fbe
00000340: 164b 38bd 4d53 a3be 55c4 bbbe 7974 a9bd
00000350: a093 e63b c189 ad3c aa35 8c3e eab7 8dbc
00000360: e185 13be 29ab 1b3e 3a11 bfbe bbd4 153e
00000370: f120 723e fbeb c13e 9c3e a1be 0615 08bf
00000380: 6c52 b9bd 86dd 413f 5f7e 0d3d e4d5 a8be
00000390: 2a60 59be 44b1 8fbd 8fab f23e 98cd 5f3e
000003a0: 5b6e 563d 640a af3e 2562 90be 2a34 febe
000003b0: 444a 0dbe e067 003d b4be 66be 3ec8 c8be
000003c0: 0dbe 333d f4a5 05bf 7088 33bf b07c 7a3d
000003d0: 8d48 183e 6e44 8d3d 609c 4f3e 461b 77bc
000003e0: c0e0 c3bd 820d 32be d2de b4be 1468 2ebe
000003f0: 0a09 323e 9c50 453e d310 72be 7f8d 14bf

fc_value.bias f4 [16]
0.4776307 0.2736214 0.44203442 0.30515757 0.24820623 0.3165843 0.25245017 0.27022704
0.56009287 0.48360136 -0.122410946 0.4816776 0.43571994 0.04981101 0.08967031 0.23844625
00000000: 038c f43e 1b18 8c3e 5652 e23e 9d3d 9c3e
00000010: c629 7e3e 5617 a23e 2641 813e 335b 8a3e
00000020: 3f62 0f3f 999a f73e 97b2 fabd 729e f63e
00000030: af16 df3e a106 4c3d 11a5 b73d 412b 743e

value.weight f4 [1, 16]
0.6825713 0.84818 -0.84952515 -0.9438065 0.87107515 -0.73276436 -0.83944225 -0.67478514
0.8656937 0.9512388 0.74412304 -0.92787397 -0.87149906 -1.0168383 -0.75510323 -0.9619356
00000000: febc 2e3f 5322 593f 7b7a 59bf 4e9d 71bf
00000010: c8fe 5e3f 7296 3bbf b0e5 56bf b8be 2cbf
00000020: 1a9e 5d3f 6384 733f d97e 3e3f 2689 6dbf
00000030: 901a 5fbf c227 82bf 724e 41bf 6941 76bf

fc_advantage.weight f4 [16, 32]
-0.25460395 0.05486569 -0.049739677 -0.4077339 -0.4031842 -0.20258777 0.098923154 -0.04332197
-0.2304113 0.37618256 -0.02461349 -0.32119188 -0.035691336 0.054282624 -0.10595985 -0.018992564
0.27484575 -0.5359735 -0.32361063 -0.006088187 -0.23633179 -0.073627904 0.27754995 -0.2918018
-0.19022882 0.07312264 0.005095184 0.3316774 0.10423815 0.013805797 -0.23484382 -0.196457
-0.023715336 0.14961241 0.20910047 -0.17603652 -0.09856549 0.1973657 0.028500851 -0.11504123
-0.11314355 0.06282114 -0.2489717 -0.18946798 0.17785534 0.12796456 0.14507966 -0.06428657
0.005458207 0.26134092 -0.027890587 0.332517 0.012483467 0.35183057 -0.12168895 -0.38773224
-0.23457192 0.114315145 -0.18568419 0.1237425 -0.09934138 -0.2369386 0.16515724 0.053344462
0.3258068 0.091269255 -0.058442138 -0.11052646 0.35967675 -0.038928814 0.025885142 -0.10544331
-0.16541326 0.15920985 -0.28483954 0.19419055 -0.015195046 0.21606222 -0.20739941 -0.35313717
0.11682008 -0.05008918 -0.0901476 0.41581118 -0.04087217 0.12964728 -0.20680773 -0.18198648
-0.1779438 -0.048531223 -0.41558245 0.009601744 -0.048377506 -0.07495313 0.06757964 0.19347917
0.051454384 -0.09766966 0.026952045 0.23026402 0.16136156 -0.25689188 -0.2504509 -0.24978527
0.010288313 -0.05255908 -0.22091204 -0.45109358 0.050020035 0.028076658 -0.036433876 -0.022602992
0.18246275 -0.13002503 0.013916627 0.112095125 -0.24950898 0.13915227 0.04004635 -0.2181456
0.051192533 -0.060329795 -0.031734485 -0.046467185 -0.11304082 -0.24050958 0.11762291 -0.37075746
-0.14091417 -0.36241943 0.2568025 0.23371957 -0.0015567988 -0.2757057 -0.20910153 -0.3700609
0.05509996 0.1351284 -0.2219642 -0.3213836 -0.11519548 -0.017307032 0.12396304 0.079814784
0.1954008 0.07162152 0.41423824 -0.16403817 -0.20498033 0.020745441 -0.17644934 0.07831508
-0.10174022 -0.06534234 -0.016890632 -0.19494876 -0.07772751 -0.08106174 0.19746044 -0.2408268
-0.0428952 -0.03338803 -0.122246675 -0.18407139 -0.5153973 -0.056133468 0.00027126048 -0.0316667
-0.2951599 -0.17548618 -0.14995927 0.24561556 -0.015934905 0.071391955 0.04902334 -0.09388313
0.15309203 0.1525956 -0.3849985 0.04634548 0.021482538 -0.28705215 -0.22371519 0.0949082
0.070421696 -0.113192566 0.1355596 0.35339314 0.15217733 0.02730813 -0.5078187 0.47968128
0.10901694 0.09404411 0.16039135 0.110746056 0.24411103 -0.14649294 0.15328297 -0.045255695
-0.08425902 0.0150879705 -0.4223575 -0.054538343 -0.10001227 0.11296896 -0.2551163 -0.1920848
-0.011773998 -0.275295 -0.12768441 0.2894209 -0.16750516 0.13806963 0.13318495 -0.14426632
-0.054917283 0.07815482 -0.33358225 0.017204916 -0.22751722 0.084133826 0.062719055 0.17905045
-0.120689064 -0.5864038 0.0076337396 0.16109629 0.04861128 0.031766508 -0.28190538 0.039424337
0.23313601 -0.32755145 0.39485854 -0.03576202 0.17095368 -0.049684312 -0.063366875 0.11598916
-0.0036949634 0.18727125 0.26908192 0.03268589 0.29493913 -0.27042976 -0.052455932 0.16462885
-0.21930717 -0.31656024 -0.04849072 -0.098249115 -0.16752262 -0.1645602 0.20247652 -0.20869954
00000000: 735b 82be d9ba 603d d5bb 4bbd 7fc2 d0be
00000010: 296e cebe 2b73 4fbe 3998 ca3d 6172 31bd
00000020: f1f0 6bbe 009b c03e 3ba2 c9bc 4373 a4be
00000030: 1431 12bd 7557 5e3d 7a01 d9bd 4b96 9bbc
00000040: 95b8 8c3e 8f35 09bf 4bb0 a5be 6a7f c7bb
00000050: f600 72be 3aca 96bd 071b 8e3e 0c67 95be
00000060: 58cb 42be 53c1 953d 80f5 a63b 9fd1 a93e
00000070: d07a d53d b631 623c e67a 70be 062c 49be
00000080: aa46 c2bc ff33 193e 6f1e 563e eb42 34be
00000090: b4dc c9bd 3c1a 4a3e 9e7a e93c bd9a ebbd
000000a0: ceb7 e7bd 5fa8 803d 70f2 7ebe e503 42be
000000b0: b61f 363e 2409 033e c38f 143e ada8 83bd
000000c0: c2da b23b 7ace 853e cd7a e4bc ab3f aa3e
000000d0: 7587 4c3c 2323 b43e 0e38 f9bd d784 c6be
000000e0: 9f33 70be 0f1e ea3d ff23 3ebe b56c fd3d
000000f0: 7e73 cbbd 08a0 72be fb1e 293e b97f 5a3d
00000100: 26d0 a63e 60eb ba3d 0661 6fbd b25b e2bd
00000110: 8d27 b83e d273 1fbd 140d d43c aaf2 d7bd
00000120: 1862 29be e807 233e 7dd6 91be e3d9 463e
00000130: a4f4 78bc 6a3f 5d3e 8360 54be 65ce b4be
00000140: 5e3f ef3d 502a 4dbd 4e9f b8bd 34e5 d43e
00000150: 9469 27bd 42c2 043e 68c5 53be aa5a 3abe
00000160: e636 36be adc8 46bd 39c7 d4be a250 1d3c
00000170: 7e27 46bd 0781 99bd 3267 8a3d 671f 463e
00000180: d5c1 523d 0807 c8bd 89ca dc3c 55ca 6b3e
00000190: f73b 253e 5587 83be 1a3b 80be b6c7 7fbe
000001a0: 5090 283c 3148 57bd c436 62be bdf5 e6be
000001b0: cfe1 4c3d 0501 e63c b03b 15bd e929 b9bc
000001c0: 84d7 3a3e 4825 05be 9002 643c 2192 e53d
000001d0: 487f 7fbe ef7d 0e3e a407 243d 8f61 5fbe
000001e0: 43af 513d 601c 77bd 05fc 01bd 6054 3ebd
000001f0: f281 e7bd 2548 76be 48e4 f03d ecd3 bdbe
00000200: ce4b 10be 0a8f b9be 9e7b 833e 2f54 6f3e
00000210: 800d ccba 4c29 8dbe b61e 56be 9f78 bdbe
00000220: 7fb0 613d 195f 0a3e 954a 63be 648c a4be
00000230: 9ceb ebbd 7ac7 8dbc 56e0 fd3d ef75 a33d
00000240: 2617 483e 4eae 923d 0917 d43e 9ff9 27be
00000250: 5de6 51be 58f2 a93c 23af 34be a863 a03d
00000260: 2d5d d0bd 34d2 85bd 395e 8abc a6a0 47be
00000270: 9a2f 9fbd b303 a6bd 1233 4a3e 4d9b 76be
00000280: e1b2 2fbd e3c1 08bd 775c fabd 367d 3cbe
00000290: 14f1 03bf 35ec 65bd f737 8e39 f1b4 01bd
000002a0: 331f 97be a6b2 33be ec8e 19be a582 7b3e
000002b0: eb89 82bc f235 923d b3cc 483d cc45 c0bd
000002c0: 28c4 1c3e 0542 1c3e 861e c5be c2d4 3d3d
000002d0: 26fc af3c 80f8 92be 9815 65be 3b5f c23d
000002e0: 4039 903d 81d1 e7bd 23d0 0a3e f2ef b43e
000002f0: 60d4 1b3e 4db5 df3c 6800 02bf c998 f53e
00000300: 4644 df3d 339a c03d a13d 243e d4ce e23d
00000310: 3ef8 793e 3f02 16be 36f6 1c3e 095e 39bd
00000320: fe8f acbd 8933 773c 3e3f d8be 9963 5fbd
00000330: 3cd3 ccbd 455c e73d 9b9e 82be e1b1 44be
00000340: bae7 40bc 77f3 8cbe b4bf 02be fa2e 943e
00000350: 7986 2bbe 2062 0d3e a361 083e 8dba 13be
00000360: f2f0 60bd a20f a03d 4bcb aabe 53f1 8c3c
00000370: 46fa 68be 5b4e ac3d d972 803d 0059 373e
00000380: d42b f7bd 8f1e 16bf 7324 fa3b 6df6 243e
00000390: 9f1c 473d 991d 023d e755 90be 6a7b 213d
000003a0: 35bb 6e3e d3b4 a7be e62a ca3e 327b 12bd
000003b0: 7b0e 2f3e c781 4bbd 7ec6 81bd ba8b ed3d
000003c0: 3327 72bb 09c4 3f3e 1bc5 893e a4e1 053d
000003d0: 4302 973e c575 8abe 08dc 56bd 7794 283e
000003e0: 0f92 60be 2f14 a2be 359e 46bd d536 c9bd
000003f0: 0d8b 2bbe 7882 28be 0156 4f3e 55b5 55be

fc_advantage.bias f4 [16]
0.06764112 -0.17681213 -0.073413424 0.09787946 0.09126455 -0.119575456 0.1270721 -0.0597403
-0.14424634 0.15954003 0.030410526 -0.17411639 0.094227046 0.029980453 0.13670464 -0.19215778
00000000: 6d87 8a3d 3d0e 35be c759 96bd 0775 c83d
00000010: e9e8 ba3d fae3 f4bd 301f 023e 3fb2 74bd
00000020: 50b5 13be 765e 233e 7f1f f93c 914b 32be
00000030: 1cfa c03d 9199 f53c 4dfc 0b3e 02c5 44be

advantage.weight f4 [4, 16]
0.069655 0.14300978 0.043086585 0.0061188284 -0.24921705 0.2100988 -0.13896067 -0.07821493
0.117732815 0.2052583 0.25920865 0.0581066 0.009589979 -0.24590845 -0.08004286 0.21735498
-0.57181966 0.27278388 0.4976465 0.080374174 -0.20106578 0.3908589 0.2613969 -0.4653304
0.026710266 0.35849392 -0.30692846 -0.38062635 0.24301453 -0.1499708 0.65554696 0.37356383
0.24567224 0.21705417 -0.22466171 0.24587706 0.3840861 -0.7692764 0.068897665 0.15854146
0.4014429 -0.32538778 -0.039048508 -0.41163427 0.30590764 0.2224006 0.084291786 -0.6502571
0.69530624 -0.28782177 -0.30117804 -0.11794321 0.029244732 0.15362816 -0.3725452 0.4271354
-0.44236657 -0.22824451 0.45810613 0.54273677 -0.44358212 -0.41883695 -0.6216893 0.22201107
00000000: 48a7 8e3d 2871 123e 8f7b 303d 7480 c83b
00000010: c132 7fbe 2424 573e b54b 0ebe 262f a0bd
00000020: e71d f13d 3b2f 523e ffb6 843e 3001 6e3d
00000030: 4a1f 1d3c 6dcf 7bbe 83ed a3bd 4e92 5e3e
00000040: c662 12bf 54aa 8b3e 86cb fe3e 379b a43d
00000050: 30e4 4dbe a81e c83e d1d5 853e c93f eebe
00000060: 7dcf da3c 848c b73e ba25 9dbe 75e1 c2be
00000070: cdd8 783e f291 19be edd1 273f c243 bf3e
00000080: 8191 7b3e 7343 5e3e b80d 66be 32c7 7b3e
00000090: efa6 c43e 4cef 44bf 381a 8d3d b158 223e
000000a0: ec89 cd3e 3a99 a6be 54f1 1fbd bac1 d2be
000000b0: ed9f 9c3e fcbc 633e 2ca1 ac3d 4077 26bf
000000c0: 97ff 313f 605d 93be 0234 9abe 368c f1bd
000000d0: a692 ef3c b350 1d3e 3fbe bebe 7eb1 da3e
000000e0: df7d e2be eeb8 69be e38c ea3e ccf0 0a3f
000000f0: 321d e3be cc71 d6be 0827 1fbf df56 633e

advantage.bias f4 [4]
-0.18446422 -0.21595344 -0.03233725 0.054392174
00000000: 30e4 3cbe e622 5dbe 1074 04bd 54ca 5e3d

outs.weight f4 [4, 32]
-0.12381087 0.108593 0.046904758 0.06745413 -0.00590086 0.098296925 -0.013232291 -0.08973506
0.16951396 0.14838 -0.12097372 0.07139969 0.08722167 0.033266425 0.111059144 -0.07275355
0.0013961941 0.005964786 0.10982688 0.13245602 -0.13029656 -0.030411124 -0.17400667 -0.10637363
0.096920595 0.03832212 0.16207002 -0.07707906 -0.09780711 0.15232415 0.0909418 0.1637484
-0.043576345 -0.09186573 0.016719088 0.049588606 0.07518788 0.017922148 -0.12237628 0.03522353
0.04081452 -0.011895224 -0.07268125 -0.11469167 0.06869146 0.107980594 0.02064997 0.022573605
-0.094135635 -0.1604568 -0.056361273 -0.16558398 0.027212337 0.006419793 -0.065318935 0.080010876
-0.113523506 0.026707128 0.086740986 -0.036754668 0.1760027 -0.10035527 -0.016181812 -0.005177945
0.030886725 0.049473107 0.13992809 0.090393886 0.037333548 0.15644069 -0.08750689 -0.001594916
-0.089245275 -0.03375058 0.01352869 0.0055755675 0.16587333 0.09143387 -0.16109356 0.104938105
-0.0040652603 0.15870927 0.009750992 -0.0015426129 0.10591613 -0.081048496 -0.06960596 -0.115060516
-0.06295635 0.019463748 -0.14624846 0.048024505 -0.0394693 0.06602381 0.1565309 0.13526963
-0.053305477 0.16969438 -0.09161764 -0.066095255 0.059709355 -0.064368665 -0.001514554 -0.1059545
-0.030735731 -0.107010745 0.04096128 -0.14398474 0.17210262 -0.011233613 0.11720656 -0.069707304
0.16198023 -0.057247832 0.02892597 -0.13394192 0.098060235 0.102534965 0.04564759 -0.16476503
-0.025147513 -0.10736568 -0.10980653 -0.13868561 -0.17415449 -0.15325329 0.11699842 0.12970088
00000000: 8e90 fdbd 0266 de3d 341f 403d 6425 8a3d
00000010: 005c c1bb e64f c93d 40cc 58bc 04c7 b7bd
00000020: 1195 2d3e edf0 173e 12c1 f7bd 003a 923d
00000030: 46a1 b23d 6042 083d fa72 e33d d0ff 94bd
00000040: 8000 b73a 4074 c33b eaec e03d 8da2 073e
00000050: 766c 05be c020 f9bc ce2e 32be 6bda d9bd
00000060: 4e7e c63d a8f7 1c3d aff5 253e a0db 9dbd
00000070: 184f c8bd ddfa 1b3e b23f ba3d a9ad 273e
00000080: 1c7d 32bd 1a24 bcbd 78f6 883c 6c1d 4b3d
00000090: 1afc 993d 78d1 923c 6aa0 fabd 8c46 103d
000000a0: 202d 273d 30e4 42bc e8d9 94bd 77e3 eabd
000000b0: 1cae 8c3d ee24 dd3d 202a a93c 48ec b83c
000000c0: 2fca c0bd ca4e 24be 14db 66bd d98e 29be
000000d0: 68ec de3c 205d d23b efc5 85bd bedc a33d
000000e0: 037f e8bd e8c8 da3c 42a5 b13d 108c 16bd
000000f0: 0d3a 343e 1087 cdbd b88f 84bc c0ab a9bb
00000100: 2806 fd3c 50a4 4a3d 4f49 0f3e 6e20 b93d
00000110: 10eb 183d fd31 203e d036 b3bd 800c d1ba
00000120: 3ac6 b6bd 0c3e 0abd 70a7 5d3c 40b3 b63b
00000130: b3da 293e ae41 bb3d b6f5 24be cae9 d63d
00000140: e035 85bb af84 223e a0c2 1f3c 8031 caba
00000150: 8eea d83d c1fc a5bd 928d 8ebd d9a4 ebbd
00000160: 42ef 80bd 7072 9f3c 28c2 15be 58b5 443d
00000170: 90aa 21bd 7e37 873d a349 203e 1f84 0a3e
00000180: d856 5abd 5dc4 2d3e 07a2 bbbd f35c 87bd
00000190: cc91 743d b8d3 83bd 0084 c6ba acfe d8bd
000001a0: 80c9 fbbc 7328 dbbd 04c7 273d bc70 13be
000001b0: ab3b 303e 300d 38bc fe09 f03d b4c2 8ebd
000001c0: 25de 253e b47c 6abd 28f6 ec3c 1228 09be
000001d0: ced3 c83d dafd d13d f8f8 3a3d 2ab8 28be
000001e0: 2802 cebc 8ae2 dbbd 3fe2 e0bd 9a03 0ebe
000001f0: 8e55 32be 6eee 1cbe de9c ef3d 4fd0 043e

outs.bias f4 [4]
0.15139054 -0.12910794 -0.10053633 0.15762024
00000000: 1f06 1b3e df34 04be fee5 cdbd 3367 213e
