space_exploration_with_DQN/runs/best_weights.pt (torch, 9797 bytes, 9 tensors)

fc1.weight f4 [64, 8]
00000000: f29c c0bd 1600 1a3e 43d4 093e 8dba 64be
00000010: 7ec6 c13e 23d0 fbbd 8e86 453e 5a2d 1e3e
00000020: 38a0 df3d 07be 903d 6b67 52bf f304 b8be
00000030: 0dc2 623d fc77 17be 0337 0b3e a4ed 153e
00000040: 39d3 b6be e3fe ee3d e8f9 0fbe 33aa 37bc
00000050: 52b2 a73d a947 81bd 1028 593e 2b7e ad3e
00000060: c70e 643e 30ce a93d 7cd6 3cbe c422 69be
00000070: 76e9 2b3c eb02 05be 7eea cebe e556 a93e
00000080: 0d2a 793e 47f3 bdbd 05a5 9dbd 2684 90bb
00000090: 3b9b b6bd 7f3f 84bd 2bfb 49be ef56 403e
000000a0: 56ec c83e 04e7 e63d 6601 6e3e 0378 eb3d
000000b0: db39 af3d 062b 05be 9f26 15bd d47e 143e
000000c0: 819e 3a3d bc45 d5bc 3da9 8abe e3a9 9f3d
000000d0: 5491 26be 8e7e e23e 1e06 0dbe e995 093d
000000e0: e71e a5be 6eaf e63d af34 723e 6dc9 6f3e
000000f0: 0e44 da3e 26e2 adbd 5504 2ebc e8d1 8a3e
00000100: 748b 263d e8cc 663d 2322 04bf 563b 42bf
00000110: de4f 2f3d de3a 943d 57f5 3e3c b174 ef3d
00000120: 5ed1 663a dd41 4cbe 6411 953d 1e4b 07be
00000130: 346d 0bbe 2712 66be 7b1c b8be 8877 863d
00000140: bcbf b53c 9f43 813e 3a50 5b3d 25dd 8c3d
00000150: f03c 2f3e d4c3 183e eda1 0bbd 2a35 c43d
00000160: 62e6 9cbd b8ba a73c 5406 cabd ffb9 d13d
00000170: 0cf1 853e fab0 aa3e 2437 353d 18f6 07bc
00000180: cc0b 7b3e 5e9b 9c3d f3dc 893d 5d44 54be
00000190: a6b3 96be 28eb f3be 151c 50be fa9d 6a3e
000001a0: 7e0a 693e cd2b 93bd 2a98 13bd b7f1 543d
000001b0: 4844 1a3e 430e 1c3b f0c0 b2bd 1023 a9bc
000001c0: 29c7 6d3e f105 0dbd 2adb b6bd 53bd 0dbc
000001d0: 475a b8bd 71fd eebd 06cc d0bd b738 8abd
000001e0: 7ecc 423e e8f2 d2bd 3392 433c 5b32 bf3e
000001f0: f2c5 aabd b944 923e edfc ebbd c777 863e
00000200: 1449 853e 1946 3b3e 6938 73bd 7ab8 abbe
00000210: 203b 1c3e 0099 2d3e 3b84 38bd 31ce 97bd
00000220: e6e1 bb3e f5c2 ce3d b76f 9fbb f633 e53b
00000230: 9bcb 823d 3067 aa3e 638f 8bbc 56e0 4f3d
00000240: 1fc5 bebd 55ae e43d 34b9 20bd f046 723d
00000250: 1733 40bd 9a36 e9bc adae 45bd 2c2f 013e
00000260: d57f f13e 8c96 bd3d 84b6 8abe 51cd 523e
00000270: 5d96 18be 52b7 623d 28be 5f3e 21e9 943d
00000280: db1c 19be 4356 5c3d 55ca 143f ff2d 39bc
00000290: 14ff fb3d 9d0d 883e 2e65 ac3c aab1 3a3c
000002a0: 872e e0be f7b4 7d3d a96f e4bd 3af6 23bd
000002b0: a9f0 23be 8485 d9be d349 ef3d 0104 8f3e
000002c0: b9f9 25be 17ac 443d 3eb6 97bd 9fe9 063e
000002d0: 1917 943e 02b8 b33e e540 513d a9e0 753c
000002e0: 837b 5d3e c8e5 163d 009e cd3d 5108 9cbd
000002f0: a2fc f2bd a310 e93d e604 993d 6464 d63d
00000300: 0d6d 2fbb ca91 e33d f0ed 44be 3367 77bd
00000310: 6fd1 61be 4920 333e ed07 7fbe 4ed5 aa3e
00000320: 5b4b 203e 5c54 b03d d4dd 25be e4e8 043c
00000330: 30bd 843c 401a 18be 7099 62bd 3701 893d
00000340: 0578 e53d 6a6c 883d c8e9 c73d 37c1 d63c
00000350: abbb ffbd 8d2c b7bd 9caa 953e 93c2 eebd
00000360: 7687 39bf d9b3 d93d d9fa ddbd cd9d f4bd
00000370: 7bcb 9c3e 671c 853e ead0 59be 2af6 653e
00000380: a994 40bc ba0a 303c 2bc6 27bb 1231 f03c
00000390: accd 67bc 359c ecbd e7e5 6bbe b6ef 853e
000003a0: 2ef1 e1be e140 d2bc fe9e 20be 6833 2abd
000003b0: 95c0 a23e 6fa4 7e3e 65c1 213b 777a 143d
000003c0: 11a1 a3bd 86a2 143e 0242 abbd 56a5 25bd
000003d0: e105 4d3e 60f9 073d 8e64 98bb d14d dd3d
000003e0: 23e2 8a3e d9f9 643e cf97 a9bd 89f3 b1be
000003f0: e46d 123f 86b9 273c ebe7 733e d652 623d
-0.09404935 0.15039095 0.13459878 -0.22336788 0.3784675 -0.12295558 0.1928961 0.15446988
0.10919231 0.07067495 -0.82189053 -0.35941276 0.055360842 -0.14791864 0.13595204 0.14641434
-0.35708025 0.116697095 -0.14060175 -0.011210012 0.08188309 -0.06312496 0.21206689 0.3388532
0.22271262 0.0829128 -0.18441194 -0.22767168 0.010492673 -0.12989394 -0.40413278 0.33074108
0.24332447 -0.09274917 -0.076974906 -0.0044102846 -0.089163266 -0.064574234 -0.19724719 0.18783163
0.3924281 0.112745315 0.23242721 0.114975 0.08555957 -0.13004693 -0.036413785 0.14501506
0.045561317 -0.026034229 -0.27082244 0.07796075 -0.16266376 0.4423718 -0.13771865 0.03359023
-0.3225014 0.11263929 0.2365291 0.23416682 0.42630047 -0.084904 -0.01062115 0.2711327
0.040660337 0.056347758 -0.5161459 -0.7587179 0.042800777 0.072377905 0.011655173 0.11692179
0.0008805002 -0.19947 0.072787076 -0.13212249 -0.13615876 -0.22467862 -0.3595923 0.065657675
0.022186153 0.25246903 0.053543307 0.068781175 0.1711309 0.14918453 -0.03408997 0.09580453
-0.076611295 0.020474777 -0.09864488 0.10240554 0.26160467 0.33338147 0.04424204 -0.008298419
0.24516219 0.076468214 0.06731596 -0.20729204 -0.29433936 -0.47640347 -0.20323212 0.22911826
0.22757909 -0.07186089 -0.036033787 0.05198833 0.1506511 0.0023812212 -0.08728206 -0.020646602
0.23220505 -0.034429494 -0.08928521 -0.008651095 -0.09001594 -0.11669434 -0.101951644 -0.06749099
0.1902332 -0.10300237 0.011936712 0.37343106 -0.08338536 0.28568056 -0.11522851 0.26263258
0.26032317 0.18288459 -0.05937997 -0.33539182 0.1525693 0.16952896 -0.04504798 -0.07412375
0.36695784 0.10095779 -0.0048656124 0.0069947196 0.06386491 0.3328185 -0.017036146 0.050751053
-0.093149416 0.11166064 -0.039239123 0.059149683 -0.046923723 -0.028468419 -0.048262287 0.12615651
0.4716784 0.0925723 -0.27092373 0.20586134 -0.14901109 0.05535061 0.21849883 0.07271028
-0.14952414 0.053793203 0.58121234 -0.01130247 0.12304512 0.26572886 0.02104434 0.0113948975
-0.43785498 0.06194016 -0.1115411 -0.04002974 -0.16009773 -0.42484677 0.11684003 0.27932742
-0.16208543 0.04801568 -0.07407807 0.13175057 0.28923872 0.35101324 0.05108728 0.015007176
0.21629147 0.03684023 0.10039902 -0.07618774 -0.11864592 0.11380126 0.074716374 0.10468367
-0.002676788 0.111117914 -0.19231391 -0.060401153 -0.22052549 0.17492785 -0.24905367 0.33365864
0.15653746 0.0860984 -0.16197902 0.008112166 0.016203493 -0.14853764 -0.05532211 0.06689685
0.112045325 0.06661303 0.09761387 0.026215179 -0.12486967 -0.08944044 0.29231727 -0.11658206
-0.7247232 0.10630006 -0.10838861 -0.119441606 0.30623993 0.25998232 -0.212711 0.22457185
-0.011754193 0.010744745 -0.0025600295 0.029320274 -0.014148157 -0.115532316 -0.2303692 0.26159447
-0.44129318 -0.025665702 -0.1568565 -0.04155293 0.31787553 0.24867414 0.0024681923 0.036249604
-0.07989705 0.14515123 -0.08362199 -0.04044088 0.20021774 0.033196807 -0.004650659 0.10805858
0.27125654 0.22360934 -0.08280908 -0.34756115 0.5719893 0.010237103 0.23818938 0.05525478

fc1.bias f4 [64]
00000000: a4de e73d c718 073d bf4c fabd 4044 b63d
00000010: 1f79 6d3e 6c1b 83bd 813f 903e 05f4 3a3a
00000020: f9e5 5b3c 1b91 803e 97bb 8d3d 02f0 953e
00000030: e86c 2abe 0c9f a53e fe60 4b3e e740 8d3c
00000040: ebad df3c 99df 123e d9c5 223e 975b 943a
00000050: 6cea ff3d ce12 4e3a 9ca1 8a3e 998e ff3d
00000060: eb9a 3ebe 6780 83bc 8631 1f3e 51a1 883d
00000070: 4a33 433e d0dc c5bd f137 d43c d274 b3be
00000080: 759e 413d 82e5 60be b28f 163e 1597 29bd
00000090: f409 5ebd 6753 bd3c 7ce8 253d 3907 5b3e
000000a0: 46d7 d23e c027 3cbe 44ea 1cbe ea79 fe3c
000000b0: c7e2 83be 47f5 a5bc 2ec5 8abe 3d34 c6bd
000000c0: f306 283e 41b5 473e 5267 2f3d 6abe ecbd
000000d0: dd11 8a3e 1c6f ba3d 9aef 113e b199 bdbd
000000e0: 6770 913e 49c9 253c c9ef 853e a428 0dbd
000000f0: 2e77 e53b e6d8 223e 89f8 6dbe 0ca2 773e
0.11321762 0.032982614 -0.122216694 0.088997364 0.23190735 -0.06401715 0.2817345 0.00071316987
0.013421529 0.25110707 0.069205455 0.29284674 -0.16643107 0.32347906 0.19861218 0.017242862
0.02730461 0.14343108 0.15895785 0.00113188 0.12495884 0.00078610785 0.27076423 0.1247837
-0.18613784 -0.016052438 0.15546235 0.06671394 0.19062534 -0.09661257 0.025905581 -0.35050064
0.047270257 -0.2196255 0.14703253 -0.04140385 -0.05420871 0.023111058 0.040504918 0.21389474
0.41179866 -0.18374538 -0.1532374 0.031063993 -0.25758955 -0.020258559 -0.2710356 -0.096779324
0.16408901 0.19502737 0.042823143 -0.11559756 0.26966754 0.09103224 0.14251557 -0.0925783
0.2840607 0.010118791 0.26159504 -0.034462586 0.0070027327 0.15903053 -0.2323934 0.2418291

ln1.weight f4 [64]
00000000: d9dc 3f40 a604 3740 47d7 1c40 a2e4 4440
00000010: 80a3 f23f 2705 4c40 f99d 0740 a3e1 7040
00000020: 9ace 5040 3d78 0940 7aad db3f a1a9 fd3f
00000030: 2887 3640 6d38 d73f 52ab a03f d4d6 8a40
00000040: bf91 5f40 765d f23f 6956 ef3f 5004 4540
00000050: 3fe0 3b40 6d33 2b40 cb1e f53f 66cb 2b40
00000060: 2823 4f40 d817 3a40 7509 1a40 1a45 3040
00000070: 3e8f 0540 9c6f 6040 d514 0640 6a66 7040
00000080: 0a91 3d40 16c8 5940 2c91 f63f 931c 3f40
00000090: 7d12 1e40 3d1d 5140 bffd 3040 6882 1540
000000a0: f4e2 d23f 2a32 3840 ce36 9040 a4b0 3640
000000b0: ccde 5040 69b3 7140 bd86 7040 c687 5340
000000c0: 42e9 3840 dba2 0040 523f 0a40 82bc 5640
000000d0: 1dfa e43f 371a 7b40 3408 f63f d677 1940
000000e0: c468 c53f bd40 2a40 ff1e 0840 be00 3b40
000000f0: 9e49 8940 9497 e93f 5dd7 8540 f750 c83f
2.9978545 2.8596587 2.4506395 3.0764546 1.8956146 3.1878145 2.119017 3.7637718
3.26261 2.1479638 1.7162316 1.9817392 2.8519993 1.6814095 1.2552283 4.338724
3.4932706 1.8934772 1.8698245 3.0783882 2.935562 2.6750138 1.9150022 2.6842895
3.2365208 2.9077053 2.4068272 2.7542176 2.0868678 3.506812 2.0950215 3.7562509
2.9619775 3.4028373 1.9263053 2.986119 2.4698784 3.2674096 2.7654874 2.3360844
1.6475511 2.8780618 4.50669 2.8545313 3.2635984 3.7765753 3.7582238 3.305162
2.889237 2.00994 2.1601148 3.3552556 1.7888829 3.923475 1.9221253 2.3979392
1.5422597 2.6602013 2.1268919 2.9219203 4.2902365 1.8249383 4.1825395 1.5649709

ln1.bias f4 [64]
00000000: 757e 803f e506 323e b7a4 6c3d d351 083f
00000010: 8c22 d23d 9a17 17bf daf2 39bd c56e 223f
00000020: 2f49 203f a928 0dbd 19c2 a8be 0e42 8abd
00000030: d5e0 90bd 45b3 613f 31f1 c2be ac70 e43e
00000040: 3449 163f 0826 583f d6c3 1e3e aa2f 053f
00000050: 6857 103e 9d56 0c3f e974 c5bc af96 203e
00000060: 61c1 49be 9475 31be 667b c6bc 151d 3abe
00000070: 9fb5 dd3d bd96 c4bd d2fa 5fbd 73e4 243f
00000080: 7956 8f3f 49f6 283f cc67 113e fb5e bd3e
00000090: fa38 51be 248c 173f ed19 713d 1097 11bb
000000a0: 4ccb c93b e58f 6f3e 7763 493e d98b 20bd
000000b0: ccf0 273f daf3 853c 7e96 073f 6458 473c
000000c0: 74c8 c83b bf54 403f a831 873f 8012 1d3f
000000d0: 35f4 6e3f 5c11 dd3e 7f9b 483e 80fe 22be
000000e0: 3490 f8bc 606d 3a3e aa21 303d aacf 2a3e
000000f0: 43b8 0d3f 4a58 3d3e 9253 91be a22e 90be
1.0038592 0.17385443 0.05777427 0.53249854 0.102604955 -0.5902039 -0.045397617 0.6345027
0.6261167 -0.034462605 -0.32960585 -0.0675088 -0.07074133 0.8816417 -0.3807464 0.44617212
0.5870545 0.8443303 0.15504393 0.52025855 0.14095843 0.5481966 -0.024103599 0.15682481
-0.19702674 -0.17330009 -0.024228763 -0.18175156 0.10825657 -0.095990635 -0.05468256 0.64411086
1.1198264 0.660008 0.14199752 0.36986527 -0.20431891 0.5919821 0.058862615 -0.0022215284
0.006158268 0.23394735 0.19666849 -0.03919587 0.656018 0.016351629 0.5296401 0.01216707
0.0061274115 0.7512931 1.0562029 0.61356354 0.9334138 0.43177307 0.19590567 -0.15917397
-0.030342199 0.18205786 0.043000855 0.1668078 0.55359286 0.18490711 -0.28384072 -0.28160578

fc_value.weight f4 [1, 64]
00000000: 7cb3 f53f 8fce e13f 2c98 84bf 4b50 ee3f
00000010: 7ed6 53bf 6b07 0f40 584f 8b3f 63c4 0440
00000020: 63a7 e13f ce29 96bf 6b69 81bf 36bf 4ebf
00000030: bb8f e6bf 2ef7 483f b8b2 0abf 3258 2c40
00000040: f078 0e40 501e 7a3f 038f 36bf 24d4 ea3f
00000050: ae9d 0f40 d148 c7bf 3824 55bf 6a36 b8bf
00000060: 0fbc 2740 4c21 eebf a0bb 96bf a738 d0bf
00000070: 3259 37bf 0dfc 1ec0 1929 47bf fb7f 1340
00000080: 42b6 fa3f 2aa0 1140 bd65 d8bd c6f1 db3f
00000090: 7bc1 8ebf c5a6 0440 7077 d8bf 22d6 7dbf
000000a0: fc19 18bf c9cf e2bf 6a47 2d40 1b2c d5bf
000000b0: c6b6 fc3f 5c51 1cc0 75cb 1140 d27d 06c0
000000c0: ffd4 b5bf f3b4 693f 452f 913f e7b1 f93f
000000d0: e9c4 583f a6d3 2440 7baa 74bf 93bd b8bf
000000e0: 57ed b8be e6fd d63f 42da 8dbf 19d9 e7bf
000000f0: 8f56 4540 2c95 20bf 555b 55c0 2ad2 90be
1.9195399 1.7641162 -1.0358939 1.8618253 -0.82749164 2.2348278 1.0883589 2.0744865
1.7629207 -1.1731508 -1.0110296 -0.80760515 -1.8012613 0.78502166 -0.54178953 2.692883
2.2261314 0.97702503 -0.7131197 1.834599 2.243999 -1.5569097 -0.8325839 -1.4391606
2.6208532 -1.8603911 -1.1776009 -1.6267289 -0.71620476 -2.484134 -0.77797085 2.3046863
1.9586871 2.2754006 -0.1056628 1.7183158 -1.1152796 2.0726788 -1.691145 -0.99154866
-0.5941465 -1.7719661 2.7074838 -1.6654085 1.9743278 -2.4424658 2.278043 -2.1014295
-1.4205626 0.9129173 1.134255 1.9507416 0.8467546 2.575418 -0.9557263 -1.4432853
-0.36118576 1.6796234 -1.1082232 -1.8113128 3.083408 -0.6272762 -3.3336995 -0.28285342

fc_advantage.weight f4 [4, 64]
00000000: 7c7d c5bd c302 2bbe b4d5 acbe f1b1 ccbc
00000010: 7388 bbbc 5d72 00bd 2a73 d6bc a9e9 a1bd
00000020: c476 013e a0c0 403e d2f6 9e3d 1e02 0cbe
00000030: 4163 8dbe bc0e 01be 1a36 823e 3c0e 7c3e
00000040: 1df7 95be e141 13bd 0635 c6be bf6a b03d
00000050: a4e3 9f3c 1e00 2dbe e0ba 133e 6a66 2ebe
00000060: 6cf0 b23e 6240 bb3e e37c 563d 86d1 f53c
00000070: a113 f5bc 8054 423e 3a6f f53e 8d20 5cbe
00000080: 834a ccbd 2010 13be 53a8 cf3e c3f1 5cbe
00000090: e1f3 10be 3882 803d 53c7 00be a9aa 0cbd
000000a0: 66c1 2a3e 1dd2 503d 1a24 cf3c 257d 1b3e
000000b0: d0aa 4e3e 4970 f03e 0006 c63d e1db 853e
000000c0: 4467 da3d 0399 053e 5fcb 8d3e 5698 e1bc
000000d0: 6982 fbba 5379 203f a92b 0f3e 8472 a83e
000000e0: 2c1f 653d 15d6 833d 5420 8c3c 7213 08ba
000000f0: 4bba 5abd d734 e33e 704a 743f a7a2 e2be
00000100: 5d99 053d 325e 8dbe af22 67be 9e1a c6bb
00000110: 6ae5 5ebd ac5e 9dbd facd e73e 0907 b6bd
00000120: 1b2b 96bb 8396 163c 7779 19be 8e0c 0cbf
00000130: aab2 933e ab81 913d 591c babe 972f 2a3e
00000140: 3e37 a0bc 133f 11be 1330 93bc 686b efbd
00000150: e931 e9bb 2232 08bc 6bd8 dabe 2d97 203e
00000160: 2dec 2fbe 63a5 073f a3a2 8f3e e13d bebe
00000170: 3ed1 273d c51a 923e bb0e dc3e bdb7 9abd
00000180: e8cd 0eba 440b b9be bc7c 4f3f 5cdf de3c
00000190: 372a 33be ffd7 e0bc 3b10 0e3e 5549 89be
000001a0: 53f2 1f3d 3a22 83bd 5985 483e 438f 943e
000001b0: 41c1 5dbd 62eb 2dbd a0ad 15bf ab5b 4c3f
000001c0: 13ab 59be dbfd 89be ad67 7e3d 112a 43bd
000001d0: 346e 7cbe 62c4 8f3e d153 5c3e 7c2d fa3d
000001e0: de0a 263f 04c1 d23e 5182 bf3e 882c ae3e
000001f0: e0d8 c9bd ee1f 9c3e c3c2 a33f cf99 9a3c
00000200: 26a1 7d3e 5323 4dbd a3f8 ad3e 73ab a53c
00000210: 2e38 1cbe ce47 063e 3584 3e3e 111f e03d
00000220: 71c6 edbd cdae 09bd ced4 cebd a38a 233d
00000230: 5b94 0d3e 779e f03d 9a84 12be e893 66be
00000240: 7b4a b6bd fc92 943c 9a73 2e3d 072b ef3d
00000250: f79f ccbd a2f1 8e3e e06c 943d 37c6 02bb
00000260: 674c a63d 86a2 03be 3ffc f73d 5001 f73d
00000270: 6b24 4e3e bd1f 353d 090f 26bf 8587 673e
00000280: 0c4d 713c 1c7b f63d 36e2 08bf 0d8e fc3d
00000290: 6bac 183f 0eed 283d 2a00 61bc ee98 8b3e
000002a0: a71e f3be 77dd 333e 0929 67be 9148 33be
000002b0: c1af 38be f72f dc3e 4829 993e 4fb7 03bf
000002c0: e22d 863e 1376 1f3e 08e3 6ebe 624d b0bb
000002d0: 6a5f ffbb 4006 84bf 77bd 24be 5792 ecbe
000002e0: fa2b 39be f58d 5a3e 2744 63be af2a dd3e
000002f0: 96ce b53d 0519 06bf 37cc 823d 6957 f43e
00000300: 45df 1ebe 78bc e03e 1826 a1bd f60f ffbd
00000310: a483 dd3d 9892 19be f321 49bf 06d2 8dbc
00000320: e715 b43a de91 7c3d 9fe3 983e 9282 013f
00000330: 6df8 cc3e 8174 da3d 8a45 403e 4909 c63e
00000340: 9b9f a7bd 3cf1 a63c a89d 19bd ac7e 35bd
00000350: 4947 a3bd 0809 b7bd 73c6 6c3e 7aee 783e
00000360: 859e e6bd 91c9 513e 072b 86be 3e66 203f
00000370: 8754 3bbe dff8 dc3e d009 a8bd b5ba 533e
00000380: dbb1 363d eaf2 0bbe 486f f3be ce42 803d
00000390: 8745 90be 6f95 1fbe 6d46 90bb 544d 04be
000003a0: a38f 1b3f 0b7f 3e3e b9f3 c6bd 5f8d 8abe
000003b0: 9e15 203e 47eb 303f 43d6 683e 15ae 093e
000003c0: 2a44 3abd 1497 65bd ad28 383e 995a a83e
000003d0: 81ff 8f3d 8bbd 0d3e d8cd 52be 1610 b13e
000003e0: b0be 41be 9297 82bf 7462 94bd 552b 1fbe
000003f0: e7ad 8d3a f0e6 783c ec37 393f 29af b1be
-0.09643075 -0.16700272 -0.33756793 -0.024987193 -0.022892212 -0.031359065 -0.026177961 -0.07905895
0.12642962 0.1882348 0.07761921 -0.13672683 -0.27614787 -0.12603277 0.254319 0.24614805
-0.29290095 -0.0359515 -0.3871233 0.0861411 0.019517727 -0.16894576 0.14426756 -0.17031255
0.34949052 0.36572558 0.052365195 0.030007135 -0.029916586 0.18977547 0.47936422 -0.21496792
-0.099751495 -0.1436162 0.4055811 -0.215766 -0.14155532 0.06274837 -0.12576036 -0.03434244
0.16675338 0.05098163 0.02528577 0.15184458 0.20182347 0.46960667 0.09669113 0.26144317
0.106642276 0.1304665 0.27694222 -0.02753846 -0.0019188646 0.62685126 0.13981499 0.32899868
0.05593793 0.06437317 0.017105259 -0.0005190886 -0.05340032 0.4437625 0.9542608 -0.4426472
0.03261696 -0.27610928 -0.22571824 -0.0060456535 -0.054418005 -0.07684073 0.45274335 -0.088880606
-0.0045827753 0.009191158 -0.14987741 -0.54706657 0.28847247 0.0710481 -0.36349753 0.16619717
-0.019557592 -0.14184217 -0.01796726 -0.11690408 -0.0071165455 -0.008312734 -0.4274324 0.15682669
-0.17179938 0.52986735 0.2805377 -0.37156585 0.040971033 0.2853605 0.42979988 -0.075545765
-0.00054475525 -0.36141407 0.81049705 0.027206115 -0.17496572 -0.027446745 0.13873379 -0.2681376
0.039049458 -0.064030126 0.19582118 0.2901555 -0.05413938 -0.042460807 -0.58468056 0.79827374
-0.21256666 -0.2695149 0.06211059 -0.04764754 -0.24651414 0.28079516 0.21516348 0.12215707
0.6486033 0.41162884 0.3740411 0.3401835 -0.09855819 0.3049311 1.2793812 0.01887217
0.24768505 -0.050082516 0.33978757 0.020223355 -0.15255806 0.13113329 0.1860512 0.109434254
-0.11610115 -0.03361397 -0.10099183 0.039927136 0.13826124 0.11748975 -0.14308396 -0.2251736
-0.08900925 0.018136494 0.042590715 0.11678129 -0.099914484 0.27918726 0.07247329 -0.001995457
0.08120041 -0.12854967 0.12108659 0.12060797 0.2013108 0.04421972 -0.6486669 0.2261029
0.014727842 0.120352 -0.5347017 0.123317815 0.5963809 0.041241698 -0.013732949 0.27265114
-0.47484323 0.17564951 -0.22574247 -0.1750815 -0.18035795 0.43005344 0.29914308 -0.5145158
0.2620688 0.15572385 -0.23328793 -0.0053803185 -0.0077933567 -1.0314407 -0.160879 -0.46205398
-0.18083182 0.21343215 -0.22193967 0.43196627 0.08877294 -0.52381927 0.06386607 0.4772294
-0.15514858 0.4389379 -0.07868594 -0.12454216 0.10816124 -0.14997327 -0.7856743 -0.017312061
0.0013739438 0.061662547 0.2986116 0.5058986 0.40033284 0.106667526 0.18776527 0.3867896
-0.08184739 0.020378701 -0.03750387 -0.044310257 -0.07972581 -0.089372694 0.23122577 0.24309722
-0.11260704 0.20487048 -0.26204702 0.6265601 -0.18293963 0.43158624 -0.082049966 0.20676692
0.04460321 -0.13666883 -0.47545838 0.06262742 -0.28178045 -0.15584348 -0.0044029267 -0.12920123
0.6076605 0.1860315 -0.09714455 -0.27060983 0.15633246 0.69109005 0.22737984 0.13445313
-0.045475163 -0.056052282 0.17984267 0.3288162 0.070311554 0.13841836 -0.20586336 0.34582585
-0.18920398 -1.0202506 -0.07245341 -0.15543874 0.0010809273 0.015191779 0.72350955 -0.3470395

fc_advantage.bias f4 [4]
00000000: bdf7 22be 4acd 3cbe 8b8a e0bb a4cf 3f3d
-0.15914817 -0.18437687 -0.006852453 0.04682888

outs.weight f4 [4, 64]
00000000: a624 d3bd e858 733d 34ac 81bd a84a 12bd
00000010: 1cbe d53d 82ec f1bd e6cb c23d 1641 f23d
00000020: c0f7 cbbd a2a5 a0bd 8e8e bebd 6478 3e3d
00000030: 14e0 a0bd 3832 05bd ae2e a83d 02cb a6bd
00000040: f821 7dbd 087b a7bd 1cc0 893d f829 993c
00000050: 984c c43d 3a49 b63d cca0 32bd 6098 de3d
00000060: cc66 7fbd 4247 bbbd b8c6 9a3c f821 c7bc
00000070: 9421 5fbd 26f2 c6bd 86a3 febd 0012 4aba
00000080: b04e d8bc 10e4 43bd 000e ea3c e0ff 0d3c
00000090: c027 bebb 1e40 e4bd 9c4e e53d 36ad d0bd
000000a0: 5eb8 e3bd cc42 583d 8a11 943d 84e2 87bd
000000b0: 5601 b6bd 0472 9b3d 341f 54bd 0c07 64bd
000000c0: 9860 ed3d fa26 ec3d d257 d6bd c0ce 443c
000000d0: 024f a4bd 501f 20bc 00f0 afb8 0029 cebd
000000e0: 9c95 d63d c021 ef3d e412 26bd 820b efbd
000000f0: 5cef f1bd 047d 413d c052 3a3c 7013 d33c
00000100: 90d1 6bbc 767e f83d 90b0 81bd 5c1c c5bd
00000110: f429 68bd 4c01 9cbd dc21 cf3d 2688 9e3d
00000120: 5c67 f03d 1609 e8bd 101a f63c 80e4 da3c
00000130: 8a40 d03d 543f 38bd 9867 0fbd e4b7 403d
00000140: c05b d83d f063 7fbd 5c78 b63d f003 d13c
00000150: a2ad fa3d b683 e0bd 3476 b7bd 300f c6bc
00000160: d846 9cbd 947a 09bd 90b5 023d 30a3 803d
00000170: e8e1 5dbd e263 91bd b4aa adbd 28ca 8dbd
00000180: 58fa 90bd 10b5 c2bd 7ca1 eabd fa5a f73d
00000190: 5c1a e8bd 08fa af3d 8a40 91bd c8f1 823c
000001a0: c03f 083b ccb3 cfbd ccce a9bd 7c29 84bd
000001b0: 0001 91bd 906f 803d c8a2 0fbd 582d ddbd
000001c0: d03e 06bd 944f ff3d c21e ecbd 6a89 983d
000001d0: 8c2f 523d b099 02bd 8030 57bd 7484 5cbd
000001e0: ac59 50bd 1cb9 4c3d f416 e5bd 58be 88bd
000001f0: ca74 9f3d a80b dbbc 4c7b 693d 989d d83d
00000200: b2b5 813d f472 563d 780b 39bd 3687 c73d
00000210: 40a2 10bd 4661 ecbd 8065 fc3c 28a1 a4bd
00000220: 009c 8d3d ccfc 653d 3213 e4bd c0fc 35bd
00000230: 608d 973b ca3b f33d 5865 3e3d 1e53 fc3d
00000240: 90d7 60bd e45c b63d 6c81 4dbd 404b 433b
00000250: f8de dcbd de4f b23d 48cd 99bd 504b 84bd
00000260: e84d 5bbd cc31 e03d 1a5e c93d 3c11 acbd
00000270: 369a d73d b053 a0bc 30fb 9f3d 3230 a83d
00000280: 00fa 4d3d 489c 90bd 2c70 0bbd d6ed ff3d
00000290: b8ce bb3c 32a3 b93d 48ef 1dbd c027 153b
000002a0: f023 2a3c 2c8b 22bd 56b6 f5bd e24b be3d
000002b0: dcaa da3d 6241 d63d 4273 b43d 908d b2bc
000002c0: 7201 953d 086f 7ebd 1cf1 003d 5a38 a5bd
000002d0: 08d6 fbbc 20eb 90bb 8e6c 8cbd 8007 933c
000002e0: 1afc 8bbd 5c0d e93d 40c3 6a3b 202c c2bc
000002f0: 44f9 8e3d 80a7 79bc 34fa 173d 1271 ef3d
00000300: 2862 c53c 8c51 0bbd 56b5 a73d d050 37bc
00000310: 08be b53d d60a 95bd b06d 22bc da6b a93d
00000320: 4aac d3bd d0a6 4fbd 8af2 dabd 8061 dbba
00000330: a497 22bd 5028 58bc 185b 9abc 7483 eb3d
00000340: 1ef7 f43d 1a4c ea3d 6829 e5bd 803d a33a
00000350: 1026 b4bc 502d 55bc 945c 92bd 509d f9bd
00000360: 44a7 4dbd 3437 423d 246f 7a3d c0cc 243d
00000370: a850 a23c 40c7 9a3d a40f 8abd 4ef3 993d
00000380: 6072 8b3d 6272 c7bd d45f 603d 5487 cabd
00000390: aa4b f9bd 525d a23d 08ea ba3d 645d 92bd
000003a0: 564b a8bd 5468 ef3d 98c4 efbd fa5c bf3d
000003b0: 4a87 afbd a6b7 d23d 7003 203c 7c8b 29bd
000003c0: 4632 f43d 5ade a7bd 2c35 a1bd 2cde ba3d
000003d0: c837 2f3d 34df 78bd a80d 2a3d 8a3a b2bd
000003e0: 78d8 653d 3a4f f93d b211 f3bd a443 ebbd
000003f0: aee3 8dbd 001f a63b a8d7 6dbd 7a6d 903d
-0.103097245 0.05941096 -0.06331673 -0.03571573 0.10436651 -0.118126884 0.09511547 0.118288204
-0.09959364 -0.07844092 -0.09304534 0.046501532 -0.078552395 -0.032518595 0.082120284 -0.081441894
-0.061799973 -0.08177763 0.06726095 0.01869677 0.095849216 0.089006856 -0.04361038 0.10868907
-0.062353894 -0.09144451 0.018893585 -0.02430819 -0.054475382 -0.09714155 -0.12433533 -0.00077083707
-0.026404709 -0.04782492 0.028571129 0.008666962 -0.0058030784 -0.11145042 0.11196634 -0.10189287
-0.111191496 0.052798077 0.07229908 -0.06635001 -0.088869736 0.07590106 -0.05178757 -0.055670783
0.115906894 0.11530872 -0.10465969 0.012012184 -0.08022882 -0.0097730905 -8.389354e-05 -0.10066414
0.104777545 0.11676359 -0.04054536 -0.11672117 -0.11813232 0.047238365 0.011372268 0.025766104
-0.014393225 0.121334955 -0.06332505 -0.0962455 -0.056680635 -0.07617435 0.1011388 0.07740812
0.11738464 -0.11329858 0.030041724 0.026720285 0.1016856 -0.04498227 -0.035010904 0.04705037
0.10564375 -0.062351167 0.089096755 0.025514573 0.12240149 -0.10962622 -0.08958092 -0.024177164
-0.076307 -0.033564165 0.031911433 0.062811255 -0.05417052 -0.07099129 -0.08479825 -0.06923324
-0.07078999 -0.09507191 -0.11456582 0.12077899 -0.11333153 0.085926116 -0.07092388 0.01598443
0.002078995 -0.101417154 -0.082913965 -0.06453225 -0.07080269 0.06271279 -0.03506735 -0.10799664
-0.032774746 0.1246635 -0.11529304 0.07448085 0.051314875 -0.03188485 -0.052536488 -0.053837255
-0.050866768 0.04998122 -0.111860186 -0.0667693 0.077859476 -0.026738957 0.05700235 0.105769336
0.06333484 0.05235572 -0.045176953 0.09742586 -0.035310984 -0.11541991 0.030810118 -0.080385506
0.0691452 0.05614929 -0.11136474 -0.044430494 0.0046250075 0.11876638 0.046483368 0.12320541
-0.054893076 0.08904436 -0.050172254 0.0029799491 -0.107847154 0.0870664 -0.075098574 -0.06459677
-0.053541094 0.10946998 0.098324016 -0.08401725 0.1052746 -0.019571155 0.07811582 0.082123175
0.050287247 -0.07061058 -0.034042522 0.124965355 0.02292572 0.0906433 -0.038558275 0.0022759289
0.010384545 -0.039683506 -0.119976684 0.09291817 0.1067712 0.104616895 0.08811046 -0.021796018
0.07275666 -0.062117606 0.03147994 -0.08067389 -0.030741706 -0.0044225603 -0.06856643 0.017947912
-0.06835194 0.11379501 0.0035821944 -0.023702681 0.069811374 -0.015237689 0.037103847 0.11691488
0.024094656 -0.034013316 0.08188884 -0.011188701 0.08874136 -0.072774574 -0.009913847 0.08272524
-0.10335596 -0.050696194 -0.10690792 -0.0016737431 -0.039695397 -0.013193205 -0.018842265 0.11499682
0.11961196 0.114402965 -0.11189538 0.0012454242 -0.021990806 -0.013011292 -0.07146564 -0.12188208
-0.050208345 0.047415927 0.06114115 0.040234327 0.01981385 0.07557535 -0.067412645 0.0751711
0.06808925 -0.09738614 0.05477889 -0.09889093 -0.12172635 0.07927956 0.09126669 -0.07146719
-0.08217494 0.11689821 -0.11707419 0.09343906 -0.08570726 0.102889344 0.009766445 -0.04139279
0.119236514 -0.08196707 -0.0787147 0.09124407 0.042777807 -0.060759738 0.04151693 -0.08702572
0.056114644 0.121733144 -0.118686095 -0.11487511 -0.06928192 0.0050696135 -0.058066994 0.07052131

outs.bias f4 [4]
00000000: e40a 393d e245 863d 8c70 45bd 2408 96bd
0.0451764 0.06556298 -0.048203036 -0.073257715
