space_exploration_with_DQN/runs/LunarLander_2025-07-19_15-10-48.pt (torch, 9797 bytes, 9 tensors)

fc1.weight f4 [64, 8]
000000 7f 6a 3c 3f 6d 3e bf be dc a6 ab 3f 12 22 d6 bf
       0.736 -0.37352315 1.3410296 -1.6729147
000010 09 f8 60 3f d9 02 cb be c1 00 2f 3f 63 ab 44 3e
       0.8787847 -0.3965061 0.68360525 0.19206004
000020 b9 76 c0 bf ca 89 30 bf 7c dd d6 be 75 28 5d bf
       -1.5036231 -0.6896025 -0.41965854 -0.8638986
000030 ec d3 5a bd bd 87 84 3e ad a9 d5 bf d9 db 60 bf
       -0.05342476 0.2588481 -1.6692406 -0.8783546
000040 a2 0e c2 bf e9 33 77 3e e7 52 07 bf 6a d0 a3 bf
       -1.5160716 0.24140896 -0.52860874 -1.2797978
000050 ab 16 f1 3f 9c 85 48 3f 4c 01 9e 3f f4 a6 95 be
       1.8835043 0.7832887 1.2344146 -0.29228938
000060 f6 ab 36 40 ce 98 70 bf 63 e0 32 bf 5e 2b 14 c0
       2.8542457 -0.9398316 -0.69873637 -2.315147
000070 83 41 55 3f 7e 10 00 40 d6 d3 4c 40 fd 0f 34 3e
       0.8330309 2.0010066 3.2004294 0.17584224
000080 bb 08 40 c0 68 e3 d3 3e d6 00 ce bf aa 06 cc 3f
       -3.0005329 0.41384435 -1.6094005 1.5939534
000090 fa 73 1b 3f c6 0c 09 be 52 ed 11 3f 21 ec 79 be
       0.6072384 -0.13383779 0.5700275 -0.24406482
0000a0 c2 a8 d3 bd c2 b7 47 bf 7f e5 03 3f 25 7c 32 3f
       -0.103349224 -0.7801477 0.5152206 0.6972068
0000b0 e5 e2 d7 be 43 63 40 3f e1 0f cd 3d c2 9b aa be
       -0.42165294 0.7515146 0.10012794 -0.3332196
0000c0 74 62 d7 3f 5d 8f 5e bf 08 87 8f be ba 68 8b 3f
       1.682692 -0.86937505 -0.28032708 1.0891335
0000d0 bc 5d b1 bd 16 b7 02 c0 2a b5 22 3e 13 0e 88 3f
       -0.086604565 -2.0424247 0.15889421 1.0629295
0000e0 7c 4c 81 3e b0 27 26 bf 10 17 72 3f d8 41 5f 40
       0.25253665 -0.6490431 0.9456644 3.4883938
0000f0 f4 fb fe 3e 1c bd aa 3e ad 51 95 3e b2 82 31 3f
       0.498016 0.33347404 0.29163876 0.6934005
000100 c1 5c 6b 3e cf b6 d8 be ee f5 bc 3e 5c a6 27 3f
       0.22984602 -0.42326972 0.3690638 0.6548822
000110 9c 44 a3 be 31 d8 f0 bc 9a 40 ad 3f df e6 9c 3f
       -0.31888282 -0.029399963 1.353534 1.2257956
000120 cf ee 4c bf 33 72 ef be 22 01 3a bf 66 05 6c bf
       -0.80051893 -0.46766815 -0.7265798 -0.9219574
000130 44 98 46 3e d7 63 cf 3d 32 c2 c0 3e 84 a2 71 3f
       0.19394022 0.10126465 0.3764816 0.94388604
000140 7e 37 31 c0 59 1b d8 be 63 65 4f be b4 fe d3 bf
       -2.769012 -0.42208365 -0.2025352 -1.6562104
000150 7f be 42 bf 0f 61 14 c0 a2 ab 55 c0 ff dc 65 3f
       -0.76071924 -2.318424 -3.3386006 0.8979034
000160 42 75 78 be e2 e1 6e be 54 12 00 3f 67 5c 1c 3f
       -0.2426348 -0.23328355 0.50027966 0.61078495
000170 3a c2 53 bf b5 3f 90 be 49 90 5c 3f 83 a2 ca 3f
       -0.8271824 -0.28173605 0.8615766 1.5830845
000180 ec 8a 84 bf e5 6e 2a c0 44 0e 0c bf 00 0e 9d bf
       -1.0354896 -2.6630185 -0.5470927 -1.2269897
000190 c8 b7 73 be 2b 99 49 c0 18 73 c6 3f 9e d0 ea 3f
       -0.23800576 -3.1499736 1.5503874 1.8344915
0001a0 10 5d c7 3f 44 f7 1f 3f e4 2d 29 c0 c6 a5 fc 3e
       1.5575275 0.6248667 -2.643426 0.49345225
0001b0 75 bb 31 40 3b 2f 36 bf 72 aa 8b bd 5f 1d 16 3f
       2.7770665 -0.7116582 -0.06819619 0.58638567
0001c0 99 4b 5c 3f 58 0b 30 be 73 00 b3 3e c6 77 66 3f
       0.8605285 -0.17191827 0.3496128 0.9002651
0001d0 8a 23 eb be 9d ca 80 3e 28 89 51 3f e1 5a 92 3f
       -0.45925552 0.25154582 0.8184991 1.1433984
0001e0 5e 60 02 c0 0f c9 47 3e 7b b4 21 be 68 86 13 3e
       -2.0371318 0.19510292 -0.15791504 0.1440674
0001f0 cd 36 39 bf e5 03 86 c0 74 9d f3 bf 08 33 17 3e
       -0.72349244 -4.1879754 -1.9032426 0.1476556
000200 7f 10 0d be da 99 80 bf df e8 81 be a6 b9 34 bf
       -0.13775824 -1.0046952 -0.2537298 -0.7059578
000210 21 c9 b9 3e 08 80 10 3f 37 2d 0c bf ae d1 40 bf
       0.36286262 0.5644536 -0.5475649 -0.75319946
000220 b7 3b 86 40 5f 54 0e bf 9c 05 2e bf 5b 15 66 bf
       4.1947894 -0.5559749 -0.6797731 -0.89876336
000230 d1 e6 d2 3e 25 4d 51 bf 7c b0 85 bf 7e 03 b1 bf
       0.41191724 -0.8175834 -1.0444484 -1.3829191
000240 23 e8 53 40 10 2f 4f 3f db 9d 8b bd 9f 28 a8 3f
       3.3110435 0.80931187 -0.06817218 1.3137397
000250 5a e6 66 3c f5 f8 f5 3f 4a 22 42 3f 96 12 06 be
       0.014093006 1.9216601 0.7583357 -0.13093027
000260 8f 8f 46 40 d6 77 73 3f d6 21 03 c0 70 98 95 3f
       3.1025121 0.9510473 -2.0489402 1.1687145
000270 2f e4 42 40 7e 29 e2 3f f3 34 86 3f 9b 7e 6e 3f
       3.0451772 1.7668912 1.0484909 0.93161935
000280 c1 14 82 bf 3c cb 1c 3f 8a cb 4c bf c2 ad b6 be
       -1.0162584 0.6124761 -0.79998076 -0.35679442
000290 46 46 9b bf 6d a4 84 bf 0c a7 23 3f cb 75 f3 3e
       -1.2130821 -1.0362679 0.6392677 0.47550806
0002a0 1d f0 ae bf e6 a3 98 3e 37 69 a5 3f ea fd fa be
       -1.3667027 0.29812545 1.2922734 -0.49021846
0002b0 05 6f f4 3f 4b fc cf 3f ce 20 fa 3e 64 58 83 bf
       1.909638 1.6248869 0.48853153 -1.026135
0002c0 07 d2 1b 40 d1 40 a3 be 5d b0 27 c0 94 c3 d6 bf
       2.434694 -0.31885388 -2.6201394 -1.6778436
0002d0 90 6c 12 40 dd 18 08 40 80 40 8e 3e 3c e5 bc 3f
       2.2878761 2.1265175 0.27783585 1.4757457
0002e0 66 10 e4 be 14 03 d3 be 4b 3c 79 3e d5 18 3f 3f
       -0.4454376 -0.41213286 0.24339406 0.74647266
0002f0 50 b0 60 3f 33 fd 76 3f 15 fc 03 40 19 0b da 3f
       0.8776903 0.964801 2.0622609 1.7034637
000300 0b 38 82 3e 8d 7b da bd e7 f4 27 bf 43 fc 33 3f
       0.25433382 -0.10668097 -0.65608066 0.70306796
000310 dc a0 c7 3f 34 e6 6d 3f 4b d2 2e 3f 8d dc 8e 3f
       1.5595965 0.9292939 0.6828963 1.1161057
000320 0b 17 27 40 66 57 bb be 78 ff 0c 3f 98 d9 b2 3e
       2.6107814 -0.36590117 0.55077314 0.34931636
000330 61 f5 a6 bf 4f 65 23 bd fd b2 18 bf 08 62 dc 3e
       -1.3043634 -0.039891537 -0.59648114 0.43043542
000340 52 c5 1a 3f 55 9e 35 bf 6f 74 01 bf 41 12 68 bf
       0.60457337 -0.7094472 -0.5056829 -0.90652853
000350 fc 87 69 3f f2 d2 b0 3f 2c b0 ad be 34 5f 8e 3e
       0.9122312 1.3814375 -0.3392347 0.2780701
000360 cd 8d 35 bd 7f 03 e4 3d 62 9f 36 bf e2 c4 07 3f
       -0.044324685 0.11133479 -0.7133695 0.53034794
000370 81 38 dd 3f 14 bc cc 3f 22 6c 35 3f aa 12 d1 3f
       1.7282869 1.5994897 0.7086812 1.6333821
000380 5c 3f 2b 40 e4 7e 81 3e e8 d6 0d 3f ee 37 95 bf
       2.6757421 0.25292122 0.55406046 -1.1657693
000390 12 cd cc 3f 77 ec 4d 3f 99 29 38 bf 0b fa a8 3f
       1.6000082 0.8043894 -0.71938473 1.3201307
0003a0 d3 87 14 3f 80 02 03 bf 00 82 f1 3f f0 83 de 3f
       0.5801975 -0.5117569 1.8867798 1.7384014
0003b0 17 d6 19 3d 55 10 6b bf 30 46 36 bf 55 1b 5c 3f
       0.037557688 -0.91821796 -0.7120085 0.85979205
0003c0 33 04 2d c0 5a 21 20 bf 92 21 8b be 0e 32 ba bf
       -2.7033813 -0.6255089 -0.2717405 -1.4546525
0003d0 9b 5b 1f 40 c3 16 15 c0 82 5c 09 c0 f1 7b f6 3e
       2.4899662 -2.3295143 -2.1462712 0.48141435
0003e0 17 2c 6c bf b2 e7 c9 3e e0 42 35 bf c2 a1 7f 3f
       -0.92254776 0.39434582 -0.7080517 0.998562
0003f0 c2 22 5e 40 75 c3 ff 3e f5 bb dd 3f 55 35 1f 3e
       3.4708714 0.4995381 1.7322985 0.15547688

fc1.bias f4 [64]
000000 ad a2 43 3e a0 0d 0e bd 00 db 7f 3e b6 ac 2d c0
       0.19105025 -0.034680963 0.24985886 -2.7136664
000010 c0 a2 bf bf 56 53 64 3f 54 58 12 3e 98 6e 41 3f
       -1.4971542 0.8918966 0.14291507 0.7555938
000020 26 1f ab 3f 79 4e 9a bf 2a f3 14 c0 a8 0d 18 bf
       1.3368881 -1.2055198 -2.3273416 -0.5939584
000030 49 71 fb bf 19 02 d7 3e 93 f0 ec 3f 82 06 0e 3f
       -1.9643947 0.41993788 1.8510917 0.5547868
000040 7d ce 07 3f a3 a6 94 3f 45 cd ff 3f 35 2d 91 3f
       0.5304945 1.1613353 1.9984518 1.1341921
000050 ae 1b df bf 73 d8 a3 bf 7e 2c 90 bf 38 c7 ce 3f
       -1.7430322 -1.280043 -1.1263578 1.6154547
000060 b0 53 b9 3f 55 50 be 3e a5 1d 33 bf c3 d8 84 3f
       1.4478664 0.37170663 -0.6996711 1.037865
000070 21 ba 78 3e 7d 5f 00 40 17 6a 0f c0 16 17 33 bf
       0.24289753 2.0058281 -2.2408502 -0.699571
000080 24 82 07 c0 8d a3 c8 3d 61 fa 63 bf a9 e4 3b 3f
       -2.1173182 0.0979682 -0.8905392 0.7339578
000090 36 47 db bf 25 bb 8a 3d ad b8 89 3d c7 bd c1 bf
       -1.7131107 0.06773976 0.06724677 -1.513604
0000a0 0b 61 f5 3f c3 06 2e bf a6 27 4e 3f 1b b1 9e 3e
       1.917024 -0.6797907 0.8052925 0.30994496
0000b0 e0 fb db 3f 28 4c a2 3e 03 21 c7 bf 0b 76 aa be
       1.7186241 0.31698728 -1.5556949 -0.33293185
0000c0 09 8d 23 3f 03 80 f2 bc 97 5b 45 bf e1 4b 88 3f
       0.6388708 -0.029602056 -0.7709288 1.0648156
0000d0 8c 21 6b bf a1 fc f4 3e 6f 68 3a 3e 8e 4e a9 3f
       -0.91848063 0.4784899 0.18203901 1.3227098
0000e0 91 43 4c bf 76 2b 87 be cd d5 e6 bb d8 18 ba 3f
       -0.797906 -0.26400346 -0.00704453 1.4538832
0000f0 68 b2 d9 bf 60 ec 86 3f 25 47 f8 3e f7 57 e7 be
       -1.700757 1.0540886 0.4849178 -0.451843

ln1.weight f4 [64]
000000 94 fd 96 40 e1 48 38 40 44 dc 5d 40 e7 38 1c 40
       4.7184544 2.8794482 3.466569 2.440973
000010 be 37 fa 40 6e 97 6b 40 b8 e4 63 40 87 a0 3a 40
       7.8193045 3.6811175 3.560835 2.9160478
000020 fa b2 0a 3f 66 a4 9d 40 dc 78 f2 40 75 bb aa 40
       0.54179347 4.926318 7.5772533 5.335383
000030 f7 39 3d 40 e9 9d 15 40 81 a8 78 3e 60 1a b5 3f
       2.956663 2.337763 0.24283029 1.4148674
000040 ef c6 8e 40 52 56 1a 40 9f eb 7e 3f 3b b4 f8 3f
       4.461784 2.4115186 0.9957828 1.9430002
000050 e4 d2 9e 40 c0 93 a3 40 85 4e 37 40 2a af 09 3f
       4.9632435 5.111786 2.8641675 0.53782904
000060 f1 39 0f 3f 8e ff 36 40 cd 9b fd 40 52 51 d4 3f
       0.55947787 2.8593478 7.9252687 1.6587317
000070 65 3b 52 40 ff 82 bf 3f 36 4f c5 40 f0 12 4c 40
       3.2848752 1.4961852 6.1659193 3.1886559
000080 b0 40 10 41 62 08 bd 40 a9 82 36 40 5a 26 84 40
       9.015793 5.9072733 2.8517249 4.1296816
000090 49 e7 73 40 ff ae 82 40 41 bf d7 40 51 78 09 41
       3.8109915 4.083862 6.7420964 8.591874
0000a0 00 a0 e9 3e 51 bb 37 40 4a 0f 40 40 83 99 49 40
       0.45629883 2.870808 3.0009332 3.1499946
0000b0 1b 82 52 3e 65 2c bd 3f 91 1f d5 40 d7 cc 92 40
       0.20557444 1.4779173 6.6601033 4.587505
0000c0 4e 1a fa 3f b4 18 38 40 ef bc 9b 40 11 b1 bd 3f
       1.9539278 2.8765078 4.866813 1.4819661
0000d0 b5 2e 9c 40 e8 49 56 40 9a 30 24 40 63 de 9f 3f
       4.8807015 3.3482609 2.5654664 1.2489742
0000e0 71 28 8f 40 bd de 8b 40 47 b3 67 40 81 09 37 3f
       4.4736867 4.3709397 3.6203172 0.71498877
0000f0 b0 18 f2 40 51 17 f1 3e 1a 27 48 40 2e 0d a1 40
       7.5655136 0.47088102 3.1273866 5.032859

ln1.bias f4 [64]
000000 fb 19 84 3e a4 6a d5 3f f5 40 e1 3e 16 b0 b6 be
       0.25801072 1.6673169 0.4399487 -0.35681218
000010 18 60 48 be 9d 82 ee 3f ba 36 95 3f 45 25 c7 bf
       -0.19567907 1.863361 1.1657326 -1.5558249
000020 77 84 70 bf 04 05 d7 3f 1d 5c 9c 3f 3a 33 37 be
       -0.93952125 1.6798406 1.2215611 -0.17890635
000030 fb b6 ea be fb 5e 06 3f 0a fa e2 be 11 8e 0d 3e
       -0.45842728 0.5248868 -0.4433139 0.13823725
000040 a4 90 dc 3e f5 38 9a bf 35 33 f7 be a0 0b e4 3d
       0.43079102 -1.2048632 -0.48281255 0.1113503
000050 03 b2 d8 be 0b 52 10 bf 44 c5 a2 3e 47 81 ab bf
       -0.42323312 -0.5637519 0.31791127 -1.3398827
000060 42 37 35 3e 4b 29 04 bf f5 0a 1c bf 6f f6 2c bf
       0.1769686 -0.5162551 -0.6095422 -0.6756353
000070 2b de 9f 3e 29 6f 8c bf aa 0b 94 bf 02 32 84 bd
       0.31224188 -1.0971423 -1.156606 -0.06454851
000080 42 2c 1d 40 ee 44 42 be 4b 46 ca 3e d4 f0 af be
       2.4558263 -0.18971607 0.39506754 -0.34363425
000090 d7 b5 88 bd 78 ea 73 3d b8 e8 d6 be a8 91 49 3f
       -0.06675308 0.05954978 -0.41974425 0.7873788
0000a0 36 7f 51 bf 21 95 1f be d1 1a a6 3e e1 a6 73 3e
       -0.81834733 -0.15584232 0.32442334 0.23794128
0000b0 5d bc d1 be db a8 47 bf 78 fc 13 3f 2d e6 01 3d
       -0.40964022 -0.7799203 0.5780711 0.031713653
0000c0 0d c6 86 bf 5b bd 02 bf d2 4b ef bd 39 97 53 bf
       -1.052919 -0.51070184 -0.116843835 -0.8265262
0000d0 bf 6c fb 3e a0 7b 68 3e 60 f9 25 bf 2c b2 76 bf
       0.49106404 0.22703409 -0.6483364 -0.9636562
0000e0 46 25 fa be 09 3a ff be c5 5e ce 3c 96 ac 32 bf
       -0.48856562 -0.49848965 0.025191674 -0.69794595
0000f0 06 e6 4a 3f 60 79 87 bf e6 da 8d 3e b0 88 4b be
       0.7925724 -1.0583916 0.2770607 -0.19876361

fc_value.weight f4 [1, 64]
000000 37 4b 58 40 db 81 77 c0 70 ff 28 40 fd 22 08 40
       3.3795907 -3.8673007 2.6405907 2.1271355
000010 d3 26 c9 40 00 ea 41 c0 22 13 2d c0 8b c6 3a 41
       6.2859893 -3.0299072 -2.7042928 11.673472
000020 5c a1 98 be 61 59 b2 c0 6f b2 b2 c0 ea 53 66 c0
       -0.29810607 -5.5734105 -5.5842814 -3.5988717
000030 b5 7f fb 3f 00 66 d0 3f 9e 1a 08 3d 4c 28 8a 3f
       1.9648348 1.6281128 0.03322851 1.0793548
000040 f9 ec 22 c0 77 14 b4 40 42 e2 4a 3f 79 2c 9f 3f
       -2.5457137 5.627498 0.7925149 1.2435447
000050 92 da 85 40 41 7f 8f 40 cc 90 e8 3f 63 27 1d 3d
       4.182931 4.484284 1.8169188 0.03836764
000060 0f b2 30 3f 72 00 b0 bf 7c 3f a9 40 02 73 94 bf
       0.69021696 -1.3750136 5.2889996 -1.1597598
000070 1a 5d 2b 40 e6 d1 13 40 a1 68 c3 40 f1 e1 2d 40
       2.6775575 2.3096862 6.106522 2.7169154
000080 6b ba ce c0 bc 27 b1 40 77 19 0b 40 4b 27 30 40
       -6.460256 5.5361004 2.1734293 2.7523983
000090 04 cc 44 40 5f 72 74 40 a3 d7 b6 40 8d fb e6 c0
       3.0749521 3.8194807 5.713823 -7.218207
0000a0 1b bd 89 3e 20 08 03 40 38 c9 e7 bf 43 ee fc bf
       0.2690209 2.047371 -1.8108282 -1.9760212
0000b0 8b c2 98 bc ed 18 92 3e a3 89 84 c0 93 e3 71 40
       -0.018647453 0.28534642 -4.1418014 3.779515
0000c0 86 1e a9 bf f5 a6 30 40 23 66 82 40 3d 31 fc 3f
       -1.321244 2.7601902 4.074968 1.9702526
0000d0 15 a4 5d 40 ff 90 18 c0 32 65 86 3f 1a 4c d7 be
       3.4631398 -2.3838499 1.0499632 -0.42050248
0000e0 b0 df 7a 40 a4 21 55 c0 8f dd 37 40 fa 81 8e 3b
       3.9199028 -3.3301783 2.8728979 0.0043489905
0000f0 c4 db bd c0 fb a9 fb 3d 70 9c f2 bf 8c b7 83 40
       -5.933077 0.122882806 -1.8953991 4.1161556

fc_advantage.weight f4 [4, 64]
000000 58 df c3 3d c6 f0 96 3e 75 6f ac be 86 23 2f 3e
       0.09564084 0.2948057 -0.33678785 0.17103395
000010 16 3a 28 bf 9b 34 87 3e 37 65 e1 3d 74 73 96 3e
       -0.6571363 0.26407322 0.11005633 0.2938496
000020 a4 e3 bd 3e 1d 39 1d 3f 40 e9 be 3e c5 4f c8 3e
       0.3708774 0.6141527 0.3728733 0.3912336
000030 e5 b6 bb bf 3c 57 50 be c5 41 b4 bd 0e e0 cd 3d
       -1.466519 -0.20345777 -0.08801607 0.10052501
000040 e3 ed 62 be 66 31 39 bd 29 7c 80 be 79 6c 6b 3c
       -0.22161059 -0.045213126 -0.25094727 0.014369124
000050 a9 17 6f 3e 35 03 61 be 5c f5 60 be 09 05 55 3d
       0.2334887 -0.2197388 -0.21968597 0.052006755
000060 99 75 66 3e 38 27 f3 3e 8a 93 1a 3f e7 82 13 3f
       0.22505797 0.4749086 0.60381377 0.57621616
000070 85 b3 cf bd 4d 05 78 3e 03 dd 22 3f a7 6a 86 bd
       -0.101416625 0.24220772 0.6361849 -0.06563311
000080 ff 8a a4 bf 22 23 8c bd 9c 5e 01 bf 8d 70 ae 3d
       -1.2854918 -0.068426386 -0.5053499 0.08517561
000090 c2 e9 e8 3c 81 4f 1e 3d 02 dc e8 be cd 10 0e 3f
       0.028431777 0.03865004 -0.45480353 0.55494386
0000a0 65 27 cb 3b bb 3f 25 bc f7 84 1f 3b 07 d6 a4 3e
       0.0061997646 -0.010085995 0.0024340728 0.3219454
0000b0 c3 6e f7 3d 0b 9e f5 3d 7d c4 78 3e 87 d9 8e 3c
       0.12081673 0.11993035 0.24293704 0.01743771
0000c0 0f e2 05 bf bb 75 31 3e 41 92 17 3f 94 09 42 3e
       -0.52298063 0.17330067 0.5920754 0.18948966
0000d0 18 2a 0b bd 99 d5 b1 3e e8 a7 6c 3f 34 18 60 be
       -0.03397569 0.34733275 0.92443705 -0.21884233
0000e0 30 a9 c9 3e d6 d4 34 be 0f 38 54 3e 74 64 0c 3e
       0.39386892 -0.17659315 0.2072451 0.13710195
0000f0 7a af 01 3e 33 87 88 3d 73 fb 02 3f f9 a0 a5 bd
       0.12664595 0.06666412 0.5116493 -0.08087344
000100 7a a7 99 3e f3 44 19 3f 94 f8 a1 be 31 79 01 40
       0.30010587 0.59870833 -0.31634963 2.023022
000110 95 0e 91 be 8c 4d fc 3e b2 8f 27 3e 3a a4 1e 3f
       -0.28331438 0.49277914 0.16363409 0.6196934
000120 7d 7f 04 bd 20 ed 32 3f 27 e1 4e 3f 12 a2 4f 3e
       -0.032348145 0.69893074 0.80812305 0.20276669
000130 b2 e2 40 bf dd 7a a3 bd 41 ec a7 3d 98 01 2b 3f
       -0.7534591 -0.07982419 0.08199359 0.66799307
000140 f4 0a 26 be 99 47 62 bd cf dc 3d 3d d0 d5 24 3f
       -0.16215116 -0.055244062 0.046353158 0.6438875
000150 80 95 d2 3d 34 ec 0d be 5f 9e 96 bf d1 76 60 be
       0.10282421 -0.13859636 -1.1767081 -0.21920325
000160 6b a8 37 be 4c f4 f3 3e 78 a9 90 be 6b 93 05 bf
       -0.1793534 0.4764732 -0.28254294 -0.52178067
000170 a6 d2 a6 be 94 85 80 3e fb 59 10 bf f9 c6 4a bb
       -0.32582587 0.25101912 -0.563873 -0.003094135
000180 3a 81 47 be 60 96 c8 bd da 10 40 bd 68 0c 70 3d
       -0.1948289 -0.09794307 -0.04689107 0.05860558
000190 c0 32 60 bd d9 1c 15 bc 1e c2 83 be 9a 45 3b 3f
       -0.0547359 -0.009101116 -0.25734037 0.7315308
0001a0 8e 52 75 bd 72 d8 41 bd 64 e2 6d be a1 5e ad be
       -0.059893183 -0.04732556 -0.23230892 -0.3386126
0001b0 19 bb c9 bd 34 20 ec 3f 16 4c 2b 3f 96 3e 53 3d
       -0.09850139 1.8447328 0.6691297 0.05157336
0001c0 c3 89 7f be fb e3 37 3d 6a 00 d0 bd 67 69 b7 bf
       -0.24954896 0.044895153 -0.10156329 -1.4329041
0001d0 09 99 be 3e 50 66 c2 3e 8b 9e 1c 40 cc 2e d0 3e
       0.37226132 0.37968683 2.4471767 0.40660703
0001e0 d7 ef 8d be 4f 31 2d bf 56 9a 5e bd 4f de 72 bf
       -0.27722046 -0.67653364 -0.054346405 -0.94870466
0001f0 b7 cf 96 3d c0 4a d4 be 85 a9 d8 bc 2b 12 69 bd
       0.07363837 -0.4146328 -0.02644802 -0.056902092
000200 50 23 10 3e ee 7d 4b 3f ce 5a 1d be b5 92 a3 3f
       0.1407597 0.7948903 -0.1536667 1.2779146
000210 49 6f 0d 3f 90 d7 8b 3e 7d c0 2f 3f ff c9 82 bf
       0.5524793 0.273129 0.6865309 -1.0217894
000220 68 60 8b be 21 1b 8a 3f cb 0d 7a 3f 58 98 15 bf
       -0.2722199 1.0789529 0.97677296 -0.58435583
000230 cc fb b2 3f 2f 20 bd be 49 00 33 3e 9a 05 10 be
       1.3983092 -0.36938617 0.17480578 -0.14064637
000240 0d aa 82 be 39 53 e1 3d 9b 54 4a 3d c3 12 d4 3c
       -0.25520363 0.110022016 0.049397092 0.025887853
000250 17 41 e8 3e b2 64 94 be ed e4 2e 3f 23 34 e0 3e
       0.4536216 -0.28983074 0.68318063 0.43789777
000260 78 9c ea bd 0d f1 44 be 07 76 b1 3e 44 83 6f bf
       -0.11455625 -0.19232579 0.3466036 -0.9355967
000270 d4 72 a7 3e e1 e6 5b 3f 2b d5 8d bf b7 fb 48 be
       0.32704794 0.8589917 -1.1080679 -0.19627272
000280 05 9b f6 bf 23 45 a8 3d 2d 40 84 3d 80 88 42 be
       -1.9266058 0.08216312 0.06457553 -0.18997383
000290 de 22 59 be 7f cc ce 3d c4 b7 4e be 9c 79 39 3f
       -0.21204707 0.10097598 -0.20187289 0.72451186
0002a0 89 6d 9b be c9 dc b6 3e 2c 34 88 3e fb ab ff bd
       -0.30357006 0.3571532 0.26602304 -0.124839745
0002b0 c9 64 ad 3d 78 fd 09 3e 44 9a 92 bd 0f e0 18 be
       0.08466489 0.13475597 -0.0715833 -0.14929222
0002c0 4d f0 1b 3f e8 32 a7 3c 47 0e 5f 3e 5a ec bc 3e
       0.60913545 0.020410016 0.2178279 0.36899072
0002d0 97 58 76 be 11 7c 47 bd 2b c5 e3 bf 6a 3e 95 3f
       -0.24057232 -0.048702303 -1.7794546 1.1659672
0002e0 df 77 86 be a2 91 73 bd a0 c7 c6 3c aa 7a c9 be
       -0.2626333 -0.05946506 0.02426511 -0.39351398
0002f0 da 37 89 be 35 03 93 be 5d db 66 be bf 70 29 be
       -0.26800424 -0.28713384 -0.22544618 -0.16546915
000300 ea cd db bd ff 24 b0 3e 8e 10 bc 3c 01 2b d5 bf
       -0.10732634 0.34403226 0.022957113 -1.6653749
000310 93 6c e7 bc 31 12 5d bd 34 59 f6 3e 42 98 fb 3f
       -0.028250014 -0.053972427 0.48114932 1.965584
000320 a9 96 46 bb 1a 8e 14 bf bf c0 0e 3f df 3b 2b 3e
       -0.0030302203 -0.5802933 0.5576286 0.16722058
000330 df fd a0 3e 6c d1 11 3f 55 e5 ab 3c 18 15 1b bf
       0.31443688 0.5696018 0.020983377 -0.6057906
000340 93 42 57 bd 4c e5 b4 bd cd d6 39 3e 4c 21 d5 be
       -0.052553724 -0.088327974 0.18148346 -0.41626966
000350 cf 99 2c bf 3f 3b 8f 3d 1b c7 e4 3e 19 f6 39 be
       -0.67422193 0.06993722 0.44683155 -0.18160285
000360 7b 2e 86 3e c1 0d 92 3d f5 a4 b6 be df 48 4e 3f
       0.26207337 0.071315296 -0.35672727 0.8057994
000370 65 a2 2b 3e ae 2c 19 be f1 2a 40 3f 05 a7 35 be
       0.16761167 -0.1495845 0.75065523 -0.17739494
000380 29 c7 c4 40 31 3c 05 be be b5 72 3d 40 51 62 3e
       6.1493115 -0.13011242 0.059255354 0.22101307
000390 c0 82 7d bd 80 77 06 3e 40 df 17 3e 28 45 85 3e
       -0.06189227 0.13131523 0.14831257 0.26029325
0003a0 ed 7e b8 3e eb 2c 45 3d 24 c2 49 be e4 67 f4 3e
       0.36034337 0.04813854 -0.19702965 0.47735512
0003b0 dc f3 9a bc c4 85 b7 bf 96 9f 19 3f ab 45 bc bd
       -0.01891511 -1.4337697 0.60009134 -0.091929756
0003c0 22 4b eb bd d5 33 32 3d 42 8b ae be eb 9c 89 3f
       -0.1148894 0.043506462 -0.3409062 1.0751013
0003d0 1c f4 0f 3e 2d 0b f5 3b cd bb 2f bf d2 b0 aa bf
       0.14057964 0.007478139 -0.68645936 -1.3335211
0003e0 b1 2c 8a bd ba 6e c5 3e 76 fd bd be ff dd a1 3f
       -0.067468055 0.3856104 -0.37107438 1.2645873
0003f0 a2 67 22 3f 33 b9 41 3f b6 ff 4a 3f 6c e0 2b 3c
       0.6343938 0.75673217 0.79296434 0.010490518

fc_advantage.bias f4 [4]
000000 63 39 a8 bc b8 b9 01 be d4 37 5b 3e 9b 5b 11 be
       -0.020535177 -0.12668502 0.21408015 -0.14195101

outs.weight f4 [4, 64]
000000 b4 5d 39 bd ee 50 a9 3d f0 a6 b8 3d 68 5d 94 3c
       -0.045255378 0.08267389 0.09016216 0.018110946
000010 88 1b f5 bc d0 d0 41 3c a0 a0 29 bc a8 70 d7 bd
       -0.029920354 0.01182957 -0.010353237 -0.10519534
000020 78 dc 94 3d 72 70 ee 3d cc ab 7e 3d 20 bb 4e 3d
       0.072686136 0.11642541 0.062175557 0.050471425
000030 4a c8 d2 3d fc a3 29 3d 50 db 08 bd b0 a7 15 bc
       0.10292108 0.041416153 -0.033412278 -0.009134218
000040 80 f1 27 bb 06 2c 8f 3d 80 82 f9 3b 00 c4 ed 39
       -0.0025626123 0.06990819 0.0076144338 0.00045350194
000050 b6 ac cf 3d dc 57 b4 3d b0 80 5b 3c a4 0f 9e 3d
       0.10140364 0.0880582 0.013397381 0.07717827
000060 30 95 d4 3d 16 94 b5 bd c0 5f 90 3d f6 0f b3 3d
       0.10380018 -0.08866136 0.07049513 0.08743279
000070 68 97 27 3d b0 c8 d6 3d 26 1b aa bd 40 0f df 3b
       0.040915877 0.10487497 -0.083059594 0.006807238
000080 5a 5d 84 3d 98 58 91 bc 1e 16 90 bd 8c f1 a0 3d
       0.06463118 -0.01774244 -0.070354685 0.078585714
000090 2e 46 b5 3d 5e f4 87 bd d8 23 9f bd 82 de a2 3d
       0.08851276 -0.06638406 -0.077705085 0.07952596
0000a0 20 28 e7 3b b8 76 d8 3d 60 34 80 bd 94 03 ad 3d
       0.007054344 0.10569519 -0.0625999 0.08447948
0000b0 00 8c 35 b9 8a c6 80 3d 54 3e 52 bd 26 6c cf bd
       -0.00017313659 0.06287868 -0.051328972 -0.101280496
0000c0 5e d0 c9 3d e0 bf 40 bc 30 72 92 bd a8 14 dd 3d
       0.09854196 -0.011764497 -0.07150686 0.107949555
0000d0 00 7e 77 bb 18 9d e6 bc a4 19 9e 3d 76 d6 b3 3d
       -0.003776431 -0.02815108 0.07719734 0.087811396
0000e0 88 3f 9d bd ea 4c 86 bd 9c 6b 53 3d b8 29 ab bc
       -0.07678133 -0.06557639 0.051616296 -0.020893916
0000f0 10 b8 c3 3c 7a 93 ba bd f6 5c d2 bd 36 a0 96 bd
       0.023891479 -0.0911016 -0.10271637 -0.073547766
000100 96 77 de bd 52 8b f1 bd 9a 52 ef bd 26 cb f8 bd
       -0.10862653 -0.11794151 -0.11685677 -0.121481225
000110 b0 b7 98 3d 18 5a c4 3c 4a fe bf 3d 88 92 21 3d
       0.074569106 0.023968741 0.09374674 0.039446384
000120 e8 07 eb 3d 88 02 da 3d e2 79 f9 3d 96 b0 8f 3d
       0.11476117 0.10645014 0.121814504 0.07016103
000130 30 fe 9f 3d a2 56 ed bd 42 56 b1 3d 98 15 c4 3c
       0.07812154 -0.115887895 0.086590305 0.023936078
000140 72 7e ec 3d 50 7e 02 3d 44 2b 2d bd fe df f8 3d
       0.11547555 0.031858742 -0.04227759 0.12152098
000150 88 cb 12 3d 08 ab e6 3d cc af c2 bd 58 98 17 bd
       0.035838634 0.1126309 -0.09506187 -0.03701052
000160 40 da cf bd 18 91 e9 3c 70 48 80 bc 2a c2 9f bd
       -0.1014905 0.028511569 -0.01565954 -0.07800706
000170 c0 21 3f 3d d6 dc bf 3d 58 ed 25 3d 08 85 f5 3c
       0.046663046 0.09368293 0.04050955 0.02997066
000180 24 3a b1 3d f0 ad f0 3d 00 9f 22 3d a2 04 a3 bd
       0.086536676 0.11751926 0.039702415 -0.07959868
000190 fc 77 82 3d d8 d4 f0 bc 40 10 c2 bb 78 83 24 3d
       0.063705415 -0.029398367 -0.0059223473 0.04016444
0001a0 f0 9d b1 3c 14 7a 8a bd 78 a8 e6 3c 50 5d fc 3c
       0.021681756 -0.06761566 0.028156504 0.030806214
0001b0 f4 80 f2 3d b8 2b f6 3d 44 78 b7 3d 54 72 76 bd
       0.11841002 0.120200574 0.08958486 -0.060167626
0001c0 a0 4f 49 bd 9c c6 f7 3d 6c ac 1f bd 30 ee f0 3d
       -0.049148202 0.120984286 -0.038982794 0.11764181
0001d0 68 ca b7 3d 0e db bb bd 00 30 e4 b8 70 ce 37 3c
       0.08974153 -0.09172641 -0.00010880828 0.011218652
0001e0 bc 02 6b bd 00 61 06 3b 40 dc 41 3d d2 49 f5 3d
       -0.057375655 0.0020504594 0.047329187 0.11976971
0001f0 54 71 fc bd aa f9 fe 3d 00 55 5d 3d 20 78 f1 bd
       -0.12326303 0.124499634 0.05403614 -0.1179049
000200 4c 7b fe bd ee e9 b6 bd 3c 93 10 3d 10 34 03 bd
       -0.12425861 -0.08931337 0.035296664 -0.032032073
000210 88 18 b6 bc 10 62 bd bc 06 9e ea 3d 10 51 90 bc
       -0.022228494 -0.023118049 0.11455922 -0.017616779
000220 a4 c4 6e 3d f8 2d ea bd 06 d1 f8 3d 18 97 86 bc
       0.058293 -0.11434549 0.12149243 -0.016429469
000230 36 14 cc 3d a8 cc f2 3d 18 0d 9f 3c 70 24 ea bd
       0.099647924 0.11855441 0.019415423 -0.11432731
000240 54 ea 26 bd a0 3e a5 3b 08 4d f1 3c 50 0c 94 3d
       -0.040750816 0.005042866 0.029455677 0.07228911
000250 80 89 de ba 3c 42 1a 3d d2 79 97 3d 56 96 d7 3d
       -0.0016978234 0.037660822 0.07396282 0.10526721
000260 ee c1 98 bd 70 3c 0f 3c b2 83 99 3d a8 5c 27 bd
       -0.07458864 0.008742437 0.07495822 -0.04085985
000270 10 5e 9a 3d a0 7f 80 3d 80 31 93 bc ec 85 fa 3d
       0.07537472 0.062743425 -0.01796794 0.12232575
000280 f0 ab 87 bc c0 26 1c 3d 3e 4e e9 3d 9c dd 6d 3d
       -0.016561478 0.038122892 0.11391877 0.05807267
000290 f4 fd 07 3d 06 4c 94 bd 98 58 f1 3d 54 c0 f2 3d
       0.033201173 -0.07241063 0.11784476 0.1185309
0002a0 1a 4a ff 3d 84 0e bb 3d d0 47 60 3c b6 71 87 bd
       0.124653056 0.09133628 0.013688996 -0.066134855
0002b0 00 b5 3e ba 5c ef 8a 3d 20 43 0b 3c 04 1b 4c 3d
       -0.0007274896 0.067839354 0.008499891 0.04983045
0002c0 40 c0 e2 3b 10 85 9d bc 08 50 55 3d 58 e7 8c bd
       0.0069198906 -0.019228488 0.052078277 -0.06880063
0002d0 c0 90 31 bb 2e 7f da bd 30 23 53 3d 48 00 49 bd
       -0.0027094334 -0.10668789 0.05154723 -0.049072534
0002e0 a0 9d fa 3d 40 a9 93 3b 4a 9c 89 3d 70 ff b8 bc
       0.12237096 0.00450626 0.06719263 -0.02258274
0002f0 de e7 e7 bd 38 8e 21 bd 14 cd 6b 3d dc f5 b4 3d
       -0.11323522 -0.03944227 0.057568625 0.088359565
000300 a8 4f 2c 3d 20 b8 9f 3c b2 13 be bd 98 1a fc 3d
       0.042068154 0.019496977 -0.092811 0.1230976
000310 fc 0a e3 3d 90 19 f3 3d 10 9d 0f bd 62 96 97 3d
       0.110860795 0.1187011 -0.035061896 0.0740173
000320 a0 90 d0 3b d6 8b e3 bd 80 56 7e 3c 80 3f c9 3a
       0.006364897 -0.11110656 0.015523553 0.0015354007
000330 ee ad ab 3d 26 d3 e5 3d cc ee 4a 3d c8 07 08 3d
       0.08382784 0.11221914 0.04954414 0.033210546
000340 08 9e 54 3d 30 85 98 3c 68 53 99 bd 84 c5 ec bd
       0.051908523 0.018618196 -0.074866116 -0.115611106
000350 f6 6b e1 bd ce 8e 90 bd 58 94 05 3d 60 fe f1 3b
       -0.1100692 -0.07058488 0.032612175 0.00738506
000360 60 74 dc bb f0 e7 f4 3c 30 93 a0 3d 08 75 94 3d
       -0.00672774 0.029895753 0.07840574 0.072488844
000370 40 94 22 bb 10 a8 f6 3c a8 62 fb bd 90 5c 47 bd
       -0.0024807602 0.030109435 -0.122746766 -0.04867226
000380 a4 60 a7 3d 10 bf 25 3d 7e 47 a7 3d 4c c4 13 3d
       0.081727296 0.040465415 0.08167933 0.036075875
000390 94 8b c7 bd c8 2f 2f bd 9a b9 d0 3d 60 34 1e bc
       -0.09743419 -0.042770177 0.10191651 -0.009656042
0003a0 ea e3 9f 3d 0c da cd 3d 40 14 d9 3b 00 b7 6e 3c
       0.07807143 0.10051355 0.0066247284 0.014569998
0003b0 aa 1c e0 3d f8 d5 c0 bc f2 74 af 3d c0 0a ec bb
       0.10942967 -0.023539528 0.085672274 -0.00720343
0003c0 f0 cc 2e bc 90 69 e3 3c 90 72 b5 3d 08 b8 f8 3c
       -0.010668978 0.027760297 0.08859742 0.03036119
0003d0 00 cc d2 ba aa 83 a8 bd ce a1 f5 bd 2c 38 76 bd
       -0.0016082525 -0.08228238 -0.119937524 -0.060112163
0003e0 74 62 3a 3d 60 ea c2 bd 60 6d 93 bc da bb 9c 3d
       0.04550405 -0.0951736 -0.01799649 0.07653017
0003f0 bc 0b c1 3d 00 aa cd b9 68 4d fc 3d 5c b5 72 bd
       0.09426066 -0.00039227307 0.123194516 -0.05925499

outs.bias f4 [4]
000000 80 25 c1 3b 68 3b d7 3d d0 96 07 bc 00 45 71 3a
       0.005894363 0.10509378 -0.008275703 0.0009203702
