space_exploration_with_DQN/runs/LunarLander_2025-07-19_15-08-19.pt (torch, 9797 bytes, 9 tensors)

fc1.weight f4 [64, 8]
00000000: f02e 6a3e 7075 4d3d 2a08 ac3c 9435 7abd
00000010: ec9e 803d 2a3a dc3e 78c1 cebd 63ed 1e3e
00000020: 69ed 323e 00dc 2a3c e4e6 0b3e 2558 09bf
00000030: d174 8cbc 01ed 0c3e 0815 f0bd 5098 843e
00000040: d429 8f3b 5540 c9bc 7b0a 52bf e73b 9b3f
00000050: 1f51 c93e 2462 173e 35bb 583e 4f1c 173f
00000060: c2d6 9f3e 3878 0f3d 3a3a 5dbd 4c69 843d
00000070: 69f5 87bc 484d 043f 78f2 03bd f076 b43e
00000080: 564d 7a3e e135 c03d b8a9 dc3d 890a 9d3e
00000090: e017 7bbe 29c3 043e f186 bb3e 4bdc 653d
000000a0: d362 b73e 94c0 4fbb b8c8 163e e229 07bf
000000b0: 3f3e 233e 146f f13e 1de4 8cbc a5fc 133e
000000c0: 82b0 0bbe 019e 623d aa28 b2be b390 773e
000000d0: 1e37 fe3e 9c24 ac3e 1b1d 713e 5b60 ab3e
000000e0: 4380 05bf 377e 723e 8a1d 993e d795 9d3d
000000f0: ad15 9abe 71b0 4f3f e8f4 9c3d 91e5 e13d
00000100: 2091 d13e da23 11bb 8ce0 acbc 0893 9fbd
00000110: 095a 06be 376a 333e 2a4d a43d 1fcd 9e3e
00000120: 48d2 b23c da80 5abd ce83 883e edc3 a0bc
00000130: 94a7 94be 607e 253e ab1d 12bd 7782 98bc
00000140: 4dd1 2cbe c41e 02bd 8932 093f 8e37 5b3f
00000150: 7663 d63e 5f40 293e be2f 4c3e ba24 12bd
00000160: a7f4 6cbe 1926 93bd 4d61 b1bd 8abc 7dbe
00000170: 758b b0be df39 243f 09d6 a1bd 3530 963e
00000180: 8b6a 3dbe 457e 8c3e bbfa abbd 6e1c c73d
00000190: ded7 153f 08b7 023f bfd5 1bbc 1107 833e
000001a0: e498 febd 28c2 1fbc 7562 f5be 3915 b4bd
000001b0: b079 853f a957 b23d 0a37 a1be 2f6f f73e
000001c0: d9e0 a53d 34c9 92bd 711d c5be ef92 16bd
000001d0: 5bd3 3d3f 6173 4b3f f85a 7b3e 1e33 b23e
000001e0: bb59 99bc c2eb 18bc e758 34bf 91c0 293c
000001f0: 5e0a dabe 5378 bd3e 5623 48bf bf62 913d
00000200: aa2f 0cbc 2efa b8bc 21cb d93c 8640 433e
00000210: d4a8 b03e d295 483f 4a70 88bd 0db8 de3e
00000220: 9f63 a53e 93ed f53b 42ea 90bd fef4 d23d
00000230: 02ee a13e 5805 9a3c 6408 adbe 372c dd3d
00000240: dad3 22be f589 d93d d2e9 423d 13ae da3b
00000250: f32f 533e 3329 82be 2736 e93e 6346 d63e
00000260: d995 503d a689 253d bed1 303c fe88 a33d
00000270: 083d 25be 806b 093f e486 4c3e 212b 153e
00000280: 50a5 00be a2c6 a1be 64fa 25bf 316e a13e
00000290: 5a89 283f d75d bbbd 1db5 383d 344b 2b3e
000002a0: 262a 44bd 2d81 68be acbf d73e 44cf b2be
000002b0: 0ec3 b33e 6972 21be 14e7 c13e 5d81 f3bd
000002c0: e0c0 2c3e 4c7f 223d 11d4 54bc 5f6d 153e
000002d0: 3c70 7a3d 80b7 693e e0b1 0f3e 1bb5 c93e
000002e0: 2aef 81bc 7e26 363d 3912 093e 3e14 813d
000002f0: 0ad1 bdbe 5d88 13bd 574b 4c3e 0a99 c73d
00000300: 17ba 923e a807 273d 417a 1cbf d6d1 04bb
00000310: 3342 9a3d af6c c0be d8fd 633e b66c d53d
00000320: 65fd 973e 8e59 9c3e aec9 0a3e 1b0c 8a3e
00000330: becf 6fbf a500 833d 92a4 933d 6a9b 1d3f
00000340: 3be1 a13e 5149 113d fae5 c53d a977 80bc
00000350: d56a 5abe 5797 853e 6c10 23bd 4117 6d3e
00000360: 561a 09bf f763 bc3e c87e 0b3f e43b 493d
00000370: 7d3d 05be d4c3 683e d9b1 523e 453a 6abd
00000380: 28de ce3d f97a d5bd e051 ddbe b2c0 b33d
00000390: 2f40 dc3d b098 f4be 1b7e 8bbd e376 ec3c
000003a0: 823b e63e e2e9 37bd eeec a53e 493e 92bd
000003b0: a676 02be 57f5 443c 8f31 83be 9858 5ebe
000003c0: 63a4 b8be 8d44 8f3e 789a 713e a201 383b
000003d0: 01df 7b3e 9728 07bd 6abe 873e ea36 6d3e
000003e0: afbf 843d c62a f43c e9e0 2fbf 9640 593e
000003f0: 0120 f8bf 29d3 a73e 3690 31be d1c4 ee3e
0.22869468 0.050160825 0.020999987 -0.061086252 0.06280312 0.43013126 -0.10095495 0.15520243
0.17473377 0.010428429 0.13662297 -0.5365012 -0.017145546 0.13762285 -0.117227614 0.25897455
0.004369 -0.024566809 -0.8204724 1.2127656 0.39319703 0.14783531 0.21165164 0.5902757
0.31218535 0.03502676 -0.054010607 0.06465396 -0.016596513 0.5168042 -0.032213658 0.35246992
0.24443564 0.093852766 0.10774559 0.306721 -0.24520826 0.12965073 0.3662639 0.05611829
0.35817584 -0.003170048 0.14725006 -0.52798283 0.15941714 0.47155058 -0.017198617 0.14451845
-0.13641551 0.055326466 -0.3479665 0.24176292 0.49651426 0.3362168 0.23546259 0.3347195
-0.52148837 0.2368096 0.2990535 0.07694595 -0.30094662 0.81128603 0.076639 0.110301144
0.40931034 -0.0022146613 -0.021103166 -0.07791716 -0.13120283 0.17520986 0.080225304 0.3101587
0.021828786 -0.05334554 0.2666306 -0.019624675 -0.29034102 0.1616149 -0.035672825 -0.018616898
-0.16876717 -0.03176762 0.53592736 0.85631645 0.41872758 0.16528462 0.19940087 -0.035679556
-0.23140202 -0.07185001 -0.08661137 -0.24778953 -0.34481397 0.64150804 -0.07902152 0.29333654
-0.18497674 0.27440086 -0.083974324 0.097222194 0.5853251 0.51060534 -0.00951141 0.2559133
-0.12431505 -0.00975088 -0.4792668 -0.087931104 1.0427761 0.08708126 -0.31487304 0.48327014
0.08099527 -0.07167283 -0.38499025 -0.03676122 0.7415063 0.7947293 0.2454642 0.34804624
-0.018719545 -0.009333553 -0.70448154 0.010360853 -0.42586035 0.37005863 -0.7817892 0.070989124
-0.008556286 -0.022580232 0.026586117 0.19067582 0.34503806 0.7835361 -0.066620424 0.43499795
0.32302567 0.0075051277 -0.07075931 0.10300635 0.31626898 0.018801376 -0.33795464 0.10799449
-0.15901127 0.10622016 0.04758627 0.0066735833 0.2062376 -0.25422058 0.45549127 0.41850576
0.050924156 0.040414475 0.010792194 0.079851136 -0.16136563 0.53679657 0.19973332 0.14567234
-0.12563062 -0.31596857 -0.6483519 0.31529382 0.6583458 -0.09148758 0.045094598 0.16727906
-0.04789176 -0.22705527 0.42138422 -0.34923756 0.35109752 -0.157663 0.3787161 -0.118899085
0.16870451 0.03967218 -0.012990014 0.14592503 0.06114219 0.22823906 0.14032698 0.39395985
-0.015861113 0.044470303 0.13385858 0.06302689 -0.37073547 -0.036018718 0.19950615 0.09745987
0.286576 0.040778786 -0.61124045 -0.0020266674 0.07532158 -0.3758292 0.22264802 0.104211256
0.29685512 0.30537075 0.13553497 0.2696236 -0.93676364 0.06396607 0.07209124 0.6156527
0.3161715 0.03547031 0.09663005 -0.015682058 -0.21329816 0.26092026 -0.039810583 0.23153402
-0.5355581 0.36795017 0.5449033 0.04912938 -0.13011737 0.22730953 0.20575656 -0.057184476
0.10100967 -0.10423846 -0.43226528 0.08776988 0.107544295 -0.4777274 -0.06811162 0.028865283
0.44967276 -0.044900782 0.32407326 -0.07140786 -0.12740573 0.012021384 -0.25623748 -0.21713483
-0.36062917 0.27981988 0.23594081 0.0028077145 0.24596788 -0.032997694 0.26512462 0.2316548
0.06481873 0.029805552 -0.6870256 0.21216044 -1.9384767 0.3277829 -0.17340168 0.46634534

fc1.bias f4 [64]
00000000: cd0d d43d 9475 b13d c249 023e e146 073e
00000010: a8b3 79bd 7d2f fc3c 1b43 8f3d 4104 d5bd
00000020: f3e7 483e 599d dc3e abac a93d e982 a8bd
00000030: 98fe 5fbe c6e2 36be 930a 213b f1b0 173e
00000040: 7b56 2f3e 3ede 993e 2665 cfbd 72ca 253e
00000050: 4a7f 8e3e 6b5d 813e 0534 253e 5420 333e
00000060: 1955 a1be 916c e8be 229c 603e 694e fe3d
00000070: 98d5 503e 7019 d13e 95cb 3dbe c3cc c53d
00000080: ea84 203f 7d53 40bd dcc6 1b3e 9918 ccbd
00000090: 3c42 e23b 5e37 8ebc 6d3f d73d f064 9e3d
000000a0: a007 993e 9dce 4a3d 3267 7f3e ed56 b63e
000000b0: 2e2a 1c3d a01c fe3e 547e 853d ca0c a43e
000000c0: 7052 523c bbeb a7bc 64a8 dd3e 0864 8d3d
000000d0: e5cd 84be 5261 cebd f62d 03bc 6a55 dcbd
000000e0: 20cf cd3e 1209 e43e e9e2 053e c8a5 64be
000000f0: 5d4f 22be 42ad 063e 2252 a53e efae a73e
0.10354195 0.086650044 0.12723449 0.13210632 -0.06096235 0.030784363 0.06995221 -0.10401202
0.19619732 0.43088797 0.08284887 -0.08228094 -0.21874464 -0.17859945 0.0024572953 0.14813592
0.17122833 0.3005237 -0.101267144 0.16190508 0.2783149 0.25266585 0.16133125 0.17492801
-0.31510237 -0.4539533 0.2193456 0.12417299 0.2039398 0.4083972 -0.18534692 0.09658196
0.6270281 -0.04695462 0.15212578 -0.09965629 0.0069048684 -0.017360386 0.105101444 0.07734096
0.2988863 0.049513448 0.2494171 0.35613194 0.038126163 0.49631214 0.06518236 0.32041007
0.012837037 -0.020498147 0.43292534 0.06903845 -0.25938335 -0.10077156 -0.008006563 -0.10758479
0.40197086 0.4453817 0.1307484 -0.22328866 -0.15850587 0.1315203 0.32289225 0.3275065

ln1.weight f4 [64]
00000000: 43ed 4640 d68f 5a40 4216 2a40 2cdf ce3f
00000010: 187f 8840 635a 5f40 ce45 f33f 202f 5040
00000020: d4f8 cc3f e24a c23f 9378 8540 39b7 b240
00000030: 0ae5 5440 63c8 5640 6c44 1340 2b61 1e40
00000040: 3bc5 e43f 419f 2140 fbc3 3540 b30a 0b40
00000050: fd22 3240 16b9 3940 744f fd3f 0fcb 1a40
00000060: c026 8e40 2cfe 8840 42d0 bb3f 0b62 3f40
00000070: 53a0 1240 8c0a 5a40 def6 5340 d804 8240
00000080: e877 2d40 f514 3240 1995 2b40 a11f 3640
00000090: 2c74 fa3f 6ca6 af40 5830 6a40 b8ac 4e40
000000a0: 5285 2440 53be 6f40 cdbe 8c3f 39bf 2b40
000000b0: f449 2f40 ef83 3440 121e 4d40 d7bb 9e3f
000000c0: c212 7540 d494 1e40 e1de 0e40 1eb9 8340
000000d0: 7371 6340 0f6e 8c40 1b72 1940 685b f53f
000000e0: 8887 bf3f 8496 e63f 17bb 2240 3494 b840
000000f0: 01a0 9b40 de4b d03f 5393 cb3f 0c52 c03f
3.1082313 3.415029 2.6576085 1.6161857 4.2655144 3.4898918 1.9005678 3.2528763
1.6013436 1.5179102 4.1709685 5.584866 3.3264794 3.3559806 2.3010511 2.4746807
1.787269 2.525345 2.8400867 2.172528 2.7833855 2.9019217 1.9789872 2.4186437
4.44223 4.281027 1.467293 2.990359 2.2910354 3.4068937 3.3119426 4.0630913
2.7104435 2.782529 2.6809752 2.8456805 1.9566703 5.489065 3.6592007 3.229292
2.5706372 3.7459915 1.0995728 2.6835463 2.7388887 2.8205526 3.2049603 1.2401074
3.82927 2.4778337 2.2323534 4.1163473 3.5537994 4.388435 2.3975894 1.916852
1.4963236 1.8014684 2.542669 5.768091 4.8632817 1.6273153 1.5904335 1.5025039

ln1.bias f4 [64]
00000000: a664 86be b196 613f f340 c0bd 864a 4c3f
00000010: c4e0 3b3d c4a1 723f ea32 a1be 8f13 8d3f
00000020: 1a9d b93e 35b5 2fbe 524d 0fbe 9087 0cbe
00000030: eee9 9d3f bfcc 393d e878 6ebe 4bbd 3abe
00000040: 301e e8be 9f5e 9e3f 13ec 093e f042 74bd
00000050: f8eb ecbd c511 793f 8ac5 a93f 83b3 473c
00000060: dd4c 6f3e af78 3abe 2422 253e 57d0 6c3f
00000070: d294 c23c 8d79 e03d a33c 8e3f 71de a8be
00000080: aef9 5abe 89fa 0a3e 138b dc3d 9508 583c
00000090: 5810 47be 2fc5 9b3e ab4f 843f 32f0 19be
000000a0: 0b90 973f 69f6 9cbc 0d9d c9be b7a6 31be
000000b0: b8be 6e3f 1406 66bd 278f 933f f49a ec3e
000000c0: fcba 6cbd 69e5 adbe 193f 4fbd 320f 163f
000000d0: e900 8cbe a297 863f fdd6 aebe cce5 f7be
000000e0: 4a2f ac3b deef 90be 3586 a23e e84c d93d
000000f0: c646 6fbc 2ddc 42bf 77a7 e4be a7e5 7a3f
-0.26248664 0.8812056 -0.09387388 0.79801214 0.04586865 0.94778085 -0.31484157 1.1021594
0.3625267 -0.17158969 -0.13994339 -0.13723588 1.2337015 0.045361277 -0.2328831 -0.18236272
-0.4533553 1.2372626 0.13468961 -0.05963415 -0.11568445 0.9729274 1.3263409 0.012188795
0.23369165 -0.182101 0.16126305 0.925054 0.023752604 0.10960684 1.1112255 -0.3298221
-0.21384308 0.13572134 0.10768714 0.01318564 -0.19439828 0.30423877 1.0336813 -0.15033033
1.1840833 -0.019160466 -0.39377633 -0.17348753 0.93259764 -0.05615814 1.1528062 0.4621197
-0.05779551 -0.3396409 -0.050597284 0.58616936 -0.27344444 1.0515025 -0.34148398 -0.4841751
0.0052546607 -0.28308004 0.31743017 0.10610372 -0.014604276 -0.7611721 -0.44659016 0.9800667

fc_value.weight f4 [1, 64]
00000000: f2bc f2bf 4bc1 d03f a3de 0040 3b3b 273f
00000010: 91ac 09c0 79ef 0040 57da c4be 60b1 ec3f
00000020: 893d 123f 80dc 0ebf bdad 4d40 64fe 8fc0
00000030: dc00 fc3f d3d3 16c0 5652 9bbf e73c ca3f
00000040: ec22 14bf 89d5 a93f f79f d8bf c6b0 3bbf
00000050: bcfc b63f c2e9 c33f 2752 813f dffd 5ebf
00000060: 1711 45c0 3ce1 5bc0 e2e4 d13e aee2 aa3f
00000070: 9f37 153f 672f 11c0 619a fe3f bbd6 5040
00000080: d346 d2bf 748b bdbf c9ff c7bf ad05 70bf
00000090: c0b7 94be 2099 34c0 06fb 0440 fa04 02c0
000000a0: c1a6 ad3f 690d 01c0 16ea 78bd 91cc ce3f
000000b0: 2f2c b33f d8ab a8bf d8a2 fe3f f08a 883e
000000c0: 0b97 38c0 9818 a1bf 6a4a 85bf 5b6a 2a40
000000d0: 467b 1bc0 4ed4 2940 0643 8f3f e91f 2cbf
000000e0: 9a60 19be e33a 22bf dabd b73e 70c6 93c0
000000f0: 56d5 5ec0 7a28 eb3f a3bb 03bf 343f c33e
-1.8963912 1.6308988 2.0135887 0.65324754 -2.1511576 2.0146163 -0.3844783 1.849163
0.57125145 -0.55805206 3.2137291 -4.4998035 1.9687762 -2.3566787 -1.2134502 1.5799836
-0.57865787 1.3268291 -1.6923817 -0.7331661 1.4295878 1.5305712 1.0103196 -0.87106127
-3.079168 -3.4356222 0.40994936 1.3350427 0.58287996 -2.2685182 1.9890863 3.263106
-1.6427864 -1.4808183 -1.5624934 -0.9375866 -0.2904644 -2.821846 2.0778213 -2.0315537
1.3566514 -2.0164435 -0.060770117 1.6156179 1.3997859 -1.3177443 1.9893446 0.266685
-2.884219 -1.258563 -1.0413334 2.6627414 -2.429399 2.653583 1.1192329 -0.6723619
-0.14978257 -0.63371104 0.35887033 -4.6179733 -3.481771 1.8371727 -0.51458186 0.38134158

fc_advantage.weight f4 [4, 64]
00000000: d5cc 5dbe c5e7 14be 980c 5f3e 9a54 1d3e
00000010: 73f7 52be f119 53bd 132f bb3e 8ca0 b53d
00000020: 686c a53e 4b95 a93e a721 693e c366 eb3e
00000030: febc 96be adb1 c2bd c493 9f3c 68a0 98be
00000040: 8457 7f3e e2de 573d 0010 bfbd fbf8 9cbe
00000050: a0eb 7cbd 5763 59be e953 163d 8c78 75be
00000060: 9969 273f 845a 8f3f b8b0 9cbd abb9 53be
00000070: abe8 bf3e 31a3 3d3c bb14 4f3e 794c 003e
00000080: ea8f 853e 7ca1 943d b5a8 893d eefd 42bf
00000090: 5b1f eabe 9d70 dabe 51ff 90ba f454 fc3e
000000a0: a57a 4fbe 7651 723d 3002 683e 2757 253c
000000b0: a918 3dbe 9abd 80be e1eb 3a3e 3744 843e
000000c0: e9a9 ad3d e9cd 1f3f 7223 63be dc0d 6b3d
000000d0: 668d 633f 1a03 2fbe f8cc 47bf 56de 84be
000000e0: 8ff7 5cba ec3a d53e 8e5a cd3a 1a98 e2be
000000f0: 5391 093d 3c14 a13f be70 913e 89c6 4e3e
00000100: a373 7cbe cc5f 853d 9deb 04be 0ad1 053e
00000110: 2e4d 4e3e 35f6 49be a671 a93e 9a7f 86be
00000120: 8f52 83bd f8a7 c53d 2d76 093e c87c 9e3e
00000130: 2929 91be 8756 603f 40ce 5e3f 6b72 9c3e
00000140: 6442 463e 949e 4bbe f312 ab3d af5e 0e3f
00000150: 1138 c0be d912 f43d 8c54 8d3e eb13 f63e
00000160: 2a7e 403f 09c3 8dbe 1f37 3b3e a71e 88bc
00000170: 8962 283f 24a6 40bd d003 553e fa29 93bd
00000180: 86e9 9a3e 3136 4abf d85f d33e b638 85bf
00000190: 1622 17bd 30bd 80bf e77d bb3d 4628 303e
000001a0: c30f bf3e 79be a4be 2e4a a33e eaed 08bd
000001b0: b483 22bc 8f28 c4be f6fb 873d 111f e7bc
000001c0: d948 cd3d 5ebf 9c3e 17bb b0be 2e1b 43be
000001d0: 7deb 5e3e 34f3 16be 9192 87bf f25b 6fbf
000001e0: 7f98 17bf f6c7 95be ca7a 8b3f 38ff a4bd
000001f0: 2eb2 ef3e 736f c2bf c5ac a0bc fd97 073f
00000200: 137d 0f3e d319 fa3d bac1 9cbe 12c8 78bd
00000210: 64a5 a33f 554b 523e ed5b a7bf b6da 4b3e
00000220: dbc8 92bd b8b1 0a3d 71be f4be 3269 36bd
00000230: 78c3 b03e 8d1e 06bf 6cc1 69bf 51af fe3d
00000240: a58d 843f 19e5 89bd 3ead eb3e 61d1 07bf
00000250: 8a2c 7a3e 5f02 4e3d 3212 adbc f2d2 c63e
00000260: 42d1 b8bb e361 9fbe 48df a73d 1da0 8b3e
00000270: 9836 ffbe daea 813d cd3d 20bd ff3d 363e
00000280: d5dc 3ebe a4d2 a43e 975a f5bd 2a20 643f
00000290: 9678 9a3f f1cf a23f 59d2 a6bc 08ce 42bf
000002a0: 9ae4 b0bb 4aca 093e 32e5 84be 0d2f 6ebc
000002b0: 5ac6 6a3e abef df3e d2c7 45be e1aa f5bd
000002c0: 2d90 903d 08f4 9bbf c120 0f3f 2c6b 3dbe
000002d0: 5f1c 62bf 50e9 b73b f2a3 853f 394d ef3e
000002e0: 8fa8 d13d ebc2 eabe 2b95 c7bd c1cf c33d
000002f0: 6d91 bfbe fc34 b93f 89a3 14bf cb9e 39be
00000300: 5955 2e3e 69c4 49be 270b 753e 9bf4 b4bd
00000310: 835c dcbf 7ae6 ba3d a237 973f 00a1 403e
00000320: 3d1c 0fbd 3550 26bd 2992 2a3e 493a 173f
00000330: e53d 933d 7cec f5bd 9ef0 ef3d cc21 28be
00000340: 1a21 d2bf 4248 ac3e b1ba b4be 7e95 353f
00000350: 200d af3e 976a 0c3e 9d94 cebe 2740 8abf
00000360: 500b 31bf a004 5d3d c4ab d1be b87e 6dbe
00000370: 14e5 25be 1de5 9a3e 17e5 c6be 3c16 9d3d
00000380: f9d1 38bd 5315 4a3f fbd9 3fbe 8bcf 523f
00000390: f57c 5ebf 0c3b c7be 23ac 18be 635f 413f
000003a0: 38c4 df3d 1b67 783e 3f8f c1be 7053 2b3e
000003b0: ddaa 95bd bb45 15bd b886 083e f087 6d3e
000003c0: 8a68 eb3d eaab 003f 42d2 81be bfaa e63d
000003d0: 3ed8 fa3e d7e4 0abe 0359 c0bd a802 3a3f
000003e0: 5867 bd3e 4a37 1b3f 128e 94bf dbe7 dc3e
000003f0: 8cd9 0ebf 5001 ffbf 16d3 d63e e171 efbe
-0.21660168 -0.14541538 0.21782148 0.15364304 -0.20602207 -0.05153841 0.36559352 0.088685125
0.3230927 0.33121714 0.22766744 0.45976838 -0.29441065 -0.09506545 0.01947964 -0.2980988
0.24935728 0.052702792 -0.09329224 -0.30658707 -0.061748147 -0.21229301 0.036701117 -0.23971766
0.65395504 1.1199498 -0.07650894 -0.20676295 0.374822 0.011574552 0.20222752 0.12529172
0.2608636 0.07257363 0.067216314 -0.76168716 -0.45727047 -0.42664042 -0.0011062418 0.49283564
-0.20261629 0.05915972 0.22657084 0.0100915795 -0.18466438 -0.25144655 0.18254043 0.25833294
0.084796734 0.6242357 -0.2218149 0.057386264 0.8888763 -0.17091027 -0.7804713 -0.2595088
-0.0008429223 0.41646516 0.0015667246 -0.4425667 0.033585858 1.25843 0.28406328 0.20192923
-0.24653487 0.065124124 -0.12980504 0.13068023 0.20146629 -0.19722827 0.3309452 -0.26269227
-0.06412231 0.09651178 0.13423987 0.30954576 -0.28351715 0.8763203 0.8703346 0.30556044
0.19361264 -0.19884712 0.08353224 0.55613226 -0.37542775 0.119176574 0.27603567 0.4806207
0.7519251 -0.27687863 0.18282746 -0.016616179 0.6577535 -0.047033444 0.20802236 -0.07185741
0.3025629 -0.7898894 0.4128406 -1.0407932 -0.03689774 -1.0057735 0.09154873 0.17202863
0.37316713 -0.3217657 0.31892532 -0.033430018 -0.009919096 -0.38312194 0.066398546 -0.028213056
0.1002366 0.30614752 -0.34517738 -0.19053337 0.21769519 -0.14741212 -1.0591604 -0.9349967
-0.59217066 -0.2925412 1.0896847 -0.080564916 0.46815628 -1.5190262 -0.019613633 0.5296629
0.14012556 0.12211957 -0.30616552 -0.060737677 1.2784848 0.2053655 -1.3074929 0.1990765
-0.071672164 0.033860892 -0.47801545 -0.044533916 0.3452413 -0.52390367 -0.91310763 0.12435783
1.0355726 -0.0673315 0.4603061 -0.5305386 0.24431053 0.05029523 -0.02112684 0.38832814
-0.00564018 -0.3112937 0.081968844 0.27270594 -0.4984634 0.063436225 -0.039121438 0.17797087
-0.18638928 0.32191956 -0.11980169 0.8911158 1.206805 1.2719709 -0.020363973 -0.7609563
-0.005398345 0.13456073 -0.25956112 -0.014537585 0.22927228 0.4373754 -0.19314507 -0.11995483
0.07058749 -1.2183847 0.55909353 -0.18497914 -0.8832454 0.00561253 1.0440657 0.46738604
0.10237228 -0.45851836 -0.097452484 0.0956111 -0.3741564 1.4469295 -0.58062035 -0.18126981
0.17024745 -0.19703831 0.23930036 -0.08835717 -1.7215732 0.09125991 1.1813853 0.18811417
-0.03493904 -0.040603835 0.16657318 0.5907331 0.0718954 -0.120079964 0.11715816 -0.16419142
-1.6416352 0.33648878 -0.35298684 0.7093123 0.341897 0.13712536 -0.40347758 -1.0800828
-0.69157887 0.05395949 -0.4095136 -0.2319287 -0.16200668 0.30252925 -0.38846657 0.076702565
-0.04512212 0.7893879 -0.18735497 0.82347935 -0.8690942 -0.38912237 -0.14909415 0.75536174
0.10926098 0.24258082 -0.378046 0.16731048 -0.0730798 -0.036443453 0.13332641 0.23196387
0.114945486 0.5026232 -0.25355726 0.11263036 0.48993105 -0.13563858 -0.09391978 0.72660303
0.36992908 0.6063124 -1.1605856 0.43145642 -0.558007 -1.9922276 0.4195792 -0.4676657

fc_advantage.bias f4 [4]
00000000: 12d4 85bd d094 fa3a 41f4 8e3e 259a 9fbd
-0.0653459 0.0019117836 0.27920726 -0.077930726

outs.weight f4 [4, 64]
00000000: 40b6 ffbc 5c08 973d 3afd 99bd 204c 6bbd
00000010: 40bb c13c 788c 91bc 4847 f8bc 18bd 4a3d
00000020: de3b e83d c813 c73d 0c31 3c3d e0ea e7bd
00000030: ca27 be3d c0b8 85bc a0b4 a33b 0c2d efbd
00000040: acac 42bd 4abf 95bd 0000 a9b9 8c77 e9bd
00000050: 7672 e93d 289d 893c 7e89 e63d 4ce3 be3d
00000060: e0b9 7e3c 9cda cd3d 9c2d 583d 6c46 773d
00000070: ccbf 7d3d 307f cd3d fad5 9e3d d0f0 52bc
00000080: c0dc f0bc 0066 d8ba 6cbd ae3d 8038 1fbc
00000090: 3246 f03d c8ac ecbc 381b fb3d 4487 9dbd
000000a0: a44c cb3d 24e4 fe3d 106a 593d f450 5dbd
000000b0: ac19 b3bd 90bb 753c 40fd a1bc ac1f e03d
000000c0: 241d cfbd c894 853c 8060 c93b da56 ef3d
000000d0: 7845 2abd 305f adbd eec5 cb3d 9498 62bd
000000e0: 8057 8dbc 605f f1bb b8d3 66bd 2680 863d
000000f0: 54a8 eabd f0a5 dfbc 302a 4fbc 40a1 42bc
00000100: d030 b33c ca32 e33d 98e5 9dbd c432 0f3d
00000110: c608 b5bd 0c1a 0e3d 80e8 8b3b 74eb e5bd
00000120: 54cb fb3d 665a d6bd 584d 923d c4c9 04bd
00000130: b0e8 a23c dcbc c8bd 749d 1f3d 08ab 95bd
00000140: 74db 763d bab0 df3d 428d b8bd 40eb 52bb
00000150: 30ee 25bc 6075 983d 5423 69bd 544d 273d
00000160: aaec e6bd 2029 e5bb 547e 083d 2042 b43c
00000170: 0804 24bd 0801 9b3d 8083 8d3a 84ff 8bbd
00000180: 92c6 b6bd a064 8c3b 3089 e03c f88a 723d
00000190: b083 c13d c066 1b3b 4c5e 453d 843e 983d
000001a0: f889 a9bc 60e7 423c 0488 bdbd e8cd 77bd
000001b0: 7cb5 90bd 0a21 8c3d dcbd fcbd e854 5f3d
000001c0: 3c57 563d b80b 1abd 6817 92bc 18dd bfbd
000001d0: 021e c4bd 62e2 c4bd 8a63 cc3d 76c1 ee3d
000001e0: 9c64 2e3d 8aae ebbd 004c cf3d b456 3f3d
000001f0: c68d db3d 9032 483d b0aa 4e3c 2cfa b2bd
00000200: da13 8f3d ac3e 233d a043 063c 0cd6 443d
00000210: b425 19bd 587c eabc e8fb 863c fad2 983d
00000220: bccc 883d 00d3 39ba 8059 aebc 707c 67bd
00000230: c0fc 3ebc c414 52bd ac95 56bd cc09 0abd
00000240: d897 473d 88da ddbc 3ca3 883d 884e b2bc
00000250: 66cb 99bd 94f9 b33d e4a7 e43d ba1f 883d
00000260: d453 eebd 68e2 e8bd 980f dc3c 5e43 dd3d
00000270: 76c7 b5bd c684 a8bd 888d 8bbc de07 c9bd
00000280: c457 08bd 9864 413d 04ae f5bd 40ea 0c3c
00000290: 48d7 94bd b0de 05bd 8cd8 9abd 80de 223c
000002a0: 6447 1e3d f8dd eb3d c26a ee3d dac6 fe3d
000002b0: 187c 81bc 76ee 903d c066 97bb 1a32 d2bd
000002c0: b27d dd3d cae8 e23d 989f 713d 5230 a8bd
000002d0: e08a aabb 60db 853d 6e7d a23d 8cc4 04bd
000002e0: a4d2 0f3d b0aa 0cbc 5ac1 dc3d e298 90bd
000002f0: d8e6 da3c 8054 193c eca3 bc3d 503f 81bd
00000300: 8870 0cbd a46c 383d beec 88bd 84ae 063d
00000310: e828 23bd 0044 5fbd 0092 c2bb 268d 87bd
00000320: e681 903d e8f4 af3c 10da 613d b89b 35bd
00000330: c0e9 cbbd 8063 e2ba c0d1 64bd 4680 f3bd
00000340: 002f c3bd dc1d 6b3d 20b1 7a3c acf6 ae3d
00000350: 3488 f1bd 08ec 32bd 90ea 8b3d d046 083c
00000360: 10d2 8d3c 1024 eb3d 80c7 0c3d f02b c83c
00000370: 5ae4 803d e823 d93c 500e 0abc a6cb ffbd
00000380: 5c24 483d 8802 ee3d 7415 64bd c2b7 c2bd
00000390: 7ad9 c9bd 60b1 d03c f801 f6bc 10ae 443c
000003a0: 1cb6 1ebd 3c08 14bd b2fd b9bd 080a fcbc
000003b0: 38f5 ffbd ecec bcbd a89d 783d d46c 893d
000003c0: 904a cbbc 8802 1ebd 2aa4 8bbd 6a75 993d
000003d0: dc0f f73d 0e8c 96bd c010 cfbd e6c7 bb3d
000003e0: f00a 60bd 38f3 8a3c c40e 053d f4a0 64bd
000003f0: acec 463d 4eb1 adbd f205 a0bd 3442 d5bd
-0.031214833 0.07374641 -0.07519002 -0.057445645 0.023648858 -0.017767176 -0.030307427 0.04949674
0.11339544 0.0972057 0.045945212 -0.11324096 0.09284933 -0.016323447 0.0049958974 -0.11678514
-0.047527954 -0.07311876 -0.00032234192 -0.11399755 0.11398785 0.01679857 0.11256693 0.09320697
0.015547246 0.10051462 0.05277787 0.060369894 0.06195049 0.10034025 0.077556565 -0.012874797
-0.029402137 -0.001650989 0.08532223 -0.0097180605 0.11732139 -0.028890982 0.12261051 -0.076918155
0.099267274 0.12445858 0.053079665 -0.05403228 -0.08745131 0.014998332 -0.01977408 0.10943541
-0.1011298 0.016306296 0.006145537 0.116864875 -0.041570157 -0.08465421 0.099498615 -0.05532129
-0.017253637 -0.007366106 -0.056354254 0.06567411 -0.11457887 -0.027300805 -0.012644336 -0.011879265
0.021873862 0.110936716 -0.07709807 0.034960523 -0.08839564 0.03469281 0.0042696595 -0.1122655
0.12294641 -0.10466461 0.071436584 -0.03241898 0.019886345 -0.09801647 0.03896852 -0.07308012
0.06026788 0.1092238 -0.09011318 -0.0032183677 -0.010127589 0.074442625 -0.056918457 0.04084523
-0.11275609 -0.006993428 0.0333236 0.022004187 -0.040042907 0.07568556 0.0010796636 -0.06835845
-0.08924593 0.0042844564 0.027409166 0.059214562 0.094489455 0.0023712367 0.04818563 0.07433799
-0.020695671 0.011895984 -0.092544585 -0.060499102 -0.070658654 0.06842239 -0.123409 0.054524332
0.052329287 -0.037608832 -0.017833427 -0.09368342 -0.09576036 -0.096134916 0.09979923 0.116579935
0.042576417 -0.115079 0.10121918 0.046713546 0.107204005 0.048876345 0.012613937 -0.08739123
0.06986208 0.03985469 0.008194834 0.048055694 -0.037389472 -0.028623745 0.01647754 0.074621156
0.06679675 -0.00070886314 -0.021282911 -0.056515157 -0.01165694 -0.051289335 -0.052388832 -0.03370075
0.048728794 -0.027081743 0.066717595 -0.021765962 -0.07509498 0.087878376 0.11164835 0.06646676
-0.11637083 -0.113713086 0.026862904 0.10803865 -0.08875935 -0.082284495 -0.01703526 -0.09815954
-0.033286825 0.047215074 -0.119960815 0.008600771 -0.07267624 -0.032683074 -0.07560834 0.009940743
0.038642302 0.115169466 0.11641456 0.12440272 -0.015806243 0.07076733 -0.004620403 -0.10263462
0.1081499 0.11079557 0.05899009 -0.08212341 -0.0052045435 0.06535983 0.0793408 -0.032414004
0.035112992 -0.008585617 0.107790664 -0.0706041 0.026721403 0.009358525 0.09210953 -0.06310904
-0.034287006 0.045025483 -0.0668578 0.032881275 -0.039833933 -0.05450821 -0.0059378147 -0.06618719
0.07056026 0.021479085 0.0551396 -0.044337958 -0.09956694 -0.0017272085 -0.055864096 -0.118897006
-0.09530449 0.057401523 0.015301019 0.08543143 -0.11793557 -0.04368213 0.068318486 0.008317664
0.01731208 0.11481488 0.034369946 0.024435014 0.062935546 0.02650638 -0.008426264 -0.12490015
0.0488628 0.116215765 -0.05568452 -0.09507705 -0.098559335 0.025475204 -0.030030236 0.01200439
-0.03874789 -0.036140665 -0.09081592 -0.030766502 -0.12497944 -0.09224877 0.060697228 0.067102104
-0.024815828 -0.038576633 -0.06818421 0.07493098 0.12063572 -0.07350932 -0.10110617 0.09168987
-0.05469793 0.016961679 0.032484785 -0.05581756 0.04856555 -0.08481084 -0.07813634 -0.10413018

outs.bias f4 [4]
00000000: 30e9 96bd 0083 a4ba 681c 0cbd 081e c6bd
-0.07368696 -0.0012551248 -0.034206778 -0.09673697
