space_exploration_with_DQN/runs/LunarLander_2025-07-19_15-38-35.pt (torch, 9797 bytes, 9 tensors)

fc1.weight f4 [64, 8]
00000000: fafe 3c3d 3feb cc3d 45ed f7bd 2950 663d
00000010: ad6a 5a3e 0480 d13d feeb d0bd 09fc d53d
00000020: a729 a33e 1b25 273e 0278 7b3e 6f31 4c3d
00000030: 683f 3dbd 4fde 6fbd 4e52 d03e 3d83 35be
00000040: 55fe bdbd 3b2a 783c 6b8f b7bd 56e4 6b3c
00000050: 36d7 e1bd 8a45 bfbd c38d afbe 027f c03e
00000060: 8bcb 603e 7c26 1fbe 4251 483e da4c aebd
00000070: 86cf f43d ccb1 d93e b38d 623e 6a31 14bf
00000080: 6a56 633d f67c 4c3d 112f 84bf de83 533f
00000090: 5491 80be a032 a7bc 8951 903e 6ba7 423e
000000a0: 16e1 723e a01f 2a3e de62 fd3d d486 073e
000000b0: a4f7 883d ac5d 3c3e f1ef f73c 7b4f f93d
000000c0: 5f46 ae3d 7b19 4cbe 6bf5 213e 1146 2b3d
000000d0: a375 75be 4edf 72be a917 94be bc6d 783e
000000e0: 997a fdbd 2807 f03d b93d 9bbd 6e4f 33be
000000f0: 9f6e 07be 61a5 b6bd add9 703e 44f3 ab3d
00000100: cd13 1b3c 1479 273e d71c d23c c97e cbbb
00000110: 8c47 563d 73bb d7be 0e7a 5b3c dbaf aa3e
00000120: 145b 52be 426e 8c3d 8f01 9b3f 1f7f 653e
00000130: 5b32 e33e 0b02 e7bc 2727 933e d4a8 433e
00000140: ee6f 153d 91ec 8f3d 5a11 143f 7bce 9e3f
00000150: ae56 48be 2143 f2bd b485 a93e e05a d33c
00000160: be12 bf3e df11 4abd 81ad e03b 7e4a 8c3e
00000170: 7af5 85be cdc2 1fbe 083d d2be ddf4 043e
00000180: 2620 cc3d 2e6d 283e 73db 6fbc 5849 ba3c
00000190: 2ae2 d83d e646 303e c913 8d3e ac4d 9ebe
000001a0: f58a 633e d852 2c3e 3693 b6bc fa5d cfbe
000001b0: acaf 24bf 6399 193d 6c7e 173d 4f05 9b3c
000001c0: c6de 843e feb3 34bd e399 723c f5c0 733e
000001d0: 9c06 79be f3a2 cebd 08b9 b73d c5e5 19be
000001e0: 7651 97bd a492 283b 7cdc 3d3e a8da b7be
000001f0: 5496 b5bf ba24 213e 0ce4 e2bc b83b 87bd
00000200: 201e c23c 5c6a cebd 1890 bdbd c27a 103e
00000210: 9cfa a83d cd17 a8be 269d 203e bff1 d8bd
00000220: 56c8 9fbd 2de2 783d f0e8 dabd 459b 43bd
00000230: d475 fd3b 81b1 43be 20c4 df3e b87c 45be
00000240: 0465 053e 716e 93bd 6388 1a3e cdeb d83d
00000250: c3f9 a43a a199 2f3e e1a5 293c a976 1c3d
00000260: 22c6 d13c 334e 223e 9bcf a73d 93ea 54bc
00000270: ce07 a2bd 4bb8 aabe 78e1 1bbe fede 813e
00000280: d9a5 39bc fe21 a03d c33d 67bd d676 c3be
00000290: f423 90be 9908 a53d 2d77 f0bc 7665 8a3e
000002a0: d70a 353e 420d cfbd cfc2 563e 70ba 91bd
000002b0: ee0d eebd e106 46be 9c79 a03e 24bc 45be
000002c0: b666 ecbe 885b 363e f816 ba3e dc96 00be
000002d0: 467a df3d 32b1 39be 6379 443e c71a 87bd
000002e0: e10d 423e 70f3 73bd 9446 9f3e 4dc3 d7bc
000002f0: 2d5d 59be b7e8 9cbe 4021 46be 8cf8 5b3e
00000300: 9ba8 99bd ff37 d63d 6eb1 16be 31fe 24be
00000310: c4e9 70be e048 8f3c 9688 693e d2df 20bd
00000320: 6f1d e73d bd3e 973c e45d 8abd ea38 383e
00000330: 7a38 c23d c4e8 3c3e ba9a 47bd cb59 adbc
00000340: 5872 403c 05a9 263d 8f90 653d 76a4 75be
00000350: 308f e03f 6e88 22be 7bea 85be 6fd2 b8bd
00000360: a870 973e 2c62 5a3e 0634 9fbd d8d4 5ebe
00000370: 54ee 703f fb2c ebbd e11d 413d 61eb e23e
00000380: dd55 d7bd 5a47 0b3e e747 76be 9be9 2abf
00000390: b814 54bf 531e fc3d 643f 593e b488 8a3e
000003a0: 3b65 0cbd 2df0 933d 038d 1dbd a328 59bd
000003b0: 92cb 9abd 808e 28bd 6045 593e d859 97bd
000003c0: c540 32bd 412e 1c3d 6e3a 5cbe 5f0a 12be
000003d0: a35b 4dbe 5af2 fabd 1fa6 673e fefd b0bd
000003e0: f318 833d c67d 7e3e 9ee8 9bbc a535 7d3e
000003f0: 86c4 78bb dce2 4a3e 2774 133f cd20 05bf
0.046141602 0.10005807 -0.121058024 0.05622879 0.21329756 0.10229495 -0.10201262 0.104484625
0.31867716 0.16322748 0.24557498 0.04985183 -0.046203047 -0.05856162 0.40687793 -0.17725845
-0.092770256 0.015146787 -0.08962902 0.014397701 -0.11027376 -0.093394354 -0.34287843 0.375969
0.21952645 -0.15542024 0.19562247 -0.08510752 0.119536445 0.4251846 0.22124366 -0.578879
0.055502333 0.04992386 -1.0326864 0.8262309 -0.25110877 -0.020409882 0.28187206 0.19009177
0.23718676 0.16613626 0.12372373 0.13235027 0.06687859 0.18395108 0.03026578 0.12173363
0.08509516 -0.19931595 0.15816276 0.041814867 -0.23970656 -0.23717996 -0.289243 0.2426061
-0.12376899 0.11720115 -0.07580132 -0.17510769 -0.13225792 -0.08918262 0.23520537 0.083960086
0.00946517 0.16354781 0.025648518 -0.0062101823 0.052314326 -0.421352 0.013395799 0.33337292
-0.20542556 0.068569675 1.2109851 0.22411774 0.44374356 -0.028199216 0.28740808 0.19107372
0.036483698 0.07027543 0.57838976 1.2406763 -0.19564316 -0.1182921 0.3310982 0.025800169
0.37318987 -0.04933345 0.006856621 0.27400583 -0.26163846 -0.15601654 -0.41062188 0.12984033
0.09967069 0.16447899 -0.014639723 0.022740051 0.10590012 0.17214546 0.27554157 -0.30918634
0.22220977 0.16828477 -0.022286993 -0.40501386 -0.64330554 0.037499797 0.0369858 0.01892343
0.25951213 -0.044116966 0.014807197 0.23804076 -0.24318928 -0.10089674 0.08970839 -0.15029056
-0.07388584 0.002572217 0.1854114 -0.3590901 -1.4186502 0.15736666 -0.027696632 -0.06603187
0.023696005 -0.1007888 -0.09255999 0.14109328 0.08250925 -0.3283066 0.15684947 -0.105929844
-0.07801883 0.060762573 -0.106889606 -0.0477555 0.0077349935 -0.19110681 0.4370432 -0.19285858
0.13026816 -0.071987994 0.1509109 0.105918504 0.0012586642 0.17148449 0.01035449 0.0381991
0.025607172 0.15850143 0.081938945 -0.01299538 -0.07911645 -0.3334373 -0.15222728 0.25365442
-0.011331045 0.078189835 -0.056455385 -0.38176602 -0.2815243 0.080582805 -0.029353702 0.27030534
0.17679916 -0.101099506 0.20972751 -0.07115638 -0.116237506 -0.19338562 0.3134278 -0.19310051
-0.46172112 0.17808354 0.3634565 -0.12557548 0.10911994 -0.18134001 0.1918693 -0.06596904
0.18950607 -0.059558332 0.31108534 -0.026338244 -0.2122695 -0.30646297 -0.19348621 0.21481532
-0.07502862 0.10459899 -0.14716122 -0.16112591 -0.23526675 0.017490804 0.2280601 -0.03927595
0.11284911 0.018462533 -0.067561895 0.17990461 0.09483428 0.18448168 -0.048731543 -0.02116098
0.011746012 0.040688533 0.056046065 -0.23988518 1.7543697 -0.15872356 -0.26155457 -0.09024512
0.29578137 0.21326512 -0.077735946 -0.21760881 0.9411366 -0.11483189 0.047147635 0.44320205
-0.10514424 0.13601437 -0.24050866 -0.66762704 -0.82844114 0.123104714 0.21215588 0.2705742
-0.03427623 0.07223544 -0.038464557 -0.05301727 -0.07558359 -0.041151524 0.2121787 -0.07390183
-0.0435188 0.03813005 -0.21506664 -0.14261769 -0.20054488 -0.12253256 0.22621964 -0.08642195
0.06401243 0.24852666 -0.019031819 0.24727495 -0.0037958934 0.19813102 0.5759911 -0.52003175

fc1.bias f4 [64]
00000000: 0fc8 fb3d 3d83 b9bb 9209 8a3d 4df4 d33d
00000010: bd45 1a3d c4fd c439 67f0 403e f981 b23d
00000020: ee1b 08bd 61d3 f63d 74b0 0d3d 8298 9d3e
00000030: 4694 943c d8a1 30be 1f76 793e 93b0 db3d
00000040: c9c3 413e c7c1 6ebb 6f6a e93d b8ca 5ebb
00000050: f98f 553d a55c a83d 092f 27be efb0 563d
00000060: 9077 b83d bbac 353e 2a7b 503d 7dc3 24be
00000070: 6881 17be db7f d43a d491 103e 53f1 75bd
00000080: 23aa 803e bcc6 023e 4daf 833e 67a0 cfbb
00000090: 8433 9b3d 97c5 413e 5c0b efbc 827c 493e
000000a0: 4c80 ce3d e7c7 3b3d a326 55bd 7485 8c3d
000000b0: 93bf adbb 07d3 0a3d c7dc 0ebd 6010 c43d
000000c0: 13ad 46be 594f ea3c cb98 da3c d2d3 c53d
000000d0: 4d03 f53d dd48 a83d 5b6c d4bb 4fb4 b43c
000000e0: df85 103d 94de 153e de4c 493e e129 d63b
000000f0: f7cb 303e fd02 8fbd 03db e4bc 0bed 8b3e
0.122940175 -0.005661397 0.06740107 0.10349331 0.037664164 0.00037573103 0.18841706 0.087161966
-0.03322976 0.12052036 0.034592107 0.30780417 0.018137109 -0.17249238 0.24361466 0.10727038
0.18922342 -0.0036431418 0.11397254 -0.0033995342 0.052139256 0.082207955 -0.16326536 0.05241483
0.0900718 0.17741673 0.05089871 -0.16090198 -0.14795458 0.001621242 0.14118129 -0.060044598
0.25129804 0.12771124 0.2571968 -0.00633626 0.07578185 0.18923031 -0.029180221 0.19676402
0.100830644 0.04584494 -0.0520388 0.06861392 -0.0053023784 0.033892658 -0.03487852 0.09573436
-0.1940196 0.028602289 0.026684185 0.09659542 0.1196352 0.082170226 -0.0064826435 0.022058634
0.03528392 0.14635688 0.19658229 0.006535754 0.17265306 -0.06982992 -0.027936464 0.27329287

ln1.weight f4 [64]
00000000: 4ca5 ed3f 0ab5 0540 6044 0f40 f5f7 1f40
00000010: b616 5640 8bb7 e13f bb5a f73f f308 db3f
00000020: d977 1340 6cb0 3a40 a227 2740 478e d33f
00000030: ebdc c33f 70b9 0040 b3e7 d33f 0ba0 2040
00000040: 0cd6 cd3f b26d 1240 b149 0340 3502 1340
00000050: 08be e33f 79ed 1b40 4f8c 0740 6d06 1240
00000060: 61b4 d73f 141a cc3f 7653 4d40 e29e ff3f
00000070: 99ea 2e40 21a9 0940 2a6b d63f 5ee0 c73f
00000080: aee8 1940 8fb7 f93f 26e2 cc3f fcab 0340
00000090: 5f05 f83f 3eef e33f 00f8 0640 12a2 0240
000000a0: 50f7 0040 4576 2f40 ec51 0c40 3d14 b33f
000000b0: 108f e23f 9536 1c40 0c87 f73f f147 da3f
000000c0: 2c4e f33f 5cc6 eb3f 56b4 0e40 8330 ce3f
000000d0: 5228 1140 c96e ee3f 2321 c23f 7adf c23f
000000e0: 5b41 eb3f 97d7 e83f 1cde be3f a814 1140
000000f0: 5ec2 f33f 5d6e 1840 2f5b 1640 c3cb c03f
1.856607 2.0891747 2.2385483 2.499509 3.3451362 1.7634138 1.9324564 1.7112106
2.30419 2.917018 2.611794 1.6527795 1.5301794 2.0113182 1.6555084 2.5097682
1.6080947 2.2879453 2.0513728 2.2970097 1.7792368 2.4363692 2.1179388 2.2816422
1.6851922 1.5945458 3.208219 1.9970362 2.7330687 2.1509478 1.6751454 1.5615346
2.4048266 1.9509143 1.6006515 2.057372 1.9376639 1.7807386 2.1088867 2.041142
2.0150948 2.7415936 2.1925 1.3990551 1.7699909 2.4408314 1.9338088 1.7053205
1.9008231 1.841991 2.2297568 1.6108555 2.268086 1.8627559 1.5166363 1.522445
1.837932 1.8190793 1.4911532 2.2668858 1.9043691 2.381736 2.3493154 1.5062183

ln1.bias f4 [64]
00000000: bd2b 7c3e 2890 9d3e 6396 6b3e 680b ac3e
00000010: 335c 983e a2dc 813e b7e5 8f3e 6e1a 063f
00000020: 9bca 993e b98c c73e 8597 9a3e eb3a 893e
00000030: 54ef 8b3e 35b4 e73e 9332 b23e 7677 d93e
00000040: 7cc6 933e 19ed ac3e b6a1 9c3e c53e 503e
00000050: 2a0a df3e 7739 d63e 92aa 043f 766e e13e
00000060: 45e3 e23e d3b9 643e 8354 aa3e 8359 a93e
00000070: 00c4 013f b8ae e23d fece 033f 8784 313e
00000080: 4576 d83e 12eb 923e c12c 033f 7414 0b3f
00000090: 9fa7 f13d 51cd e63e e4b4 d03d b673 983e
000000a0: 97e4 903e 048e ac3e d55c f23d 4879 a7bd
000000b0: bccc 0b3f 7e78 913e 68c6 163f 85dd 563e
000000c0: 7d38 d7bc 9d9c 083e 6ec3 043e 9ed5 fb3e
000000d0: bab0 a53e e3f4 c73e bc3f 1e3e 0897 5a3e
000000e0: 0270 b43e 2260 1f3e 978e 823e b5d9 a63e
000000f0: 3fbf 9a3e b681 053e 7b6b 293e e2d9 8f3e
0.2462606 0.30774045 0.23006587 0.33602452 0.29757842 0.25363642 0.28104946 0.5238408
0.30037388 0.3897455 0.30193725 0.26802763 0.2733103 0.45254675 0.3480421 0.42473954
0.2886237 0.3377464 0.30592126 0.20336445 0.43562442 0.41840717 0.5182277 0.44029588
0.44314018 0.22336511 0.33267602 0.33076105 0.506897 0.11068481 0.5148772 0.17335711
0.42277732 0.2869497 0.51240164 0.54328084 0.11799549 0.4507852 0.10190752 0.2977578
0.282994 0.337021 0.118341126 -0.081774294 0.54609275 0.2841224 0.58896494 0.2098294
-0.026272053 0.13340993 0.12965176 0.49186414 0.32361394 0.3905402 0.15454 0.21346676
0.35241705 0.15564016 0.25499412 0.32587972 0.30224034 0.13037762 0.16544907 0.2809592

fc_value.weight f4 [1, 64]
00000000: 675e 79be 3438 63bf 82c6 81bf 0913 a2bf
00000010: 82d1 e93f 2949 dbbe 4dfb 45bf 020b 4b3f
00000020: 3197 90bf 8e65 c93f acbd 9d3f a85d 37bf
00000030: d5d6 b3be 5e32 893f 4622 01bf 9eae b73f
00000040: cf61 13bf 6ac5 88bf 6d0f 1dbf eaaa 76bf
00000050: d0aa 483f 869f 93bf beef 8a3f 1a2e 91bf
00000060: 2926 3b3f 7308 e0be 988c 0940 33f2 793f
00000070: 51b3 c23f 96d3 43bf a050 113f 47f4 06bf
00000080: 18b7 b63f be57 45bf 9309 183f 7030 2fbf
00000090: d490 4ebf 2e73 553f 3385 0dbf bcde 813f
000000a0: ec74 653f 2571 aebf 2122 47bf 67c7 93be
000000b0: 822f 3e3f 76a0 1cbf 4c90 713f 97ca dbbe
000000c0: eca8 f9be 6b6a f3be b12a 6fbf caab 223f
000000d0: 6bc8 62bf 546c b5be 59ad f0be 53b3 86be
000000e0: 3792 4dbf 30ec 2abf 5d6f edbe 67de 84bf
000000f0: 0322 3fbf 6618 5bbf d702 8bbf 1a87 c1be
-0.24352418 -0.88757634 -1.0138705 -1.2662059 1.8267062 -0.42829254 -0.7733658 0.7931367
-1.129614 1.5734117 1.2323508 -0.71627283 -0.3512484 1.0718496 -0.5044292 1.4350164
-0.5757112 -1.0685246 -0.6135166 -0.96354544 0.7838564 -1.1533058 1.0854414 -1.1342194
0.731051 -0.43756446 2.1492062 0.9763519 1.5210973 -0.7649473 0.5676365 -0.5271649
1.4274626 -0.7708701 0.5938961 -0.68433285 -0.8068974 0.83378875 -0.5528137 1.0146098
0.89631534 -1.3628279 -0.7778645 -0.2886307 0.7429124 -0.61182344 0.94360805 -0.42928
-0.4876169 -0.47542128 -0.93424517 0.6354338 -0.88587064 -0.3543421 -0.47007254 -0.2630869
-0.8030123 -0.66766644 -0.46374026 -1.0380372 -0.7466127 -0.85584104 -1.0860242 -0.37798387

fc_advantage.weight f4 [4, 64]
00000000: 06a8 323f 6b6f 7c3e 0559 3cbe c62d eabd
00000010: 6740 d13e 704e e4be 6c17 c83d cb3d d1bd
00000020: f8ff 513e 4616 a7be 1656 503f a1a0 b83d
00000030: 2fda 753e ef7f 97bd e197 7b3d 9b0a d03e
00000040: 31fa a43e 7806 c1bd 937c 1a3f d733 5fbd
00000050: cd47 c9be 89b4 183d 193d 2dbe 882c 37be
00000060: 3d5f 04be e10f 123e 8475 f53d 6694 0a3d
00000070: 6db7 54bc 723f 56be 0018 203c 9e83 e93e
00000080: ebc7 d7bd c058 b1be ccb6 fb3c 6822 febe
00000090: 30f4 7c3e a51d 81be 42de 19bf 562a 7abc
000000a0: 0216 9dbd 7b39 803e da14 87bd 5887 6fbe
000000b0: 12e4 96be d33b 00bf 9339 793e 6d45 953e
000000c0: 3fe7 8dbe b1ea 0e3f 3525 603e b867 d7bd
000000d0: 39ea 76be 9550 1dbe 4770 c7be 94e2 b93e
000000e0: 3640 183e 75d4 07be f13d 103e eef8 dbbd
000000f0: 5c5d 49be 3c7b 3cbe 6992 07be 74af 0a3e
00000100: 52b6 e5bd cc8c 8f3e 0cd3 68be 5510 193e
00000110: 0832 7fbe 9375 7bbe d252 2ebd f1e8 83bd
00000120: 2306 8b3e 309e 80bc 7cda 753d 827e 523e
00000130: 7ae7 e5bd 9f93 643e 844f 483e bd1c 1b3e
00000140: 4772 83be 145e 173f aa14 293d 72db e53e
00000150: 7e39 233e e95d 813d ea8f 363b 1fea aa3d
00000160: cbd4 a5bd 4f03 a1be c8d5 cbbe bc55 0abf
00000170: 646e 43be 7f2b fabe 65ca 1b3e c5ed e9bd
00000180: 173b ca3d db6e 353d 2ffe f6bd 1846 54bc
00000190: 3b9e 243e 6bd6 96be 5dff f9be ab50 c53e
000001a0: 0f37 92be aa80 b13e 31fc 40bf dd97 14be
000001b0: e7d2 12be 79de 1c3f 0c6b 793e 14d0 053f
000001c0: 9d22 b2be b556 f23e 23a3 3d3e 7243 cb3d
000001d0: adfb 9ebe 6e9d 0ebf 645b 123e 6a9f 0d3e
000001e0: e14c d7bd 58d8 9bbd f3cc 34be 59ca f23e
000001f0: 847a e4bc fb0a 15bf 0c41 e73e c8be 533d
00000200: e1bf 16bf 5ffb b5be 9551 193e 9b49 593c
00000210: 0a0c bbbe 4fa7 093f b9de ef3c 0664 533d
00000220: fc21 c03c 1273 1dbe 6567 d8be 2b30 cfbd
00000230: 65bc 9ebe 81ec 813e d92d ea3d 156d c1bd
00000240: 1fc8 d1bd 847c c83c 77da 66be 54c2 f9bd
00000250: 2139 083e e04f af3d 3440 803e 3c45 76bd
00000260: 3a51 ec3d a1e3 493d 6b82 aa3e a252 353e
00000270: db73 c73d 81a7 0d3e 9a9c 043e 4cdb 48be
00000280: 97b1 953e 76f5 e33e a6cd 82bd ddd8 033f
00000290: 565c 3cbe 6099 b43d b5b5 653e 8f3e 76bd
000002a0: 3e84 c83c a3e4 2d3e 5954 1a3f 5bad e1bc
000002b0: bd89 413e ce84 ec3e 9496 3ebc 9cec 0fbf
000002c0: ae9e 013f 8689 01bf 4cb5 cb3e b0ce 2f3e
000002d0: 9aff 8b3e c036 833e 010d 1a3e 2001 e2be
000002e0: 8d3f 80bd e5a1 103d 8e3a 04bc 0ec3 f7bc
000002f0: 4736 973e 30bd b83e 80e8 6d3d de22 a5be
00000300: c13c 353f a713 61be e62f 783e e53e 5c3d
00000310: 1922 773e 0e22 5cbd 2ede d8bd f079 1d3b
00000320: 6fb7 e1bc 39cd 523e 89fe 0fbf d37d 96bc
00000330: 065d b23e 0cc3 5fbe 7eca 1cbe 005a b9be
00000340: b7aa 5c3e 96e7 7bbe fd74 7dbe 3edd 0dbf
00000350: 14b4 f0bd 7510 6cbe 6918 c8be c60f 413d
00000360: 177c 8ebd 9933 aa3e cebc 1bbe 9514 a23e
00000370: 7729 afbd 48a3 f03e 6ca2 083d 45cc 7ebe
00000380: 601e edbd f545 acbe cfe3 da3d e020 75be
00000390: 67bb 093d 3556 a93e 371b 073f c770 06be
000003a0: 865b d63e e77c 13bc 00e0 0f3e 20b4 c73e
000003b0: f383 3ebd 8871 2ebf 7b9b dcbe 854c 29be
000003c0: 8f89 cdbb b627 fd3d c71d f93b 6b3a 1bbd
000003d0: e814 8d3e a56f a63e eeab 803d f673 803e
000003e0: 5c43 693e c20e e13c f594 1c3e eea8 7cbe
000003f0: 0006 83be ea99 78bd 334f 1e3e 54ff 783e
0.69787633 0.24651878 -0.18393333 -0.11434512 0.40869448 -0.44591093 0.09770092 -0.10216864
0.205078 -0.3263418 0.81381357 0.090150125 0.24009012 -0.07397448 0.06142414 0.4063309
0.3222213 -0.09425062 0.60346335 -0.054492798 -0.39312592 0.037281547 -0.16917838 -0.17888081
-0.12926956 0.1426387 0.11985305 0.03383293 -0.012983185 -0.2092264 0.009771347 0.45608228
-0.10536178 -0.34638023 0.030726813 -0.49635625 0.24702525 -0.2521793 -0.60104764 -0.015268883
-0.07670213 0.25043854 -0.06595774 -0.23391473 -0.2947088 -0.50091285 0.24338369 0.2915453
-0.2771549 0.5582686 0.21889193 -0.1051783 -0.24112786 -0.15362771 -0.38952848 0.36305678
0.14868245 -0.1326464 0.14086129 -0.10740839 -0.1966452 -0.18406385 -0.13239445 0.13543493
-0.112164155 0.28037107 -0.22736758 0.14947636 -0.24921429 -0.2455657 -0.042559452 -0.064409144
0.2715312 -0.01570043 0.060022816 0.20556071 -0.11225791 0.22321938 0.19561583 0.15147682
-0.25673124 0.59127927 0.041279472 0.44893986 0.159399 0.0631674 0.0027856776 0.08345436
-0.08097228 -0.31447837 -0.3981154 -0.5403707 -0.1908508 -0.4886131 0.15213926 -0.11422304
0.09874552 0.044295173 -0.120602004 -0.012956165 0.16075985 -0.29460463 -0.4882764 0.38538107
-0.2855763 0.34668475 -0.75384814 -0.14511056 -0.14338265 0.61276966 0.24357241 0.5227063
-0.34792033 0.47331777 0.18519263 0.099249735 -0.31051388 -0.5570897 0.14292675 0.13830343
-0.1051271 -0.07609624 -0.17656307 0.47420004 -0.027890451 -0.5821988 0.45166814 0.051695615
-0.58886534 -0.35543343 0.14972527 0.013262178 -0.36532623 0.5377092 0.029281007 0.05160906
0.023453705 -0.15375927 -0.42266384 -0.10116609 -0.3100311 0.2537575 0.11434526 -0.09444634
-0.10243248 0.024473436 -0.22544275 -0.12195268 0.13303043 0.08560157 0.25048983 -0.06012462
0.1153893 0.04928935 0.33302626 0.17707303 0.097388946 0.13833429 0.12950364 -0.19614905
0.29237053 0.4452321 -0.063868806 0.5150278 -0.18394598 0.088183165 0.22432597 -0.060118254
0.02447712 0.16981749 0.60284954 -0.027548483 0.18900199 0.46195072 -0.01163258 -0.5622041
0.5063275 -0.5060047 0.39786756 0.17168689 0.27343446 0.25627708 0.15044023 -0.44141483
-0.06262121 0.035310645 -0.008070601 -0.030244377 0.29533598 0.3608184 0.058083057 -0.32253164
0.7079583 -0.21980153 0.24237022 0.05377092 0.24134101 -0.053743415 -0.105892524 0.002402898
-0.027553288 0.20586099 -0.56247765 -0.018370545 0.34836596 -0.21851748 -0.1531162 -0.36201477
0.21549498 -0.24600062 -0.24751659 -0.55415714 -0.11753097 -0.23053153 -0.39081123 0.047134183
-0.06957262 0.3324249 -0.15208742 0.31656328 -0.08552831 0.46999574 0.033358023 -0.2488261
-0.11578059 -0.33647123 0.10687982 -0.23938322 0.033625986 0.33073583 0.527759 -0.13128959
0.41866702 -0.009001947 0.14050293 0.39004612 -0.046512555 -0.68141985 -0.43087372 -0.16533096
-0.006272502 0.1236109 0.0076024267 -0.03789751 0.27555013 0.32507053 0.06282793 0.2508847
0.22779602 0.027472857 0.15291198 -0.24673817 -0.25590515 -0.06069366 0.154599 0.2431615

fc_advantage.bias f4 [4]
00000000: 587c d7bd 7531 4abd f594 133e 935f f4bb
-0.105217636 -0.049363572 0.14412291 -0.0074576824

outs.weight f4 [4, 64]
00000000: de41 b33d 70ca 81bc 78cc d83c c041 103b
00000010: 40fa 843b 52f2 c9bd f07c edbc 30c0 febc
00000020: fe98 e8bd dceb 9cbd a6f9 dabd e003 623c
00000030: 10ae 51bd a811 403d 408f 423d f053 1abd
00000040: fe6a c4bd b22e 893d c880 e3bd 803e 753d
00000050: f4b8 a53d c8a9 9abc 6680 93bd 1a73 e0bd
00000060: 9e79 8bbd 8e56 dfbd ee22 f2bd 1a58 e63d
00000070: 5451 463d 2e2c b23d c4b8 4e3d b0a6 033c
00000080: aa38 85bd 58ae c83d 3cf6 f43d 603d e93c
00000090: 54b3 19bd 6007 b63c 8040 943c 8aa1 863d
000000a0: 3eca f5bd 7c9d 793d 6cab 2d3d 3049 4f3c
000000b0: 4266 b4bd 3ebd e3bd dc81 bc3d 8a75 da3d
000000c0: c46f b8bd 002d 8b3b 2488 f63d f4c6 643d
000000d0: 98f0 483d 2841 05bd 3cf6 5e3d 3cd6 76bd
000000e0: 2089 e43b ba55 c63d b63d 9abd 6866 b53d
000000f0: 6069 833d 8867 fc3c e8f2 813d 0024 ec39
00000100: aa88 febd 0401 ce3d d440 d13d 2097 93bb
00000110: 20d9 ca3c e8ba d53d 000b 8d3d aec5 a63d
00000120: b889 d0bd d834 a63c a0dc b4bc beb4 9ebd
00000130: 40eb 103c 16dc ebbd 5064 7fbc 7416 0b3d
00000140: 5af7 c3bd d0a7 473d dc07 523d 8046 f63d
00000150: 2c45 d53d 203f 8f3d 24d7 b13d 40b0 b63c
00000160: 80a7 45bd 6066 a9bd 5472 1bbd 00ba 1dbb
00000170: 2818 a93c 10fe eebd 70f2 6cbd d6cc 9abd
00000180: d010 6b3c 007e 8fb9 a0e9 e03d 804b 923b
00000190: 2411 4e3d 503c 903d f0d8 7f3c 804c 453d
000001a0: 4001 c7bc 487f 893c 34e5 d4bd f8b1 f3bc
000001b0: b069 643d ccd5 333d 5cb8 393d 5431 fe3d
000001c0: 70c7 9a3c 5e9d d6bd 708f 973d e841 523d
000001d0: 5448 80bd b4c2 0f3d 52a5 b6bd 44b6 a83d
000001e0: 1a6b aa3d 0098 26bb e00d cfbc c46b 343d
000001f0: 880c dabd 304f cc3c 7810 6a3d 9087 f0bd
00000200: 6cd2 293d 9c22 afbd 6c2a 0dbd b258 d1bd
00000210: 700e b8bd ac26 b73d 2832 1f3d 00d3 15bc
00000220: 4c65 e2bd 3a2c f83d 2c71 9e3d f8a4 c9bd
00000230: c0b1 533c 3040 11bc 6435 30bd ac51 ccbd
00000240: 808a 45bb c048 0e3b 5c74 28bd daa7 d23d
00000250: 461a d5bd 8eb1 cfbd 1c4d 1e3d 007c eab9
00000260: 702f 203d d87f b43c 6072 d03c 00bc a93a
00000270: 7ccf 08bd c8a7 3f3d 14c8 2a3d a873 6c3d
00000280: 4aff dabd f4b8 eebd 18d3 b53c b6a1 8e3d
00000290: 3ccd 743d b6bb acbd d43a febd 185b ce3c
000002a0: 5a96 80bd b0ca c63d e045 abbc 0c74 3e3d
000002b0: e2f9 803d c000 3f3b 7872 9b3d c06d 493b
000002c0: a0bc fe3d 6093 86bd c648 90bd b6a6 abbd
000002d0: ac22 953d 60d4 5bbd 4492 c03d bed4 f83d
000002e0: ea40 ce3d b879 a8bd e8d7 5fbd 9868 a9bd
000002f0: 306f 1c3c 78f9 e7bc 84b6 0abd 10b1 3e3d
00000300: dea3 9cbd 86dd d9bd 5a23 a0bd 00da ac3b
00000310: 9897 90bc a03c 87bc e0b6 f53b 54b6 8abd
00000320: 1a7c 8bbd fcfe d13d 6cf2 c0bd 2e2a d4bd
00000330: 3077 9abd 2e8a b93d 2237 a5bd 38a6 9b3c
00000340: 9053 16bd d08e cbbd 0879 293d b04d e1bd
00000350: 265e e6bd ce80 d4bd ccde 67bd cce7 993d
00000360: 3652 dc3d a434 3c3d 564a e2bd 2c11 89bd
00000370: 3214 d93d 5ad5 85bd 680f 3d3d 4a8a c73d
00000380: 106d 09bd a8ef 51bd 828e bfbd 145f 76bd
00000390: 1c34 76bd f26b f7bd e2a7 a7bd daec cabd
000003a0: 00e7 e0bb 3c4b cb3d 80ba 3cbd 2601 a83d
000003b0: 24ff 843d 8412 0f3d b879 723d ae2a 84bd
000003c0: 1231 d5bd e087 d83b d6aa bd3d 7c74 763d
000003d0: c431 53bd 4204 c2bd d0fc 3f3d 7489 f1bd
000003e0: 8075 cbba bc87 063d 0cba 97bd cc1c db3d
000003f0: 08a0 47bd 34ba bf3d 1844 23bd a026 6abc
0.087527975 -0.0158436 0.026464686 0.0022011846 0.0040581524 -0.09860672 -0.028990239 -0.031097502
-0.11357306 -0.07662174 -0.10692148 0.013794869 -0.05119139 0.04689184 0.047499895 -0.037677705
-0.0959072 0.066983595 -0.111085474 0.059874058 0.08091918 -0.018879786 -0.072022244 -0.10959454
-0.06810306 -0.10905181 -0.118230686 0.11247273 0.048417404 0.08699833 0.050469175 0.008035347
-0.065049484 0.097988784 0.11961028 0.028471649 -0.037524536 0.022220314 0.018097162 0.0657378
-0.12001465 0.060941204 0.04239981 0.012651727 -0.08808567 -0.111200795 0.09204456 0.1066695
-0.090056926 0.004247308 0.120376855 0.0558538 0.049057573 -0.03253284 0.054434046 -0.060262904
0.0069743544 0.0968432 -0.07531302 0.08857423 0.06416583 0.030811086 0.06345159 0.0004504025
-0.1242841 0.100587875 0.10217443 -0.0045040995 0.024761736 0.1043604 0.06886864 0.08143173
-0.10182518 0.02028887 -0.022077858 -0.077493176 0.0088451505 -0.115165874 -0.015587881 0.03395696
-0.09568663 0.048744023 0.051277027 0.120251656 0.10413584 0.06994462 0.08683613 0.02230084
-0.048255444 -0.082714796 -0.03795083 -0.0024067163 0.020641401 -0.11669552 -0.057848394 -0.075586006
0.01434727 -0.00027368963 0.109820604 0.0044645667 0.050309315 0.07042754 0.015615687 0.04816866
-0.024292588 0.016784325 -0.103952795 -0.029747948 0.055764854 0.043905064 0.045341834 0.12411752
0.018893927 -0.10479234 0.074004054 0.051332384 -0.062637955 0.035097793 -0.08918251 0.082378894
0.08321209 -0.002542019 -0.02527517 0.044048086 -0.106469214 0.024940103 0.057144612 -0.117446065
0.04146044 -0.08551523 -0.034464285 -0.102219954 -0.08987129 0.08942923 0.038866192 -0.009144545
-0.11054477 0.121178105 0.077364296 -0.098459184 0.012920797 -0.008865401 -0.043019667 -0.09976515
-0.0030142367 0.0021710843 -0.041126594 0.102859214 -0.10405402 -0.10141288 0.038647756 -0.00044724345
0.03910774 0.022033617 0.025445163 0.0012949705 -0.033400998 0.046790868 0.041694716 0.057727486
-0.10693224 -0.11656371 0.022195384 0.06964438 0.05976604 -0.084342405 -0.12413564 0.025189921
-0.06278677 0.09706628 -0.020907342 0.04649739 0.06297661 0.0029144734 0.075901926 0.0030735582
0.12438321 -0.06571078 -0.070451304 -0.08381407 0.07282004 -0.053669333 0.09402898 0.12149952
0.10070975 -0.08226341 -0.054649264 -0.08271903 0.009547994 -0.028317198 -0.033865467 0.04655558
-0.07648443 -0.10637955 -0.07819243 0.005275011 -0.01765041 -0.0165084 0.007498607 -0.067730576
-0.0681078 0.102537125 -0.09421238 -0.10359608 -0.075422645 0.09059559 -0.080671564 0.019000158
-0.036700785 -0.09939349 0.04137519 -0.11001146 -0.11248426 -0.1037613 -0.05660896 0.07514915
0.10757868 0.04594864 -0.11049335 -0.066927284 0.10599555 -0.06534834 0.04615727 0.097431734
-0.033551276 -0.051253945 -0.09353353 -0.060149267 -0.06010829 -0.12081136 -0.08186318 -0.09908457
-0.006863475 0.09926459 -0.046076298 0.08203344 0.06493977 0.034929767 0.05919811 -0.06453453
-0.1040975 0.0066079944 0.092611 0.060169682 -0.051561132 -0.09473468 0.04687196 -0.11793795
-0.0015522689 0.03284429 -0.074085325 0.10698852 -0.048736602 0.09361687 -0.03985986 -0.0142914355

outs.bias f4 [4]
00000000: 7066 a4bc fc0d 78bd 1aed c73d 6c6c 93bd
-0.020068377 -0.06056021 0.097620204 -0.07198414
